#map = affine_map<(d0) -> (d0 * 128 + 127)>
#map1 = affine_map<(d0) -> (d0 * 128)>
module {
  func.func @kernel_gemm0(%arg0: memref<32x32xf32, 2>, %arg1: memref<32x32xf32, 2>) -> memref<32x32xf32, 2> attributes {adf.kernel, edge_kernel} {
    %cst = arith.constant 0.000000e+00 : f32
    %alloc = memref.alloc() : memref<32x32xf32, 2>
    affine.for %arg2 = 0 to 32 {
      affine.for %arg3 = 0 to 32 {
        affine.store %cst, %alloc[%arg2, %arg3] : memref<32x32xf32, 2>
      }
    }
    affine.for %arg2 = 0 to 32 {
      affine.for %arg3 = 0 to 32 {
        affine.for %arg4 = 0 to 32 {
          %0 = affine.load %arg0[%arg2, %arg4] : memref<32x32xf32, 2>
          %1 = affine.load %arg1[%arg4, %arg3] : memref<32x32xf32, 2>
          %2 = arith.mulf %0, %1 : f32
          %3 = affine.load %alloc[%arg2, %arg3] : memref<32x32xf32, 2>
          %4 = arith.addf %3, %2 : f32
          affine.store %4, %alloc[%arg2, %arg3] : memref<32x32xf32, 2>
        }
      }
    }
    return %alloc : memref<32x32xf32, 2>
  }
  func.func @kernel_gemm(%arg0: memref<32x32xf32, 2>, %arg1: memref<32x32xf32, 2>, %arg2: memref<32x32xf32, 2>) -> memref<32x32xf32, 2> attributes {adf.kernel} {
    %alloc = memref.alloc() : memref<32x32xf32, 2>
    affine.for %arg3 = 0 to 32 {
      affine.for %arg4 = 0 to 32 {
        %0 = affine.load %arg2[%arg3, %arg4] : memref<32x32xf32, 2>
        affine.store %0, %alloc[%arg3, %arg4] : memref<32x32xf32, 2>
        affine.for %arg5 = 0 to 32 {
          %1 = affine.load %arg0[%arg3, %arg5] : memref<32x32xf32, 2>
          %2 = affine.load %arg1[%arg5, %arg4] : memref<32x32xf32, 2>
          %3 = arith.mulf %1, %2 : f32
          %4 = affine.load %alloc[%arg3, %arg4] : memref<32x32xf32, 2>
          %5 = arith.addf %4, %3 : f32
          affine.store %5, %alloc[%arg3, %arg4] : memref<32x32xf32, 2>
        }
      }
    }
    return %alloc : memref<32x32xf32, 2>
  }
  func.func @adf_cell0(%arg0: !adf.plio<In, 128>, %arg1: !adf.plio<In, 128>, %arg2: !adf.plio<In, 128>, %arg3: !adf.plio<In, 128>, %arg4: !adf.plio<In, 128>, %arg5: !adf.plio<In, 128>, %arg6: !adf.plio<In, 128>, %arg7: !adf.plio<In, 128>, %arg8: !adf.plio<Out, 128>, %arg9: !adf.plio<In, 128>, %arg10: !adf.plio<In, 128>, %arg11: !adf.plio<In, 128>, %arg12: !adf.plio<In, 128>, %arg13: !adf.plio<Out, 128>, %arg14: !adf.plio<In, 128>, %arg15: !adf.plio<In, 128>, %arg16: !adf.plio<In, 128>, %arg17: !adf.plio<In, 128>, %arg18: !adf.plio<Out, 128>, %arg19: !adf.plio<In, 128>, %arg20: !adf.plio<In, 128>, %arg21: !adf.plio<In, 128>, %arg22: !adf.plio<In, 128>, %arg23: !adf.plio<Out, 128>, %arg24: !adf.plio<In, 128>, %arg25: !adf.plio<In, 128>, %arg26: !adf.plio<In, 128>, %arg27: !adf.plio<In, 128>, %arg28: !adf.plio<Out, 128>, %arg29: !adf.plio<In, 128>, %arg30: !adf.plio<In, 128>, %arg31: !adf.plio<In, 128>, %arg32: !adf.plio<In, 128>, %arg33: !adf.plio<Out, 128>, %arg34: !adf.plio<In, 128>, %arg35: !adf.plio<In, 128>, %arg36: !adf.plio<In, 128>, %arg37: !adf.plio<In, 128>, %arg38: !adf.plio<Out, 128>, %arg39: !adf.plio<In, 128>, %arg40: !adf.plio<In, 128>, %arg41: !adf.plio<In, 128>, %arg42: !adf.plio<In, 128>, %arg43: !adf.plio<Out, 128>, %arg44: !adf.plio<In, 128>, %arg45: !adf.plio<In, 128>, %arg46: !adf.plio<In, 128>, %arg47: !adf.plio<In, 128>, %arg48: !adf.plio<Out, 128>, %arg49: !adf.plio<Out, 128>, %arg50: !adf.plio<Out, 128>, %arg51: !adf.plio<Out, 128>, %arg52: !adf.plio<Out, 128>, %arg53: !adf.plio<Out, 128>, %arg54: !adf.plio<Out, 128>, %arg55: !adf.plio<Out, 128>, %arg56: !adf.plio<In, 128>, %arg57: !adf.plio<In, 128>, %arg58: !adf.plio<In, 128>, %arg59: !adf.plio<In, 128>, %arg60: !adf.plio<Out, 128>, %arg61: !adf.plio<Out, 128>, %arg62: !adf.plio<Out, 128>, %arg63: !adf.plio<Out, 128>, %arg64: !adf.plio<Out, 128>, %arg65: !adf.plio<Out, 128>, %arg66: !adf.plio<Out, 128>, %arg67: !adf.plio<Out, 128>, %arg68: !adf.plio<In, 128>, %arg69: !adf.plio<In, 128>, %arg70: !adf.plio<In, 128>, %arg71: !adf.plio<In, 128>, %arg72: !adf.plio<Out, 128>, %arg73: !adf.plio<Out, 128>, %arg74: !adf.plio<Out, 128>, %arg75: !adf.plio<Out, 128>, %arg76: !adf.plio<Out, 128>, %arg77: !adf.plio<Out, 128>, %arg78: !adf.plio<Out, 128>, %arg79: !adf.plio<Out, 128>, %arg80: !adf.plio<In, 128>, %arg81: !adf.plio<In, 128>, %arg82: !adf.plio<In, 128>, %arg83: !adf.plio<In, 128>, %arg84: !adf.plio<Out, 128>, %arg85: !adf.plio<Out, 128>, %arg86: !adf.plio<Out, 128>, %arg87: !adf.plio<Out, 128>, %arg88: !adf.plio<Out, 128>, %arg89: !adf.plio<Out, 128>, %arg90: !adf.plio<Out, 128>, %arg91: !adf.plio<Out, 128>, %arg92: !adf.plio<In, 128>, %arg93: !adf.plio<In, 128>, %arg94: !adf.plio<In, 128>, %arg95: !adf.plio<In, 128>, %arg96: !adf.plio<Out, 128>, %arg97: !adf.plio<Out, 128>, %arg98: !adf.plio<Out, 128>, %arg99: !adf.plio<Out, 128>, %arg100: !adf.plio<Out, 128>, %arg101: !adf.plio<Out, 128>, %arg102: !adf.plio<Out, 128>, %arg103: !adf.plio<Out, 128>, %arg104: !adf.plio<In, 128>, %arg105: !adf.plio<In, 128>, %arg106: !adf.plio<In, 128>, %arg107: !adf.plio<In, 128>, %arg108: !adf.plio<Out, 128>, %arg109: !adf.plio<Out, 128>, %arg110: !adf.plio<Out, 128>, %arg111: !adf.plio<Out, 128>, %arg112: !adf.plio<Out, 128>, %arg113: !adf.plio<Out, 128>, %arg114: !adf.plio<Out, 128>, %arg115: !adf.plio<Out, 128>, %arg116: !adf.plio<In, 128>, %arg117: !adf.plio<In, 128>, %arg118: !adf.plio<In, 128>, %arg119: !adf.plio<In, 128>, %arg120: !adf.plio<Out, 128>, %arg121: !adf.plio<Out, 128>, %arg122: !adf.plio<Out, 128>, %arg123: !adf.plio<Out, 128>, %arg124: !adf.plio<Out, 128>, %arg125: !adf.plio<Out, 128>, %arg126: !adf.plio<Out, 128>, %arg127: !adf.plio<Out, 128>, %arg128: !adf.plio<In, 128>, %arg129: !adf.plio<In, 128>, %arg130: !adf.plio<In, 128>, %arg131: !adf.plio<In, 128>, %arg132: !adf.plio<Out, 128>, %arg133: !adf.plio<Out, 128>, %arg134: !adf.plio<Out, 128>, %arg135: !adf.plio<Out, 128>, %arg136: !adf.plio<Out, 128>, %arg137: !adf.plio<Out, 128>, %arg138: !adf.plio<Out, 128>, %arg139: !adf.plio<Out, 128>, %arg140: !adf.plio<In, 128>, %arg141: !adf.plio<In, 128>, %arg142: !adf.plio<In, 128>, %arg143: !adf.plio<In, 128>, %arg144: !adf.plio<Out, 128>, %arg145: !adf.plio<Out, 128>, %arg146: !adf.plio<Out, 128>, %arg147: !adf.plio<Out, 128>, %arg148: !adf.plio<Out, 128>, %arg149: !adf.plio<Out, 128>, %arg150: !adf.plio<Out, 128>, %arg151: !adf.plio<Out, 128>, %arg152: !adf.plio<In, 128>, %arg153: !adf.plio<In, 128>, %arg154: !adf.plio<In, 128>, %arg155: !adf.plio<In, 128>, %arg156: !adf.plio<Out, 128>, %arg157: !adf.plio<Out, 128>, %arg158: !adf.plio<Out, 128>, %arg159: !adf.plio<Out, 128>, %arg160: !adf.plio<Out, 128>, %arg161: !adf.plio<Out, 128>, %arg162: !adf.plio<Out, 128>, %arg163: !adf.plio<Out, 128>) attributes {adf.cell, tripCount = [4 : index, 8 : index, 11 : index]} {
    %c47 = arith.constant 47 : index
    %c46 = arith.constant 46 : index
    %c45 = arith.constant 45 : index
    %c44 = arith.constant 44 : index
    %c43 = arith.constant 43 : index
    %c42 = arith.constant 42 : index
    %c41 = arith.constant 41 : index
    %c40 = arith.constant 40 : index
    %c39 = arith.constant 39 : index
    %c38 = arith.constant 38 : index
    %c37 = arith.constant 37 : index
    %c36 = arith.constant 36 : index
    %c35 = arith.constant 35 : index
    %c34 = arith.constant 34 : index
    %c33 = arith.constant 33 : index
    %c32 = arith.constant 32 : index
    %c31 = arith.constant 31 : index
    %c30 = arith.constant 30 : index
    %c29 = arith.constant 29 : index
    %c28 = arith.constant 28 : index
    %c27 = arith.constant 27 : index
    %c26 = arith.constant 26 : index
    %c25 = arith.constant 25 : index
    %c24 = arith.constant 24 : index
    %c23 = arith.constant 23 : index
    %c22 = arith.constant 22 : index
    %c21 = arith.constant 21 : index
    %c20 = arith.constant 20 : index
    %c19 = arith.constant 19 : index
    %c18 = arith.constant 18 : index
    %c17 = arith.constant 17 : index
    %c16 = arith.constant 16 : index
    %c15 = arith.constant 15 : index
    %c14 = arith.constant 14 : index
    %c13 = arith.constant 13 : index
    %c12 = arith.constant 12 : index
    %c11 = arith.constant 11 : index
    %c10 = arith.constant 10 : index
    %c9 = arith.constant 9 : index
    %c8 = arith.constant 8 : index
    %c7 = arith.constant 7 : index
    %c12288 = arith.constant 12288 : index
    %c4096 = arith.constant 4096 : index
    %c6 = arith.constant 6 : index
    %c5 = arith.constant 5 : index
    %c24576 = arith.constant 24576 : index
    %c16384 = arith.constant 16384 : index
    %c4 = arith.constant 4 : index
    %c2 = arith.constant 2 : index
    %c8192 = arith.constant 8192 : index
    %c0 = arith.constant 0 : index
    %c1 = arith.constant 1 : index
    %c3 = arith.constant 3 : index
    adf.config.plio(%arg8, 250) {"col, chl" = [6 : index, 4 : index]} : <Out, 128>
    adf.config.plio(%arg13, 250) {"col, chl" = [6 : index, 2 : index]} : <Out, 128>
    adf.config.plio(%arg18, 250) {"col, chl" = [6 : index, 0 : index]} : <Out, 128>
    adf.config.plio(%arg23, 250) {"col, chl" = [7 : index, 4 : index]} : <Out, 128>
    adf.config.plio(%arg28, 250) {"col, chl" = [7 : index, 2 : index]} : <Out, 128>
    adf.config.plio(%arg33, 250) {"col, chl" = [7 : index, 0 : index]} : <Out, 128>
    adf.config.plio(%arg38, 250) {"col, chl" = [8 : index, 4 : index]} : <Out, 128>
    adf.config.plio(%arg0, 250) {"col, chl" = [6 : index, 4 : index]} : <In, 128>
    adf.config.plio(%arg2, 250) {"col, chl" = [6 : index, 2 : index]} : <In, 128>
    adf.config.plio(%arg4, 250) {"col, chl" = [6 : index, 0 : index]} : <In, 128>
    adf.config.plio(%arg6, 250) {"col, chl" = [7 : index, 4 : index]} : <In, 128>
    adf.config.plio(%arg43, 250) {"col, chl" = [8 : index, 2 : index]} : <Out, 128>
    adf.config.plio(%arg48, 250) {"col, chl" = [10 : index, 4 : index]} : <Out, 128>
    adf.config.plio(%arg49, 250) {"col, chl" = [10 : index, 2 : index]} : <Out, 128>
    adf.config.plio(%arg50, 250) {"col, chl" = [10 : index, 0 : index]} : <Out, 128>
    adf.config.plio(%arg51, 250) {"col, chl" = [9 : index, 4 : index]} : <Out, 128>
    adf.config.plio(%arg52, 250) {"col, chl" = [9 : index, 2 : index]} : <Out, 128>
    adf.config.plio(%arg53, 250) {"col, chl" = [9 : index, 0 : index]} : <Out, 128>
    adf.config.plio(%arg54, 250) {"col, chl" = [11 : index, 4 : index]} : <Out, 128>
    adf.config.plio(%arg44, 250) {"col, chl" = [7 : index, 2 : index]} : <In, 128>
    adf.config.plio(%arg45, 250) {"col, chl" = [8 : index, 4 : index]} : <In, 128>
    adf.config.plio(%arg46, 250) {"col, chl" = [9 : index, 4 : index]} : <In, 128>
    adf.config.plio(%arg47, 250) {"col, chl" = [10 : index, 4 : index]} : <In, 128>
    adf.config.plio(%arg55, 250) {"col, chl" = [11 : index, 2 : index]} : <Out, 128>
    adf.config.plio(%arg60, 250) {"col, chl" = [14 : index, 4 : index]} : <Out, 128>
    adf.config.plio(%arg61, 250) {"col, chl" = [14 : index, 2 : index]} : <Out, 128>
    adf.config.plio(%arg62, 250) {"col, chl" = [14 : index, 0 : index]} : <Out, 128>
    adf.config.plio(%arg63, 250) {"col, chl" = [13 : index, 4 : index]} : <Out, 128>
    adf.config.plio(%arg64, 250) {"col, chl" = [13 : index, 2 : index]} : <Out, 128>
    adf.config.plio(%arg65, 250) {"col, chl" = [13 : index, 0 : index]} : <Out, 128>
    adf.config.plio(%arg66, 250) {"col, chl" = [15 : index, 4 : index]} : <Out, 128>
    adf.config.plio(%arg56, 250) {"col, chl" = [11 : index, 4 : index]} : <In, 128>
    adf.config.plio(%arg57, 250) {"col, chl" = [12 : index, 4 : index]} : <In, 128>
    adf.config.plio(%arg58, 250) {"col, chl" = [13 : index, 4 : index]} : <In, 128>
    adf.config.plio(%arg59, 250) {"col, chl" = [14 : index, 4 : index]} : <In, 128>
    adf.config.plio(%arg67, 250) {"col, chl" = [15 : index, 2 : index]} : <Out, 128>
    adf.config.plio(%arg72, 250) {"col, chl" = [18 : index, 4 : index]} : <Out, 128>
    adf.config.plio(%arg73, 250) {"col, chl" = [18 : index, 2 : index]} : <Out, 128>
    adf.config.plio(%arg74, 250) {"col, chl" = [18 : index, 0 : index]} : <Out, 128>
    adf.config.plio(%arg75, 250) {"col, chl" = [17 : index, 4 : index]} : <Out, 128>
    adf.config.plio(%arg76, 250) {"col, chl" = [17 : index, 2 : index]} : <Out, 128>
    adf.config.plio(%arg77, 250) {"col, chl" = [17 : index, 0 : index]} : <Out, 128>
    adf.config.plio(%arg78, 250) {"col, chl" = [19 : index, 4 : index]} : <Out, 128>
    adf.config.plio(%arg68, 250) {"col, chl" = [15 : index, 4 : index]} : <In, 128>
    adf.config.plio(%arg69, 250) {"col, chl" = [16 : index, 4 : index]} : <In, 128>
    adf.config.plio(%arg70, 250) {"col, chl" = [17 : index, 4 : index]} : <In, 128>
    adf.config.plio(%arg71, 250) {"col, chl" = [18 : index, 4 : index]} : <In, 128>
    adf.config.plio(%arg79, 250) {"col, chl" = [19 : index, 2 : index]} : <Out, 128>
    adf.config.plio(%arg84, 250) {"col, chl" = [22 : index, 4 : index]} : <Out, 128>
    adf.config.plio(%arg85, 250) {"col, chl" = [22 : index, 2 : index]} : <Out, 128>
    adf.config.plio(%arg86, 250) {"col, chl" = [22 : index, 0 : index]} : <Out, 128>
    adf.config.plio(%arg87, 250) {"col, chl" = [21 : index, 4 : index]} : <Out, 128>
    adf.config.plio(%arg88, 250) {"col, chl" = [21 : index, 2 : index]} : <Out, 128>
    adf.config.plio(%arg89, 250) {"col, chl" = [21 : index, 0 : index]} : <Out, 128>
    adf.config.plio(%arg90, 250) {"col, chl" = [23 : index, 4 : index]} : <Out, 128>
    adf.config.plio(%arg80, 250) {"col, chl" = [19 : index, 4 : index]} : <In, 128>
    adf.config.plio(%arg81, 250) {"col, chl" = [20 : index, 4 : index]} : <In, 128>
    adf.config.plio(%arg82, 250) {"col, chl" = [21 : index, 4 : index]} : <In, 128>
    adf.config.plio(%arg83, 250) {"col, chl" = [22 : index, 4 : index]} : <In, 128>
    adf.config.plio(%arg91, 250) {"col, chl" = [23 : index, 2 : index]} : <Out, 128>
    adf.config.plio(%arg96, 250) {"col, chl" = [26 : index, 4 : index]} : <Out, 128>
    adf.config.plio(%arg97, 250) {"col, chl" = [26 : index, 2 : index]} : <Out, 128>
    adf.config.plio(%arg98, 250) {"col, chl" = [26 : index, 0 : index]} : <Out, 128>
    adf.config.plio(%arg99, 250) {"col, chl" = [25 : index, 4 : index]} : <Out, 128>
    adf.config.plio(%arg100, 250) {"col, chl" = [25 : index, 2 : index]} : <Out, 128>
    adf.config.plio(%arg101, 250) {"col, chl" = [25 : index, 0 : index]} : <Out, 128>
    adf.config.plio(%arg102, 250) {"col, chl" = [27 : index, 4 : index]} : <Out, 128>
    adf.config.plio(%arg92, 250) {"col, chl" = [23 : index, 4 : index]} : <In, 128>
    adf.config.plio(%arg93, 250) {"col, chl" = [24 : index, 4 : index]} : <In, 128>
    adf.config.plio(%arg94, 250) {"col, chl" = [25 : index, 4 : index]} : <In, 128>
    adf.config.plio(%arg95, 250) {"col, chl" = [26 : index, 4 : index]} : <In, 128>
    adf.config.plio(%arg103, 250) {"col, chl" = [27 : index, 2 : index]} : <Out, 128>
    adf.config.plio(%arg108, 250) {"col, chl" = [30 : index, 4 : index]} : <Out, 128>
    adf.config.plio(%arg109, 250) {"col, chl" = [30 : index, 2 : index]} : <Out, 128>
    adf.config.plio(%arg110, 250) {"col, chl" = [30 : index, 0 : index]} : <Out, 128>
    adf.config.plio(%arg111, 250) {"col, chl" = [29 : index, 4 : index]} : <Out, 128>
    adf.config.plio(%arg112, 250) {"col, chl" = [29 : index, 2 : index]} : <Out, 128>
    adf.config.plio(%arg113, 250) {"col, chl" = [29 : index, 0 : index]} : <Out, 128>
    adf.config.plio(%arg114, 250) {"col, chl" = [31 : index, 4 : index]} : <Out, 128>
    adf.config.plio(%arg104, 250) {"col, chl" = [27 : index, 4 : index]} : <In, 128>
    adf.config.plio(%arg105, 250) {"col, chl" = [28 : index, 4 : index]} : <In, 128>
    adf.config.plio(%arg106, 250) {"col, chl" = [29 : index, 4 : index]} : <In, 128>
    adf.config.plio(%arg107, 250) {"col, chl" = [30 : index, 4 : index]} : <In, 128>
    adf.config.plio(%arg115, 250) {"col, chl" = [31 : index, 2 : index]} : <Out, 128>
    adf.config.plio(%arg120, 250) {"col, chl" = [34 : index, 4 : index]} : <Out, 128>
    adf.config.plio(%arg121, 250) {"col, chl" = [34 : index, 2 : index]} : <Out, 128>
    adf.config.plio(%arg122, 250) {"col, chl" = [34 : index, 0 : index]} : <Out, 128>
    adf.config.plio(%arg123, 250) {"col, chl" = [33 : index, 4 : index]} : <Out, 128>
    adf.config.plio(%arg124, 250) {"col, chl" = [33 : index, 2 : index]} : <Out, 128>
    adf.config.plio(%arg125, 250) {"col, chl" = [33 : index, 0 : index]} : <Out, 128>
    adf.config.plio(%arg126, 250) {"col, chl" = [35 : index, 4 : index]} : <Out, 128>
    adf.config.plio(%arg116, 250) {"col, chl" = [31 : index, 4 : index]} : <In, 128>
    adf.config.plio(%arg117, 250) {"col, chl" = [32 : index, 4 : index]} : <In, 128>
    adf.config.plio(%arg118, 250) {"col, chl" = [33 : index, 4 : index]} : <In, 128>
    adf.config.plio(%arg119, 250) {"col, chl" = [34 : index, 4 : index]} : <In, 128>
    adf.config.plio(%arg127, 250) {"col, chl" = [35 : index, 2 : index]} : <Out, 128>
    adf.config.plio(%arg132, 250) {"col, chl" = [38 : index, 4 : index]} : <Out, 128>
    adf.config.plio(%arg133, 250) {"col, chl" = [38 : index, 2 : index]} : <Out, 128>
    adf.config.plio(%arg134, 250) {"col, chl" = [38 : index, 0 : index]} : <Out, 128>
    adf.config.plio(%arg135, 250) {"col, chl" = [37 : index, 4 : index]} : <Out, 128>
    adf.config.plio(%arg136, 250) {"col, chl" = [37 : index, 2 : index]} : <Out, 128>
    adf.config.plio(%arg137, 250) {"col, chl" = [37 : index, 0 : index]} : <Out, 128>
    adf.config.plio(%arg138, 250) {"col, chl" = [39 : index, 4 : index]} : <Out, 128>
    adf.config.plio(%arg128, 250) {"col, chl" = [35 : index, 4 : index]} : <In, 128>
    adf.config.plio(%arg129, 250) {"col, chl" = [36 : index, 4 : index]} : <In, 128>
    adf.config.plio(%arg130, 250) {"col, chl" = [37 : index, 4 : index]} : <In, 128>
    adf.config.plio(%arg131, 250) {"col, chl" = [38 : index, 4 : index]} : <In, 128>
    adf.config.plio(%arg139, 250) {"col, chl" = [39 : index, 2 : index]} : <Out, 128>
    adf.config.plio(%arg144, 250) {"col, chl" = [42 : index, 4 : index]} : <Out, 128>
    adf.config.plio(%arg145, 250) {"col, chl" = [42 : index, 2 : index]} : <Out, 128>
    adf.config.plio(%arg146, 250) {"col, chl" = [42 : index, 0 : index]} : <Out, 128>
    adf.config.plio(%arg147, 250) {"col, chl" = [41 : index, 4 : index]} : <Out, 128>
    adf.config.plio(%arg148, 250) {"col, chl" = [41 : index, 2 : index]} : <Out, 128>
    adf.config.plio(%arg149, 250) {"col, chl" = [41 : index, 0 : index]} : <Out, 128>
    adf.config.plio(%arg150, 250) {"col, chl" = [43 : index, 4 : index]} : <Out, 128>
    adf.config.plio(%arg140, 250) {"col, chl" = [39 : index, 4 : index]} : <In, 128>
    adf.config.plio(%arg141, 250) {"col, chl" = [40 : index, 4 : index]} : <In, 128>
    adf.config.plio(%arg142, 250) {"col, chl" = [41 : index, 4 : index]} : <In, 128>
    adf.config.plio(%arg143, 250) {"col, chl" = [42 : index, 4 : index]} : <In, 128>
    adf.config.plio(%arg151, 250) {"col, chl" = [43 : index, 2 : index]} : <Out, 128>
    adf.config.plio(%arg1, 250) {"col, chl" = [23 : index, 2 : index]} : <In, 128>
    adf.config.plio(%arg3, 250) {"col, chl" = [24 : index, 2 : index]} : <In, 128>
    adf.config.plio(%arg5, 250) {"col, chl" = [25 : index, 2 : index]} : <In, 128>
    adf.config.plio(%arg7, 250) {"col, chl" = [26 : index, 2 : index]} : <In, 128>
    adf.config.plio(%arg156, 250) {"col, chl" = [44 : index, 4 : index]} : <Out, 128>
    adf.config.plio(%arg9, 250) {"col, chl" = [23 : index, 0 : index]} : <In, 128>
    adf.config.plio(%arg10, 250) {"col, chl" = [24 : index, 0 : index]} : <In, 128>
    adf.config.plio(%arg11, 250) {"col, chl" = [25 : index, 0 : index]} : <In, 128>
    adf.config.plio(%arg12, 250) {"col, chl" = [26 : index, 0 : index]} : <In, 128>
    adf.config.plio(%arg157, 250) {"col, chl" = [44 : index, 2 : index]} : <Out, 128>
    adf.config.plio(%arg14, 250) {"col, chl" = [22 : index, 2 : index]} : <In, 128>
    adf.config.plio(%arg15, 250) {"col, chl" = [22 : index, 0 : index]} : <In, 128>
    adf.config.plio(%arg16, 250) {"col, chl" = [27 : index, 2 : index]} : <In, 128>
    adf.config.plio(%arg17, 250) {"col, chl" = [27 : index, 0 : index]} : <In, 128>
    adf.config.plio(%arg158, 250) {"col, chl" = [44 : index, 0 : index]} : <Out, 128>
    adf.config.plio(%arg19, 250) {"col, chl" = [21 : index, 2 : index]} : <In, 128>
    adf.config.plio(%arg20, 250) {"col, chl" = [21 : index, 0 : index]} : <In, 128>
    adf.config.plio(%arg21, 250) {"col, chl" = [28 : index, 2 : index]} : <In, 128>
    adf.config.plio(%arg22, 250) {"col, chl" = [28 : index, 0 : index]} : <In, 128>
    adf.config.plio(%arg159, 250) {"col, chl" = [43 : index, 0 : index]} : <Out, 128>
    adf.config.plio(%arg24, 250) {"col, chl" = [20 : index, 2 : index]} : <In, 128>
    adf.config.plio(%arg25, 250) {"col, chl" = [20 : index, 0 : index]} : <In, 128>
    adf.config.plio(%arg26, 250) {"col, chl" = [29 : index, 2 : index]} : <In, 128>
    adf.config.plio(%arg27, 250) {"col, chl" = [29 : index, 0 : index]} : <In, 128>
    adf.config.plio(%arg160, 250) {"col, chl" = [40 : index, 4 : index]} : <Out, 128>
    adf.config.plio(%arg29, 250) {"col, chl" = [19 : index, 2 : index]} : <In, 128>
    adf.config.plio(%arg30, 250) {"col, chl" = [19 : index, 0 : index]} : <In, 128>
    adf.config.plio(%arg31, 250) {"col, chl" = [30 : index, 2 : index]} : <In, 128>
    adf.config.plio(%arg32, 250) {"col, chl" = [30 : index, 0 : index]} : <In, 128>
    adf.config.plio(%arg161, 250) {"col, chl" = [40 : index, 2 : index]} : <Out, 128>
    adf.config.plio(%arg34, 250) {"col, chl" = [18 : index, 2 : index]} : <In, 128>
    adf.config.plio(%arg35, 250) {"col, chl" = [18 : index, 0 : index]} : <In, 128>
    adf.config.plio(%arg36, 250) {"col, chl" = [31 : index, 2 : index]} : <In, 128>
    adf.config.plio(%arg37, 250) {"col, chl" = [31 : index, 0 : index]} : <In, 128>
    adf.config.plio(%arg162, 250) {"col, chl" = [40 : index, 0 : index]} : <Out, 128>
    adf.config.plio(%arg152, 250) {"col, chl" = [43 : index, 4 : index]} : <In, 128>
    adf.config.plio(%arg39, 250) {"col, chl" = [17 : index, 2 : index]} : <In, 128>
    adf.config.plio(%arg153, 250) {"col, chl" = [44 : index, 4 : index]} : <In, 128>
    adf.config.plio(%arg40, 250) {"col, chl" = [17 : index, 0 : index]} : <In, 128>
    adf.config.plio(%arg154, 250) {"col, chl" = [44 : index, 2 : index]} : <In, 128>
    adf.config.plio(%arg41, 250) {"col, chl" = [32 : index, 2 : index]} : <In, 128>
    adf.config.plio(%arg155, 250) {"col, chl" = [44 : index, 0 : index]} : <In, 128>
    adf.config.plio(%arg42, 250) {"col, chl" = [32 : index, 0 : index]} : <In, 128>
    adf.config.plio(%arg163, 250) {"col, chl" = [39 : index, 0 : index]} : <Out, 128>
    %0 = adf.buffer.create @L1_L1_A() : memref<32x32xf32, 2>
    %1 = adf.buffer.create @L1_L1_B() : memref<32x32xf32, 2>
    %2 = adf.buffer.create @L1_L1_A_1() : memref<32x32xf32, 2>
    %3 = adf.buffer.create @L1_L1_B_1() : memref<32x32xf32, 2>
    %4 = adf.buffer.create @L1_L1_C_1() : memref<32x32xf32, 2>
    %5 = adf.buffer.create @L1_L1_A_2() : memref<32x32xf32, 2>
    %6 = adf.buffer.create @L1_L1_B_2() : memref<32x32xf32, 2>
    %7 = adf.buffer.create @L1_L1_C_2() : memref<32x32xf32, 2>
    %8 = adf.buffer.create @L1_L1_A_3() : memref<32x32xf32, 2>
    %9 = adf.buffer.create @L1_L1_B_3() : memref<32x32xf32, 2>
    %10 = adf.buffer.create @L1_L1_C_3() : memref<32x32xf32, 2>
    %11 = adf.buffer.create @L1_L1_A_4() : memref<32x32xf32, 2>
    %12 = adf.buffer.create @L1_L1_B_4() : memref<32x32xf32, 2>
    %13 = adf.buffer.create @L1_L1_A_5() : memref<32x32xf32, 2>
    %14 = adf.buffer.create @L1_L1_B_5() : memref<32x32xf32, 2>
    %15 = adf.buffer.create @L1_L1_C_5() : memref<32x32xf32, 2>
    %16 = adf.buffer.create @L1_L1_A_6() : memref<32x32xf32, 2>
    %17 = adf.buffer.create @L1_L1_B_6() : memref<32x32xf32, 2>
    %18 = adf.buffer.create @L1_L1_C_6() : memref<32x32xf32, 2>
    %19 = adf.buffer.create @L1_L1_A_7() : memref<32x32xf32, 2>
    %20 = adf.buffer.create @L1_L1_B_7() : memref<32x32xf32, 2>
    %21 = adf.buffer.create @L1_L1_C_7() : memref<32x32xf32, 2>
    %22 = adf.buffer.create @L1_L1_A_8() : memref<32x32xf32, 2>
    %23 = adf.buffer.create @L1_L1_B_8() : memref<32x32xf32, 2>
    %24 = adf.buffer.create @L1_L1_A_9() : memref<32x32xf32, 2>
    %25 = adf.buffer.create @L1_L1_B_9() : memref<32x32xf32, 2>
    %26 = adf.buffer.create @L1_L1_C_9() : memref<32x32xf32, 2>
    %27 = adf.buffer.create @L1_L1_A_10() : memref<32x32xf32, 2>
    %28 = adf.buffer.create @L1_L1_B_10() : memref<32x32xf32, 2>
    %29 = adf.buffer.create @L1_L1_C_10() : memref<32x32xf32, 2>
    %30 = adf.buffer.create @L1_L1_A_11() : memref<32x32xf32, 2>
    %31 = adf.buffer.create @L1_L1_B_11() : memref<32x32xf32, 2>
    %32 = adf.buffer.create @L1_L1_C_11() : memref<32x32xf32, 2>
    %33 = adf.buffer.create @L1_L1_A_12() : memref<32x32xf32, 2>
    %34 = adf.buffer.create @L1_L1_B_12() : memref<32x32xf32, 2>
    %35 = adf.buffer.create @L1_L1_A_13() : memref<32x32xf32, 2>
    %36 = adf.buffer.create @L1_L1_B_13() : memref<32x32xf32, 2>
    %37 = adf.buffer.create @L1_L1_C_13() : memref<32x32xf32, 2>
    %38 = adf.buffer.create @L1_L1_A_14() : memref<32x32xf32, 2>
    %39 = adf.buffer.create @L1_L1_B_14() : memref<32x32xf32, 2>
    %40 = adf.buffer.create @L1_L1_C_14() : memref<32x32xf32, 2>
    %41 = adf.buffer.create @L1_L1_A_15() : memref<32x32xf32, 2>
    %42 = adf.buffer.create @L1_L1_B_15() : memref<32x32xf32, 2>
    %43 = adf.buffer.create @L1_L1_C_15() : memref<32x32xf32, 2>
    %44 = adf.buffer.create @L1_L1_A_16() : memref<32x32xf32, 2>
    %45 = adf.buffer.create @L1_L1_B_16() : memref<32x32xf32, 2>
    %46 = adf.buffer.create @L1_L1_A_17() : memref<32x32xf32, 2>
    %47 = adf.buffer.create @L1_L1_B_17() : memref<32x32xf32, 2>
    %48 = adf.buffer.create @L1_L1_C_17() : memref<32x32xf32, 2>
    %49 = adf.buffer.create @L1_L1_A_18() : memref<32x32xf32, 2>
    %50 = adf.buffer.create @L1_L1_B_18() : memref<32x32xf32, 2>
    %51 = adf.buffer.create @L1_L1_C_18() : memref<32x32xf32, 2>
    %52 = adf.buffer.create @L1_L1_A_19() : memref<32x32xf32, 2>
    %53 = adf.buffer.create @L1_L1_B_19() : memref<32x32xf32, 2>
    %54 = adf.buffer.create @L1_L1_C_19() : memref<32x32xf32, 2>
    %55 = adf.buffer.create @L1_L1_A_20() : memref<32x32xf32, 2>
    %56 = adf.buffer.create @L1_L1_B_20() : memref<32x32xf32, 2>
    %57 = adf.buffer.create @L1_L1_A_21() : memref<32x32xf32, 2>
    %58 = adf.buffer.create @L1_L1_B_21() : memref<32x32xf32, 2>
    %59 = adf.buffer.create @L1_L1_C_21() : memref<32x32xf32, 2>
    %60 = adf.buffer.create @L1_L1_A_22() : memref<32x32xf32, 2>
    %61 = adf.buffer.create @L1_L1_B_22() : memref<32x32xf32, 2>
    %62 = adf.buffer.create @L1_L1_C_22() : memref<32x32xf32, 2>
    %63 = adf.buffer.create @L1_L1_A_23() : memref<32x32xf32, 2>
    %64 = adf.buffer.create @L1_L1_B_23() : memref<32x32xf32, 2>
    %65 = adf.buffer.create @L1_L1_C_23() : memref<32x32xf32, 2>
    %66 = adf.buffer.create @L1_L1_A_24() : memref<32x32xf32, 2>
    %67 = adf.buffer.create @L1_L1_B_24() : memref<32x32xf32, 2>
    %68 = adf.buffer.create @L1_L1_A_25() : memref<32x32xf32, 2>
    %69 = adf.buffer.create @L1_L1_B_25() : memref<32x32xf32, 2>
    %70 = adf.buffer.create @L1_L1_C_25() : memref<32x32xf32, 2>
    %71 = adf.buffer.create @L1_L1_A_26() : memref<32x32xf32, 2>
    %72 = adf.buffer.create @L1_L1_B_26() : memref<32x32xf32, 2>
    %73 = adf.buffer.create @L1_L1_C_26() : memref<32x32xf32, 2>
    %74 = adf.buffer.create @L1_L1_A_27() : memref<32x32xf32, 2>
    %75 = adf.buffer.create @L1_L1_B_27() : memref<32x32xf32, 2>
    %76 = adf.buffer.create @L1_L1_C_27() : memref<32x32xf32, 2>
    %77 = adf.buffer.create @L1_L1_A_28() : memref<32x32xf32, 2>
    %78 = adf.buffer.create @L1_L1_B_28() : memref<32x32xf32, 2>
    %79 = adf.buffer.create @L1_L1_A_29() : memref<32x32xf32, 2>
    %80 = adf.buffer.create @L1_L1_B_29() : memref<32x32xf32, 2>
    %81 = adf.buffer.create @L1_L1_C_29() : memref<32x32xf32, 2>
    %82 = adf.buffer.create @L1_L1_A_30() : memref<32x32xf32, 2>
    %83 = adf.buffer.create @L1_L1_B_30() : memref<32x32xf32, 2>
    %84 = adf.buffer.create @L1_L1_C_30() : memref<32x32xf32, 2>
    %85 = adf.buffer.create @L1_L1_A_31() : memref<32x32xf32, 2>
    %86 = adf.buffer.create @L1_L1_B_31() : memref<32x32xf32, 2>
    %87 = adf.buffer.create @L1_L1_C_31() : memref<32x32xf32, 2>
    %88 = adf.buffer.create @L1_L1_A_32() : memref<32x32xf32, 2>
    %89 = adf.buffer.create @L1_L1_B_32() : memref<32x32xf32, 2>
    %90 = adf.buffer.create @L1_L1_A_33() : memref<32x32xf32, 2>
    %91 = adf.buffer.create @L1_L1_B_33() : memref<32x32xf32, 2>
    %92 = adf.buffer.create @L1_L1_C_33() : memref<32x32xf32, 2>
    %93 = adf.buffer.create @L1_L1_A_34() : memref<32x32xf32, 2>
    %94 = adf.buffer.create @L1_L1_B_34() : memref<32x32xf32, 2>
    %95 = adf.buffer.create @L1_L1_C_34() : memref<32x32xf32, 2>
    %96 = adf.buffer.create @L1_L1_A_35() : memref<32x32xf32, 2>
    %97 = adf.buffer.create @L1_L1_B_35() : memref<32x32xf32, 2>
    %98 = adf.buffer.create @L1_L1_C_35() : memref<32x32xf32, 2>
    %99 = adf.buffer.create @L1_L1_A_36() : memref<32x32xf32, 2>
    %100 = adf.buffer.create @L1_L1_B_36() : memref<32x32xf32, 2>
    %101 = adf.buffer.create @L1_L1_A_37() : memref<32x32xf32, 2>
    %102 = adf.buffer.create @L1_L1_B_37() : memref<32x32xf32, 2>
    %103 = adf.buffer.create @L1_L1_C_37() : memref<32x32xf32, 2>
    %104 = adf.buffer.create @L1_L1_A_38() : memref<32x32xf32, 2>
    %105 = adf.buffer.create @L1_L1_B_38() : memref<32x32xf32, 2>
    %106 = adf.buffer.create @L1_L1_C_38() : memref<32x32xf32, 2>
    %107 = adf.buffer.create @L1_L1_A_39() : memref<32x32xf32, 2>
    %108 = adf.buffer.create @L1_L1_B_39() : memref<32x32xf32, 2>
    %109 = adf.buffer.create @L1_L1_C_39() : memref<32x32xf32, 2>
    %110 = adf.buffer.create @L1_L1_A_40() : memref<32x32xf32, 2>
    %111 = adf.buffer.create @L1_L1_B_40() : memref<32x32xf32, 2>
    %112 = adf.buffer.create @L1_L1_A_41() : memref<32x32xf32, 2>
    %113 = adf.buffer.create @L1_L1_B_41() : memref<32x32xf32, 2>
    %114 = adf.buffer.create @L1_L1_C_41() : memref<32x32xf32, 2>
    %115 = adf.buffer.create @L1_L1_A_42() : memref<32x32xf32, 2>
    %116 = adf.buffer.create @L1_L1_B_42() : memref<32x32xf32, 2>
    %117 = adf.buffer.create @L1_L1_C_42() : memref<32x32xf32, 2>
    %118 = adf.buffer.create @L1_L1_A_43() : memref<32x32xf32, 2>
    %119 = adf.buffer.create @L1_L1_B_43() : memref<32x32xf32, 2>
    %120 = adf.buffer.create @L1_L1_C_43() : memref<32x32xf32, 2>
    %121 = adf.buffer.create @L1_L1_A_44() : memref<32x32xf32, 2>
    %122 = adf.buffer.create @L1_L1_B_44() : memref<32x32xf32, 2>
    %123 = adf.buffer.create @L1_L1_A_45() : memref<32x32xf32, 2>
    %124 = adf.buffer.create @L1_L1_B_45() : memref<32x32xf32, 2>
    %125 = adf.buffer.create @L1_L1_C_45() : memref<32x32xf32, 2>
    %126 = adf.buffer.create @L1_L1_A_46() : memref<32x32xf32, 2>
    %127 = adf.buffer.create @L1_L1_B_46() : memref<32x32xf32, 2>
    %128 = adf.buffer.create @L1_L1_C_46() : memref<32x32xf32, 2>
    %129 = adf.buffer.create @L1_L1_A_47() : memref<32x32xf32, 2>
    %130 = adf.buffer.create @L1_L1_B_47() : memref<32x32xf32, 2>
    %131 = adf.buffer.create @L1_L1_C_47() : memref<32x32xf32, 2>
    %132 = adf.buffer.create @L1_L1_A_48() : memref<32x32xf32, 2>
    %133 = adf.buffer.create @L1_L1_B_48() : memref<32x32xf32, 2>
    %134 = adf.buffer.create @L1_L1_A_49() : memref<32x32xf32, 2>
    %135 = adf.buffer.create @L1_L1_B_49() : memref<32x32xf32, 2>
    %136 = adf.buffer.create @L1_L1_C_49() : memref<32x32xf32, 2>
    %137 = adf.buffer.create @L1_L1_A_50() : memref<32x32xf32, 2>
    %138 = adf.buffer.create @L1_L1_B_50() : memref<32x32xf32, 2>
    %139 = adf.buffer.create @L1_L1_C_50() : memref<32x32xf32, 2>
    %140 = adf.buffer.create @L1_L1_A_51() : memref<32x32xf32, 2>
    %141 = adf.buffer.create @L1_L1_B_51() : memref<32x32xf32, 2>
    %142 = adf.buffer.create @L1_L1_C_51() : memref<32x32xf32, 2>
    %143 = adf.buffer.create @L1_L1_A_52() : memref<32x32xf32, 2>
    %144 = adf.buffer.create @L1_L1_B_52() : memref<32x32xf32, 2>
    %145 = adf.buffer.create @L1_L1_A_53() : memref<32x32xf32, 2>
    %146 = adf.buffer.create @L1_L1_B_53() : memref<32x32xf32, 2>
    %147 = adf.buffer.create @L1_L1_C_53() : memref<32x32xf32, 2>
    %148 = adf.buffer.create @L1_L1_A_54() : memref<32x32xf32, 2>
    %149 = adf.buffer.create @L1_L1_B_54() : memref<32x32xf32, 2>
    %150 = adf.buffer.create @L1_L1_C_54() : memref<32x32xf32, 2>
    %151 = adf.buffer.create @L1_L1_A_55() : memref<32x32xf32, 2>
    %152 = adf.buffer.create @L1_L1_B_55() : memref<32x32xf32, 2>
    %153 = adf.buffer.create @L1_L1_C_55() : memref<32x32xf32, 2>
    %154 = adf.buffer.create @L1_L1_A_56() : memref<32x32xf32, 2>
    %155 = adf.buffer.create @L1_L1_B_56() : memref<32x32xf32, 2>
    %156 = adf.buffer.create @L1_L1_A_57() : memref<32x32xf32, 2>
    %157 = adf.buffer.create @L1_L1_B_57() : memref<32x32xf32, 2>
    %158 = adf.buffer.create @L1_L1_C_57() : memref<32x32xf32, 2>
    %159 = adf.buffer.create @L1_L1_A_58() : memref<32x32xf32, 2>
    %160 = adf.buffer.create @L1_L1_B_58() : memref<32x32xf32, 2>
    %161 = adf.buffer.create @L1_L1_C_58() : memref<32x32xf32, 2>
    %162 = adf.buffer.create @L1_L1_A_59() : memref<32x32xf32, 2>
    %163 = adf.buffer.create @L1_L1_B_59() : memref<32x32xf32, 2>
    %164 = adf.buffer.create @L1_L1_C_59() : memref<32x32xf32, 2>
    %165 = adf.buffer.create @L1_L1_A_60() : memref<32x32xf32, 2>
    %166 = adf.buffer.create @L1_L1_B_60() : memref<32x32xf32, 2>
    %167 = adf.buffer.create @L1_L1_A_61() : memref<32x32xf32, 2>
    %168 = adf.buffer.create @L1_L1_B_61() : memref<32x32xf32, 2>
    %169 = adf.buffer.create @L1_L1_C_61() : memref<32x32xf32, 2>
    %170 = adf.buffer.create @L1_L1_A_62() : memref<32x32xf32, 2>
    %171 = adf.buffer.create @L1_L1_B_62() : memref<32x32xf32, 2>
    %172 = adf.buffer.create @L1_L1_C_62() : memref<32x32xf32, 2>
    %173 = adf.buffer.create @L1_L1_A_63() : memref<32x32xf32, 2>
    %174 = adf.buffer.create @L1_L1_B_63() : memref<32x32xf32, 2>
    %175 = adf.buffer.create @L1_L1_C_63() : memref<32x32xf32, 2>
    %176 = adf.buffer.create @L1_L1_A_64() : memref<32x32xf32, 2>
    %177 = adf.buffer.create @L1_L1_B_64() : memref<32x32xf32, 2>
    %178 = adf.buffer.create @L1_L1_A_65() : memref<32x32xf32, 2>
    %179 = adf.buffer.create @L1_L1_B_65() : memref<32x32xf32, 2>
    %180 = adf.buffer.create @L1_L1_C_65() : memref<32x32xf32, 2>
    %181 = adf.buffer.create @L1_L1_A_66() : memref<32x32xf32, 2>
    %182 = adf.buffer.create @L1_L1_B_66() : memref<32x32xf32, 2>
    %183 = adf.buffer.create @L1_L1_C_66() : memref<32x32xf32, 2>
    %184 = adf.buffer.create @L1_L1_A_67() : memref<32x32xf32, 2>
    %185 = adf.buffer.create @L1_L1_B_67() : memref<32x32xf32, 2>
    %186 = adf.buffer.create @L1_L1_C_67() : memref<32x32xf32, 2>
    %187 = adf.buffer.create @L1_L1_A_68() : memref<32x32xf32, 2>
    %188 = adf.buffer.create @L1_L1_B_68() : memref<32x32xf32, 2>
    %189 = adf.buffer.create @L1_L1_A_69() : memref<32x32xf32, 2>
    %190 = adf.buffer.create @L1_L1_B_69() : memref<32x32xf32, 2>
    %191 = adf.buffer.create @L1_L1_C_69() : memref<32x32xf32, 2>
    %192 = adf.buffer.create @L1_L1_A_70() : memref<32x32xf32, 2>
    %193 = adf.buffer.create @L1_L1_B_70() : memref<32x32xf32, 2>
    %194 = adf.buffer.create @L1_L1_C_70() : memref<32x32xf32, 2>
    %195 = adf.buffer.create @L1_L1_A_71() : memref<32x32xf32, 2>
    %196 = adf.buffer.create @L1_L1_B_71() : memref<32x32xf32, 2>
    %197 = adf.buffer.create @L1_L1_C_71() : memref<32x32xf32, 2>
    %198 = adf.buffer.create @L1_L1_A_72() : memref<32x32xf32, 2>
    %199 = adf.buffer.create @L1_L1_B_72() : memref<32x32xf32, 2>
    %200 = adf.buffer.create @L1_L1_A_73() : memref<32x32xf32, 2>
    %201 = adf.buffer.create @L1_L1_B_73() : memref<32x32xf32, 2>
    %202 = adf.buffer.create @L1_L1_C_73() : memref<32x32xf32, 2>
    %203 = adf.buffer.create @L1_L1_A_74() : memref<32x32xf32, 2>
    %204 = adf.buffer.create @L1_L1_B_74() : memref<32x32xf32, 2>
    %205 = adf.buffer.create @L1_L1_C_74() : memref<32x32xf32, 2>
    %206 = adf.buffer.create @L1_L1_A_75() : memref<32x32xf32, 2>
    %207 = adf.buffer.create @L1_L1_B_75() : memref<32x32xf32, 2>
    %208 = adf.buffer.create @L1_L1_C_75() : memref<32x32xf32, 2>
    %209 = adf.buffer.create @L1_L1_A_76() : memref<32x32xf32, 2>
    %210 = adf.buffer.create @L1_L1_B_76() : memref<32x32xf32, 2>
    %211 = adf.buffer.create @L1_L1_A_77() : memref<32x32xf32, 2>
    %212 = adf.buffer.create @L1_L1_B_77() : memref<32x32xf32, 2>
    %213 = adf.buffer.create @L1_L1_C_77() : memref<32x32xf32, 2>
    %214 = adf.buffer.create @L1_L1_A_78() : memref<32x32xf32, 2>
    %215 = adf.buffer.create @L1_L1_B_78() : memref<32x32xf32, 2>
    %216 = adf.buffer.create @L1_L1_C_78() : memref<32x32xf32, 2>
    %217 = adf.buffer.create @L1_L1_A_79() : memref<32x32xf32, 2>
    %218 = adf.buffer.create @L1_L1_B_79() : memref<32x32xf32, 2>
    %219 = adf.buffer.create @L1_L1_C_79() : memref<32x32xf32, 2>
    %220 = adf.buffer.create @L1_L1_A_80() : memref<32x32xf32, 2>
    %221 = adf.buffer.create @L1_L1_B_80() : memref<32x32xf32, 2>
    %222 = adf.buffer.create @L1_L1_A_81() : memref<32x32xf32, 2>
    %223 = adf.buffer.create @L1_L1_B_81() : memref<32x32xf32, 2>
    %224 = adf.buffer.create @L1_L1_C_81() : memref<32x32xf32, 2>
    %225 = adf.buffer.create @L1_L1_A_82() : memref<32x32xf32, 2>
    %226 = adf.buffer.create @L1_L1_B_82() : memref<32x32xf32, 2>
    %227 = adf.buffer.create @L1_L1_C_82() : memref<32x32xf32, 2>
    %228 = adf.buffer.create @L1_L1_A_83() : memref<32x32xf32, 2>
    %229 = adf.buffer.create @L1_L1_B_83() : memref<32x32xf32, 2>
    %230 = adf.buffer.create @L1_L1_C_83() : memref<32x32xf32, 2>
    %231 = adf.buffer.create @L1_L1_A_84() : memref<32x32xf32, 2>
    %232 = adf.buffer.create @L1_L1_B_84() : memref<32x32xf32, 2>
    %233 = adf.buffer.create @L1_L1_A_85() : memref<32x32xf32, 2>
    %234 = adf.buffer.create @L1_L1_B_85() : memref<32x32xf32, 2>
    %235 = adf.buffer.create @L1_L1_C_85() : memref<32x32xf32, 2>
    %236 = adf.buffer.create @L1_L1_A_86() : memref<32x32xf32, 2>
    %237 = adf.buffer.create @L1_L1_B_86() : memref<32x32xf32, 2>
    %238 = adf.buffer.create @L1_L1_C_86() : memref<32x32xf32, 2>
    %239 = adf.buffer.create @L1_L1_A_87() : memref<32x32xf32, 2>
    %240 = adf.buffer.create @L1_L1_B_87() : memref<32x32xf32, 2>
    %241 = adf.buffer.create @L1_L1_C_87() : memref<32x32xf32, 2>
    %242 = adf.buffer.create @L1_L1_A_88() : memref<32x32xf32, 2>
    %243 = adf.buffer.create @L1_L1_B_88() : memref<32x32xf32, 2>
    %244 = adf.buffer.create @L1_L1_A_89() : memref<32x32xf32, 2>
    %245 = adf.buffer.create @L1_L1_B_89() : memref<32x32xf32, 2>
    %246 = adf.buffer.create @L1_L1_C_89() : memref<32x32xf32, 2>
    %247 = adf.buffer.create @L1_L1_A_90() : memref<32x32xf32, 2>
    %248 = adf.buffer.create @L1_L1_B_90() : memref<32x32xf32, 2>
    %249 = adf.buffer.create @L1_L1_C_90() : memref<32x32xf32, 2>
    %250 = adf.buffer.create @L1_L1_A_91() : memref<32x32xf32, 2>
    %251 = adf.buffer.create @L1_L1_B_91() : memref<32x32xf32, 2>
    %252 = adf.buffer.create @L1_L1_C_91() : memref<32x32xf32, 2>
    %253 = adf.buffer.create @L1_L1_A_92() : memref<32x32xf32, 2>
    %254 = adf.buffer.create @L1_L1_B_92() : memref<32x32xf32, 2>
    %255 = adf.buffer.create @L1_L1_A_93() : memref<32x32xf32, 2>
    %256 = adf.buffer.create @L1_L1_B_93() : memref<32x32xf32, 2>
    %257 = adf.buffer.create @L1_L1_C_93() : memref<32x32xf32, 2>
    %258 = adf.buffer.create @L1_L1_A_94() : memref<32x32xf32, 2>
    %259 = adf.buffer.create @L1_L1_B_94() : memref<32x32xf32, 2>
    %260 = adf.buffer.create @L1_L1_C_94() : memref<32x32xf32, 2>
    %261 = adf.buffer.create @L1_L1_A_95() : memref<32x32xf32, 2>
    %262 = adf.buffer.create @L1_L1_B_95() : memref<32x32xf32, 2>
    %263 = adf.buffer.create @L1_L1_C_95() : memref<32x32xf32, 2>
    %264 = adf.buffer.create @L1_L1_A_96() : memref<32x32xf32, 2>
    %265 = adf.buffer.create @L1_L1_B_96() : memref<32x32xf32, 2>
    %266 = adf.buffer.create @L1_L1_A_97() : memref<32x32xf32, 2>
    %267 = adf.buffer.create @L1_L1_B_97() : memref<32x32xf32, 2>
    %268 = adf.buffer.create @L1_L1_C_97() : memref<32x32xf32, 2>
    %269 = adf.buffer.create @L1_L1_A_98() : memref<32x32xf32, 2>
    %270 = adf.buffer.create @L1_L1_B_98() : memref<32x32xf32, 2>
    %271 = adf.buffer.create @L1_L1_C_98() : memref<32x32xf32, 2>
    %272 = adf.buffer.create @L1_L1_A_99() : memref<32x32xf32, 2>
    %273 = adf.buffer.create @L1_L1_B_99() : memref<32x32xf32, 2>
    %274 = adf.buffer.create @L1_L1_C_99() : memref<32x32xf32, 2>
    %275 = adf.buffer.create @L1_L1_A_100() : memref<32x32xf32, 2>
    %276 = adf.buffer.create @L1_L1_B_100() : memref<32x32xf32, 2>
    %277 = adf.buffer.create @L1_L1_A_101() : memref<32x32xf32, 2>
    %278 = adf.buffer.create @L1_L1_B_101() : memref<32x32xf32, 2>
    %279 = adf.buffer.create @L1_L1_C_101() : memref<32x32xf32, 2>
    %280 = adf.buffer.create @L1_L1_A_102() : memref<32x32xf32, 2>
    %281 = adf.buffer.create @L1_L1_B_102() : memref<32x32xf32, 2>
    %282 = adf.buffer.create @L1_L1_C_102() : memref<32x32xf32, 2>
    %283 = adf.buffer.create @L1_L1_A_103() : memref<32x32xf32, 2>
    %284 = adf.buffer.create @L1_L1_B_103() : memref<32x32xf32, 2>
    %285 = adf.buffer.create @L1_L1_C_103() : memref<32x32xf32, 2>
    %286 = adf.buffer.create @L1_L1_A_104() : memref<32x32xf32, 2>
    %287 = adf.buffer.create @L1_L1_B_104() : memref<32x32xf32, 2>
    %288 = adf.buffer.create @L1_L1_A_105() : memref<32x32xf32, 2>
    %289 = adf.buffer.create @L1_L1_B_105() : memref<32x32xf32, 2>
    %290 = adf.buffer.create @L1_L1_C_105() : memref<32x32xf32, 2>
    %291 = adf.buffer.create @L1_L1_A_106() : memref<32x32xf32, 2>
    %292 = adf.buffer.create @L1_L1_B_106() : memref<32x32xf32, 2>
    %293 = adf.buffer.create @L1_L1_C_106() : memref<32x32xf32, 2>
    %294 = adf.buffer.create @L1_L1_A_107() : memref<32x32xf32, 2>
    %295 = adf.buffer.create @L1_L1_B_107() : memref<32x32xf32, 2>
    %296 = adf.buffer.create @L1_L1_C_107() : memref<32x32xf32, 2>
    %297 = adf.buffer.create @L1_L1_A_108() : memref<32x32xf32, 2>
    %298 = adf.buffer.create @L1_L1_B_108() : memref<32x32xf32, 2>
    %299 = adf.buffer.create @L1_L1_A_109() : memref<32x32xf32, 2>
    %300 = adf.buffer.create @L1_L1_B_109() : memref<32x32xf32, 2>
    %301 = adf.buffer.create @L1_L1_C_109() : memref<32x32xf32, 2>
    %302 = adf.buffer.create @L1_L1_A_110() : memref<32x32xf32, 2>
    %303 = adf.buffer.create @L1_L1_B_110() : memref<32x32xf32, 2>
    %304 = adf.buffer.create @L1_L1_C_110() : memref<32x32xf32, 2>
    %305 = adf.buffer.create @L1_L1_A_111() : memref<32x32xf32, 2>
    %306 = adf.buffer.create @L1_L1_B_111() : memref<32x32xf32, 2>
    %307 = adf.buffer.create @L1_L1_C_111() : memref<32x32xf32, 2>
    %308 = adf.buffer.create @L1_L1_A_112() : memref<32x32xf32, 2>
    %309 = adf.buffer.create @L1_L1_B_112() : memref<32x32xf32, 2>
    %310 = adf.buffer.create @L1_L1_A_113() : memref<32x32xf32, 2>
    %311 = adf.buffer.create @L1_L1_B_113() : memref<32x32xf32, 2>
    %312 = adf.buffer.create @L1_L1_C_113() : memref<32x32xf32, 2>
    %313 = adf.buffer.create @L1_L1_A_114() : memref<32x32xf32, 2>
    %314 = adf.buffer.create @L1_L1_B_114() : memref<32x32xf32, 2>
    %315 = adf.buffer.create @L1_L1_C_114() : memref<32x32xf32, 2>
    %316 = adf.buffer.create @L1_L1_A_115() : memref<32x32xf32, 2>
    %317 = adf.buffer.create @L1_L1_B_115() : memref<32x32xf32, 2>
    %318 = adf.buffer.create @L1_L1_C_115() : memref<32x32xf32, 2>
    %319 = adf.buffer.create @L1_L1_A_116() : memref<32x32xf32, 2>
    %320 = adf.buffer.create @L1_L1_B_116() : memref<32x32xf32, 2>
    %321 = adf.buffer.create @L1_L1_A_117() : memref<32x32xf32, 2>
    %322 = adf.buffer.create @L1_L1_B_117() : memref<32x32xf32, 2>
    %323 = adf.buffer.create @L1_L1_C_117() : memref<32x32xf32, 2>
    %324 = adf.buffer.create @L1_L1_A_118() : memref<32x32xf32, 2>
    %325 = adf.buffer.create @L1_L1_B_118() : memref<32x32xf32, 2>
    %326 = adf.buffer.create @L1_L1_C_118() : memref<32x32xf32, 2>
    %327 = adf.buffer.create @L1_L1_A_119() : memref<32x32xf32, 2>
    %328 = adf.buffer.create @L1_L1_B_119() : memref<32x32xf32, 2>
    %329 = adf.buffer.create @L1_L1_C_119() : memref<32x32xf32, 2>
    %330 = adf.buffer.create @L1_L1_A_120() : memref<32x32xf32, 2>
    %331 = adf.buffer.create @L1_L1_B_120() : memref<32x32xf32, 2>
    %332 = adf.buffer.create @L1_L1_A_121() : memref<32x32xf32, 2>
    %333 = adf.buffer.create @L1_L1_B_121() : memref<32x32xf32, 2>
    %334 = adf.buffer.create @L1_L1_C_121() : memref<32x32xf32, 2>
    %335 = adf.buffer.create @L1_L1_A_122() : memref<32x32xf32, 2>
    %336 = adf.buffer.create @L1_L1_B_122() : memref<32x32xf32, 2>
    %337 = adf.buffer.create @L1_L1_C_122() : memref<32x32xf32, 2>
    %338 = adf.buffer.create @L1_L1_A_123() : memref<32x32xf32, 2>
    %339 = adf.buffer.create @L1_L1_B_123() : memref<32x32xf32, 2>
    %340 = adf.buffer.create @L1_L1_C_123() : memref<32x32xf32, 2>
    %341 = adf.buffer.create @L1_L1_A_124() : memref<32x32xf32, 2>
    %342 = adf.buffer.create @L1_L1_B_124() : memref<32x32xf32, 2>
    %343 = adf.buffer.create @L1_L1_A_125() : memref<32x32xf32, 2>
    %344 = adf.buffer.create @L1_L1_B_125() : memref<32x32xf32, 2>
    %345 = adf.buffer.create @L1_L1_C_125() : memref<32x32xf32, 2>
    %346 = adf.buffer.create @L1_L1_A_126() : memref<32x32xf32, 2>
    %347 = adf.buffer.create @L1_L1_B_126() : memref<32x32xf32, 2>
    %348 = adf.buffer.create @L1_L1_C_126() : memref<32x32xf32, 2>
    %349 = adf.buffer.create @L1_L1_A_127() : memref<32x32xf32, 2>
    %350 = adf.buffer.create @L1_L1_B_127() : memref<32x32xf32, 2>
    %351 = adf.buffer.create @L1_L1_C_127() : memref<32x32xf32, 2>
    %352 = adf.buffer.create @L1_L1_A_128() : memref<32x32xf32, 2>
    %353 = adf.buffer.create @L1_L1_B_128() : memref<32x32xf32, 2>
    %354 = adf.buffer.create @L1_L1_A_129() : memref<32x32xf32, 2>
    %355 = adf.buffer.create @L1_L1_B_129() : memref<32x32xf32, 2>
    %356 = adf.buffer.create @L1_L1_C_129() : memref<32x32xf32, 2>
    %357 = adf.buffer.create @L1_L1_A_130() : memref<32x32xf32, 2>
    %358 = adf.buffer.create @L1_L1_B_130() : memref<32x32xf32, 2>
    %359 = adf.buffer.create @L1_L1_C_130() : memref<32x32xf32, 2>
    %360 = adf.buffer.create @L1_L1_A_131() : memref<32x32xf32, 2>
    %361 = adf.buffer.create @L1_L1_B_131() : memref<32x32xf32, 2>
    %362 = adf.buffer.create @L1_L1_C_131() : memref<32x32xf32, 2>
    %363 = adf.buffer.create @L1_L1_A_132() : memref<32x32xf32, 2>
    %364 = adf.buffer.create @L1_L1_B_132() : memref<32x32xf32, 2>
    %365 = adf.buffer.create @L1_L1_A_133() : memref<32x32xf32, 2>
    %366 = adf.buffer.create @L1_L1_B_133() : memref<32x32xf32, 2>
    %367 = adf.buffer.create @L1_L1_C_133() : memref<32x32xf32, 2>
    %368 = adf.buffer.create @L1_L1_A_134() : memref<32x32xf32, 2>
    %369 = adf.buffer.create @L1_L1_B_134() : memref<32x32xf32, 2>
    %370 = adf.buffer.create @L1_L1_C_134() : memref<32x32xf32, 2>
    %371 = adf.buffer.create @L1_L1_A_135() : memref<32x32xf32, 2>
    %372 = adf.buffer.create @L1_L1_B_135() : memref<32x32xf32, 2>
    %373 = adf.buffer.create @L1_L1_C_135() : memref<32x32xf32, 2>
    %374 = adf.buffer.create @L1_L1_A_136() : memref<32x32xf32, 2>
    %375 = adf.buffer.create @L1_L1_B_136() : memref<32x32xf32, 2>
    %376 = adf.buffer.create @L1_L1_A_137() : memref<32x32xf32, 2>
    %377 = adf.buffer.create @L1_L1_B_137() : memref<32x32xf32, 2>
    %378 = adf.buffer.create @L1_L1_C_137() : memref<32x32xf32, 2>
    %379 = adf.buffer.create @L1_L1_A_138() : memref<32x32xf32, 2>
    %380 = adf.buffer.create @L1_L1_B_138() : memref<32x32xf32, 2>
    %381 = adf.buffer.create @L1_L1_C_138() : memref<32x32xf32, 2>
    %382 = adf.buffer.create @L1_L1_A_139() : memref<32x32xf32, 2>
    %383 = adf.buffer.create @L1_L1_B_139() : memref<32x32xf32, 2>
    %384 = adf.buffer.create @L1_L1_C_139() : memref<32x32xf32, 2>
    %385 = adf.buffer.create @L1_L1_A_140() : memref<32x32xf32, 2>
    %386 = adf.buffer.create @L1_L1_B_140() : memref<32x32xf32, 2>
    %387 = adf.buffer.create @L1_L1_A_141() : memref<32x32xf32, 2>
    %388 = adf.buffer.create @L1_L1_B_141() : memref<32x32xf32, 2>
    %389 = adf.buffer.create @L1_L1_C_141() : memref<32x32xf32, 2>
    %390 = adf.buffer.create @L1_L1_A_142() : memref<32x32xf32, 2>
    %391 = adf.buffer.create @L1_L1_B_142() : memref<32x32xf32, 2>
    %392 = adf.buffer.create @L1_L1_C_142() : memref<32x32xf32, 2>
    %393 = adf.buffer.create @L1_L1_A_143() : memref<32x32xf32, 2>
    %394 = adf.buffer.create @L1_L1_B_143() : memref<32x32xf32, 2>
    %395 = adf.buffer.create @L1_L1_C_143() : memref<32x32xf32, 2>
    %396 = adf.buffer.create @L1_L1_A_144() : memref<32x32xf32, 2>
    %397 = adf.buffer.create @L1_L1_B_144() : memref<32x32xf32, 2>
    %398 = adf.buffer.create @L1_L1_A_145() : memref<32x32xf32, 2>
    %399 = adf.buffer.create @L1_L1_B_145() : memref<32x32xf32, 2>
    %400 = adf.buffer.create @L1_L1_C_145() : memref<32x32xf32, 2>
    %401 = adf.buffer.create @L1_L1_A_146() : memref<32x32xf32, 2>
    %402 = adf.buffer.create @L1_L1_B_146() : memref<32x32xf32, 2>
    %403 = adf.buffer.create @L1_L1_C_146() : memref<32x32xf32, 2>
    %404 = adf.buffer.create @L1_L1_A_147() : memref<32x32xf32, 2>
    %405 = adf.buffer.create @L1_L1_B_147() : memref<32x32xf32, 2>
    %406 = adf.buffer.create @L1_L1_C_147() : memref<32x32xf32, 2>
    %407 = adf.buffer.create @L1_L1_A_148() : memref<32x32xf32, 2>
    %408 = adf.buffer.create @L1_L1_B_148() : memref<32x32xf32, 2>
    %409 = adf.buffer.create @L1_L1_A_149() : memref<32x32xf32, 2>
    %410 = adf.buffer.create @L1_L1_B_149() : memref<32x32xf32, 2>
    %411 = adf.buffer.create @L1_L1_C_149() : memref<32x32xf32, 2>
    %412 = adf.buffer.create @L1_L1_A_150() : memref<32x32xf32, 2>
    %413 = adf.buffer.create @L1_L1_B_150() : memref<32x32xf32, 2>
    %414 = adf.buffer.create @L1_L1_C_150() : memref<32x32xf32, 2>
    %415 = adf.buffer.create @L1_L1_A_151() : memref<32x32xf32, 2>
    %416 = adf.buffer.create @L1_L1_B_151() : memref<32x32xf32, 2>
    %417 = adf.buffer.create @L1_L1_C_151() : memref<32x32xf32, 2>
    %418 = adf.buffer.create @L1_L1_A_152() : memref<32x32xf32, 2>
    %419 = adf.buffer.create @L1_L1_B_152() : memref<32x32xf32, 2>
    %420 = adf.buffer.create @L1_L1_A_153() : memref<32x32xf32, 2>
    %421 = adf.buffer.create @L1_L1_B_153() : memref<32x32xf32, 2>
    %422 = adf.buffer.create @L1_L1_C_153() : memref<32x32xf32, 2>
    %423 = adf.buffer.create @L1_L1_A_154() : memref<32x32xf32, 2>
    %424 = adf.buffer.create @L1_L1_B_154() : memref<32x32xf32, 2>
    %425 = adf.buffer.create @L1_L1_C_154() : memref<32x32xf32, 2>
    %426 = adf.buffer.create @L1_L1_A_155() : memref<32x32xf32, 2>
    %427 = adf.buffer.create @L1_L1_B_155() : memref<32x32xf32, 2>
    %428 = adf.buffer.create @L1_L1_C_155() : memref<32x32xf32, 2>
    %429 = adf.buffer.create @L1_L1_A_156() : memref<32x32xf32, 2>
    %430 = adf.buffer.create @L1_L1_B_156() : memref<32x32xf32, 2>
    %431 = adf.buffer.create @L1_L1_A_157() : memref<32x32xf32, 2>
    %432 = adf.buffer.create @L1_L1_B_157() : memref<32x32xf32, 2>
    %433 = adf.buffer.create @L1_L1_C_157() : memref<32x32xf32, 2>
    %434 = adf.buffer.create @L1_L1_A_158() : memref<32x32xf32, 2>
    %435 = adf.buffer.create @L1_L1_B_158() : memref<32x32xf32, 2>
    %436 = adf.buffer.create @L1_L1_C_158() : memref<32x32xf32, 2>
    %437 = adf.buffer.create @L1_L1_A_159() : memref<32x32xf32, 2>
    %438 = adf.buffer.create @L1_L1_B_159() : memref<32x32xf32, 2>
    %439 = adf.buffer.create @L1_L1_C_159() : memref<32x32xf32, 2>
    %440 = adf.buffer.create @L1_L1_A_160() : memref<32x32xf32, 2>
    %441 = adf.buffer.create @L1_L1_B_160() : memref<32x32xf32, 2>
    %442 = adf.buffer.create @L1_L1_A_161() : memref<32x32xf32, 2>
    %443 = adf.buffer.create @L1_L1_B_161() : memref<32x32xf32, 2>
    %444 = adf.buffer.create @L1_L1_C_161() : memref<32x32xf32, 2>
    %445 = adf.buffer.create @L1_L1_A_162() : memref<32x32xf32, 2>
    %446 = adf.buffer.create @L1_L1_B_162() : memref<32x32xf32, 2>
    %447 = adf.buffer.create @L1_L1_C_162() : memref<32x32xf32, 2>
    %448 = adf.buffer.create @L1_L1_A_163() : memref<32x32xf32, 2>
    %449 = adf.buffer.create @L1_L1_B_163() : memref<32x32xf32, 2>
    %450 = adf.buffer.create @L1_L1_C_163() : memref<32x32xf32, 2>
    %451 = adf.buffer.create @L1_L1_A_164() : memref<32x32xf32, 2>
    %452 = adf.buffer.create @L1_L1_B_164() : memref<32x32xf32, 2>
    %453 = adf.buffer.create @L1_L1_A_165() : memref<32x32xf32, 2>
    %454 = adf.buffer.create @L1_L1_B_165() : memref<32x32xf32, 2>
    %455 = adf.buffer.create @L1_L1_C_165() : memref<32x32xf32, 2>
    %456 = adf.buffer.create @L1_L1_A_166() : memref<32x32xf32, 2>
    %457 = adf.buffer.create @L1_L1_B_166() : memref<32x32xf32, 2>
    %458 = adf.buffer.create @L1_L1_C_166() : memref<32x32xf32, 2>
    %459 = adf.buffer.create @L1_L1_A_167() : memref<32x32xf32, 2>
    %460 = adf.buffer.create @L1_L1_B_167() : memref<32x32xf32, 2>
    %461 = adf.buffer.create @L1_L1_C_167() : memref<32x32xf32, 2>
    %462 = adf.buffer.create @L1_L1_A_168() : memref<32x32xf32, 2>
    %463 = adf.buffer.create @L1_L1_B_168() : memref<32x32xf32, 2>
    %464 = adf.buffer.create @L1_L1_A_169() : memref<32x32xf32, 2>
    %465 = adf.buffer.create @L1_L1_B_169() : memref<32x32xf32, 2>
    %466 = adf.buffer.create @L1_L1_C_169() : memref<32x32xf32, 2>
    %467 = adf.buffer.create @L1_L1_A_170() : memref<32x32xf32, 2>
    %468 = adf.buffer.create @L1_L1_B_170() : memref<32x32xf32, 2>
    %469 = adf.buffer.create @L1_L1_C_170() : memref<32x32xf32, 2>
    %470 = adf.buffer.create @L1_L1_A_171() : memref<32x32xf32, 2>
    %471 = adf.buffer.create @L1_L1_B_171() : memref<32x32xf32, 2>
    %472 = adf.buffer.create @L1_L1_C_171() : memref<32x32xf32, 2>
    %473 = adf.buffer.create @L1_L1_A_172() : memref<32x32xf32, 2>
    %474 = adf.buffer.create @L1_L1_B_172() : memref<32x32xf32, 2>
    %475 = adf.buffer.create @L1_L1_A_173() : memref<32x32xf32, 2>
    %476 = adf.buffer.create @L1_L1_B_173() : memref<32x32xf32, 2>
    %477 = adf.buffer.create @L1_L1_C_173() : memref<32x32xf32, 2>
    %478 = adf.buffer.create @L1_L1_A_174() : memref<32x32xf32, 2>
    %479 = adf.buffer.create @L1_L1_B_174() : memref<32x32xf32, 2>
    %480 = adf.buffer.create @L1_L1_C_174() : memref<32x32xf32, 2>
    %481 = adf.buffer.create @L1_L1_A_175() : memref<32x32xf32, 2>
    %482 = adf.buffer.create @L1_L1_B_175() : memref<32x32xf32, 2>
    %483 = adf.buffer.create @L1_L1_C_175() : memref<32x32xf32, 2>
    %484 = adf.buffer.create @L1_L1_A_176() : memref<32x32xf32, 2>
    %485 = adf.buffer.create @L1_L1_B_176() : memref<32x32xf32, 2>
    %486 = adf.buffer.create @L1_L1_A_177() : memref<32x32xf32, 2>
    %487 = adf.buffer.create @L1_L1_B_177() : memref<32x32xf32, 2>
    %488 = adf.buffer.create @L1_L1_C_177() : memref<32x32xf32, 2>
    %489 = adf.buffer.create @L1_L1_A_178() : memref<32x32xf32, 2>
    %490 = adf.buffer.create @L1_L1_B_178() : memref<32x32xf32, 2>
    %491 = adf.buffer.create @L1_L1_C_178() : memref<32x32xf32, 2>
    %492 = adf.buffer.create @L1_L1_A_179() : memref<32x32xf32, 2>
    %493 = adf.buffer.create @L1_L1_B_179() : memref<32x32xf32, 2>
    %494 = adf.buffer.create @L1_L1_C_179() : memref<32x32xf32, 2>
    %495 = adf.buffer.create @L1_L1_A_180() : memref<32x32xf32, 2>
    %496 = adf.buffer.create @L1_L1_B_180() : memref<32x32xf32, 2>
    %497 = adf.buffer.create @L1_L1_A_181() : memref<32x32xf32, 2>
    %498 = adf.buffer.create @L1_L1_B_181() : memref<32x32xf32, 2>
    %499 = adf.buffer.create @L1_L1_C_181() : memref<32x32xf32, 2>
    %500 = adf.buffer.create @L1_L1_A_182() : memref<32x32xf32, 2>
    %501 = adf.buffer.create @L1_L1_B_182() : memref<32x32xf32, 2>
    %502 = adf.buffer.create @L1_L1_C_182() : memref<32x32xf32, 2>
    %503 = adf.buffer.create @L1_L1_A_183() : memref<32x32xf32, 2>
    %504 = adf.buffer.create @L1_L1_B_183() : memref<32x32xf32, 2>
    %505 = adf.buffer.create @L1_L1_C_183() : memref<32x32xf32, 2>
    %506 = adf.buffer.create @L1_L1_A_184() : memref<32x32xf32, 2>
    %507 = adf.buffer.create @L1_L1_B_184() : memref<32x32xf32, 2>
    %508 = adf.buffer.create @L1_L1_A_185() : memref<32x32xf32, 2>
    %509 = adf.buffer.create @L1_L1_B_185() : memref<32x32xf32, 2>
    %510 = adf.buffer.create @L1_L1_C_185() : memref<32x32xf32, 2>
    %511 = adf.buffer.create @L1_L1_A_186() : memref<32x32xf32, 2>
    %512 = adf.buffer.create @L1_L1_B_186() : memref<32x32xf32, 2>
    %513 = adf.buffer.create @L1_L1_C_186() : memref<32x32xf32, 2>
    %514 = adf.buffer.create @L1_L1_A_187() : memref<32x32xf32, 2>
    %515 = adf.buffer.create @L1_L1_B_187() : memref<32x32xf32, 2>
    %516 = adf.buffer.create @L1_L1_C_187() : memref<32x32xf32, 2>
    %517 = adf.buffer.create @L1_L1_A_188() : memref<32x32xf32, 2>
    %518 = adf.buffer.create @L1_L1_B_188() : memref<32x32xf32, 2>
    %519 = adf.buffer.create @L1_L1_A_189() : memref<32x32xf32, 2>
    %520 = adf.buffer.create @L1_L1_B_189() : memref<32x32xf32, 2>
    %521 = adf.buffer.create @L1_L1_C_189() : memref<32x32xf32, 2>
    %522 = adf.buffer.create @L1_L1_A_190() : memref<32x32xf32, 2>
    %523 = adf.buffer.create @L1_L1_B_190() : memref<32x32xf32, 2>
    %524 = adf.buffer.create @L1_L1_C_190() : memref<32x32xf32, 2>
    %525 = adf.buffer.create @L1_L1_A_191() : memref<32x32xf32, 2>
    %526 = adf.buffer.create @L1_L1_B_191() : memref<32x32xf32, 2>
    %527 = adf.buffer.create @L1_L1_C_191() : memref<32x32xf32, 2>
    %528 = adf.buffer.create @L1_L1_A_192() : memref<32x32xf32, 2>
    %529 = adf.buffer.create @L1_L1_B_192() : memref<32x32xf32, 2>
    %530 = adf.buffer.create @L1_L1_A_193() : memref<32x32xf32, 2>
    %531 = adf.buffer.create @L1_L1_B_193() : memref<32x32xf32, 2>
    %532 = adf.buffer.create @L1_L1_C_193() : memref<32x32xf32, 2>
    %533 = adf.buffer.create @L1_L1_A_194() : memref<32x32xf32, 2>
    %534 = adf.buffer.create @L1_L1_B_194() : memref<32x32xf32, 2>
    %535 = adf.buffer.create @L1_L1_C_194() : memref<32x32xf32, 2>
    %536 = adf.buffer.create @L1_L1_A_195() : memref<32x32xf32, 2>
    %537 = adf.buffer.create @L1_L1_B_195() : memref<32x32xf32, 2>
    %538 = adf.buffer.create @L1_L1_C_195() : memref<32x32xf32, 2>
    %539 = adf.buffer.create @L1_L1_A_196() : memref<32x32xf32, 2>
    %540 = adf.buffer.create @L1_L1_B_196() : memref<32x32xf32, 2>
    %541 = adf.buffer.create @L1_L1_A_197() : memref<32x32xf32, 2>
    %542 = adf.buffer.create @L1_L1_B_197() : memref<32x32xf32, 2>
    %543 = adf.buffer.create @L1_L1_C_197() : memref<32x32xf32, 2>
    %544 = adf.buffer.create @L1_L1_A_198() : memref<32x32xf32, 2>
    %545 = adf.buffer.create @L1_L1_B_198() : memref<32x32xf32, 2>
    %546 = adf.buffer.create @L1_L1_C_198() : memref<32x32xf32, 2>
    %547 = adf.buffer.create @L1_L1_A_199() : memref<32x32xf32, 2>
    %548 = adf.buffer.create @L1_L1_B_199() : memref<32x32xf32, 2>
    %549 = adf.buffer.create @L1_L1_C_199() : memref<32x32xf32, 2>
    %550 = adf.buffer.create @L1_L1_A_200() : memref<32x32xf32, 2>
    %551 = adf.buffer.create @L1_L1_B_200() : memref<32x32xf32, 2>
    %552 = adf.buffer.create @L1_L1_A_201() : memref<32x32xf32, 2>
    %553 = adf.buffer.create @L1_L1_B_201() : memref<32x32xf32, 2>
    %554 = adf.buffer.create @L1_L1_C_201() : memref<32x32xf32, 2>
    %555 = adf.buffer.create @L1_L1_A_202() : memref<32x32xf32, 2>
    %556 = adf.buffer.create @L1_L1_B_202() : memref<32x32xf32, 2>
    %557 = adf.buffer.create @L1_L1_C_202() : memref<32x32xf32, 2>
    %558 = adf.buffer.create @L1_L1_A_203() : memref<32x32xf32, 2>
    %559 = adf.buffer.create @L1_L1_B_203() : memref<32x32xf32, 2>
    %560 = adf.buffer.create @L1_L1_C_203() : memref<32x32xf32, 2>
    %561 = adf.buffer.create @L1_L1_A_204() : memref<32x32xf32, 2>
    %562 = adf.buffer.create @L1_L1_B_204() : memref<32x32xf32, 2>
    %563 = adf.buffer.create @L1_L1_A_205() : memref<32x32xf32, 2>
    %564 = adf.buffer.create @L1_L1_B_205() : memref<32x32xf32, 2>
    %565 = adf.buffer.create @L1_L1_C_205() : memref<32x32xf32, 2>
    %566 = adf.buffer.create @L1_L1_A_206() : memref<32x32xf32, 2>
    %567 = adf.buffer.create @L1_L1_B_206() : memref<32x32xf32, 2>
    %568 = adf.buffer.create @L1_L1_C_206() : memref<32x32xf32, 2>
    %569 = adf.buffer.create @L1_L1_A_207() : memref<32x32xf32, 2>
    %570 = adf.buffer.create @L1_L1_B_207() : memref<32x32xf32, 2>
    %571 = adf.buffer.create @L1_L1_C_207() : memref<32x32xf32, 2>
    %572 = adf.buffer.create @L1_L1_A_208() : memref<32x32xf32, 2>
    %573 = adf.buffer.create @L1_L1_B_208() : memref<32x32xf32, 2>
    %574 = adf.buffer.create @L1_L1_A_209() : memref<32x32xf32, 2>
    %575 = adf.buffer.create @L1_L1_B_209() : memref<32x32xf32, 2>
    %576 = adf.buffer.create @L1_L1_C_209() : memref<32x32xf32, 2>
    %577 = adf.buffer.create @L1_L1_A_210() : memref<32x32xf32, 2>
    %578 = adf.buffer.create @L1_L1_B_210() : memref<32x32xf32, 2>
    %579 = adf.buffer.create @L1_L1_C_210() : memref<32x32xf32, 2>
    %580 = adf.buffer.create @L1_L1_A_211() : memref<32x32xf32, 2>
    %581 = adf.buffer.create @L1_L1_B_211() : memref<32x32xf32, 2>
    %582 = adf.buffer.create @L1_L1_C_211() : memref<32x32xf32, 2>
    %583 = adf.buffer.create @L1_L1_A_212() : memref<32x32xf32, 2>
    %584 = adf.buffer.create @L1_L1_B_212() : memref<32x32xf32, 2>
    %585 = adf.buffer.create @L1_L1_A_213() : memref<32x32xf32, 2>
    %586 = adf.buffer.create @L1_L1_B_213() : memref<32x32xf32, 2>
    %587 = adf.buffer.create @L1_L1_C_213() : memref<32x32xf32, 2>
    %588 = adf.buffer.create @L1_L1_A_214() : memref<32x32xf32, 2>
    %589 = adf.buffer.create @L1_L1_B_214() : memref<32x32xf32, 2>
    %590 = adf.buffer.create @L1_L1_C_214() : memref<32x32xf32, 2>
    %591 = adf.buffer.create @L1_L1_A_215() : memref<32x32xf32, 2>
    %592 = adf.buffer.create @L1_L1_B_215() : memref<32x32xf32, 2>
    %593 = adf.buffer.create @L1_L1_C_215() : memref<32x32xf32, 2>
    %594 = adf.buffer.create @L1_L1_A_216() : memref<32x32xf32, 2>
    %595 = adf.buffer.create @L1_L1_B_216() : memref<32x32xf32, 2>
    %596 = adf.buffer.create @L1_L1_A_217() : memref<32x32xf32, 2>
    %597 = adf.buffer.create @L1_L1_B_217() : memref<32x32xf32, 2>
    %598 = adf.buffer.create @L1_L1_C_217() : memref<32x32xf32, 2>
    %599 = adf.buffer.create @L1_L1_A_218() : memref<32x32xf32, 2>
    %600 = adf.buffer.create @L1_L1_B_218() : memref<32x32xf32, 2>
    %601 = adf.buffer.create @L1_L1_C_218() : memref<32x32xf32, 2>
    %602 = adf.buffer.create @L1_L1_A_219() : memref<32x32xf32, 2>
    %603 = adf.buffer.create @L1_L1_B_219() : memref<32x32xf32, 2>
    %604 = adf.buffer.create @L1_L1_C_219() : memref<32x32xf32, 2>
    %605 = adf.buffer.create @L1_L1_A_220() : memref<32x32xf32, 2>
    %606 = adf.buffer.create @L1_L1_B_220() : memref<32x32xf32, 2>
    %607 = adf.buffer.create @L1_L1_A_221() : memref<32x32xf32, 2>
    %608 = adf.buffer.create @L1_L1_B_221() : memref<32x32xf32, 2>
    %609 = adf.buffer.create @L1_L1_C_221() : memref<32x32xf32, 2>
    %610 = adf.buffer.create @L1_L1_A_222() : memref<32x32xf32, 2>
    %611 = adf.buffer.create @L1_L1_B_222() : memref<32x32xf32, 2>
    %612 = adf.buffer.create @L1_L1_C_222() : memref<32x32xf32, 2>
    %613 = adf.buffer.create @L1_L1_A_223() : memref<32x32xf32, 2>
    %614 = adf.buffer.create @L1_L1_B_223() : memref<32x32xf32, 2>
    %615 = adf.buffer.create @L1_L1_C_223() : memref<32x32xf32, 2>
    %616 = adf.buffer.create @L1_L1_A_224() : memref<32x32xf32, 2>
    %617 = adf.buffer.create @L1_L1_B_224() : memref<32x32xf32, 2>
    %618 = adf.buffer.create @L1_L1_A_225() : memref<32x32xf32, 2>
    %619 = adf.buffer.create @L1_L1_B_225() : memref<32x32xf32, 2>
    %620 = adf.buffer.create @L1_L1_C_225() : memref<32x32xf32, 2>
    %621 = adf.buffer.create @L1_L1_A_226() : memref<32x32xf32, 2>
    %622 = adf.buffer.create @L1_L1_B_226() : memref<32x32xf32, 2>
    %623 = adf.buffer.create @L1_L1_C_226() : memref<32x32xf32, 2>
    %624 = adf.buffer.create @L1_L1_A_227() : memref<32x32xf32, 2>
    %625 = adf.buffer.create @L1_L1_B_227() : memref<32x32xf32, 2>
    %626 = adf.buffer.create @L1_L1_C_227() : memref<32x32xf32, 2>
    %627 = adf.buffer.create @L1_L1_A_228() : memref<32x32xf32, 2>
    %628 = adf.buffer.create @L1_L1_B_228() : memref<32x32xf32, 2>
    %629 = adf.buffer.create @L1_L1_A_229() : memref<32x32xf32, 2>
    %630 = adf.buffer.create @L1_L1_B_229() : memref<32x32xf32, 2>
    %631 = adf.buffer.create @L1_L1_C_229() : memref<32x32xf32, 2>
    %632 = adf.buffer.create @L1_L1_A_230() : memref<32x32xf32, 2>
    %633 = adf.buffer.create @L1_L1_B_230() : memref<32x32xf32, 2>
    %634 = adf.buffer.create @L1_L1_C_230() : memref<32x32xf32, 2>
    %635 = adf.buffer.create @L1_L1_A_231() : memref<32x32xf32, 2>
    %636 = adf.buffer.create @L1_L1_B_231() : memref<32x32xf32, 2>
    %637 = adf.buffer.create @L1_L1_C_231() : memref<32x32xf32, 2>
    %638 = adf.buffer.create @L1_L1_A_232() : memref<32x32xf32, 2>
    %639 = adf.buffer.create @L1_L1_B_232() : memref<32x32xf32, 2>
    %640 = adf.buffer.create @L1_L1_A_233() : memref<32x32xf32, 2>
    %641 = adf.buffer.create @L1_L1_B_233() : memref<32x32xf32, 2>
    %642 = adf.buffer.create @L1_L1_C_233() : memref<32x32xf32, 2>
    %643 = adf.buffer.create @L1_L1_A_234() : memref<32x32xf32, 2>
    %644 = adf.buffer.create @L1_L1_B_234() : memref<32x32xf32, 2>
    %645 = adf.buffer.create @L1_L1_C_234() : memref<32x32xf32, 2>
    %646 = adf.buffer.create @L1_L1_A_235() : memref<32x32xf32, 2>
    %647 = adf.buffer.create @L1_L1_B_235() : memref<32x32xf32, 2>
    %648 = adf.buffer.create @L1_L1_C_235() : memref<32x32xf32, 2>
    %649 = adf.buffer.create @L1_L1_A_236() : memref<32x32xf32, 2>
    %650 = adf.buffer.create @L1_L1_B_236() : memref<32x32xf32, 2>
    %651 = adf.buffer.create @L1_L1_A_237() : memref<32x32xf32, 2>
    %652 = adf.buffer.create @L1_L1_B_237() : memref<32x32xf32, 2>
    %653 = adf.buffer.create @L1_L1_C_237() : memref<32x32xf32, 2>
    %654 = adf.buffer.create @L1_L1_A_238() : memref<32x32xf32, 2>
    %655 = adf.buffer.create @L1_L1_B_238() : memref<32x32xf32, 2>
    %656 = adf.buffer.create @L1_L1_C_238() : memref<32x32xf32, 2>
    %657 = adf.buffer.create @L1_L1_A_239() : memref<32x32xf32, 2>
    %658 = adf.buffer.create @L1_L1_B_239() : memref<32x32xf32, 2>
    %659 = adf.buffer.create @L1_L1_C_239() : memref<32x32xf32, 2>
    %660 = adf.buffer.create @L1_L1_A_240() : memref<32x32xf32, 2>
    %661 = adf.buffer.create @L1_L1_B_240() : memref<32x32xf32, 2>
    %662 = adf.buffer.create @L1_L1_A_241() : memref<32x32xf32, 2>
    %663 = adf.buffer.create @L1_L1_B_241() : memref<32x32xf32, 2>
    %664 = adf.buffer.create @L1_L1_C_241() : memref<32x32xf32, 2>
    %665 = adf.buffer.create @L1_L1_A_242() : memref<32x32xf32, 2>
    %666 = adf.buffer.create @L1_L1_B_242() : memref<32x32xf32, 2>
    %667 = adf.buffer.create @L1_L1_C_242() : memref<32x32xf32, 2>
    %668 = adf.buffer.create @L1_L1_A_243() : memref<32x32xf32, 2>
    %669 = adf.buffer.create @L1_L1_B_243() : memref<32x32xf32, 2>
    %670 = adf.buffer.create @L1_L1_C_243() : memref<32x32xf32, 2>
    %671 = adf.buffer.create @L1_L1_A_244() : memref<32x32xf32, 2>
    %672 = adf.buffer.create @L1_L1_B_244() : memref<32x32xf32, 2>
    %673 = adf.buffer.create @L1_L1_A_245() : memref<32x32xf32, 2>
    %674 = adf.buffer.create @L1_L1_B_245() : memref<32x32xf32, 2>
    %675 = adf.buffer.create @L1_L1_C_245() : memref<32x32xf32, 2>
    %676 = adf.buffer.create @L1_L1_A_246() : memref<32x32xf32, 2>
    %677 = adf.buffer.create @L1_L1_B_246() : memref<32x32xf32, 2>
    %678 = adf.buffer.create @L1_L1_C_246() : memref<32x32xf32, 2>
    %679 = adf.buffer.create @L1_L1_A_247() : memref<32x32xf32, 2>
    %680 = adf.buffer.create @L1_L1_B_247() : memref<32x32xf32, 2>
    %681 = adf.buffer.create @L1_L1_C_247() : memref<32x32xf32, 2>
    %682 = adf.buffer.create @L1_L1_A_248() : memref<32x32xf32, 2>
    %683 = adf.buffer.create @L1_L1_B_248() : memref<32x32xf32, 2>
    %684 = adf.buffer.create @L1_L1_A_249() : memref<32x32xf32, 2>
    %685 = adf.buffer.create @L1_L1_B_249() : memref<32x32xf32, 2>
    %686 = adf.buffer.create @L1_L1_C_249() : memref<32x32xf32, 2>
    %687 = adf.buffer.create @L1_L1_A_250() : memref<32x32xf32, 2>
    %688 = adf.buffer.create @L1_L1_B_250() : memref<32x32xf32, 2>
    %689 = adf.buffer.create @L1_L1_C_250() : memref<32x32xf32, 2>
    %690 = adf.buffer.create @L1_L1_A_251() : memref<32x32xf32, 2>
    %691 = adf.buffer.create @L1_L1_B_251() : memref<32x32xf32, 2>
    %692 = adf.buffer.create @L1_L1_C_251() : memref<32x32xf32, 2>
    %693 = adf.buffer.create @L1_L1_A_252() : memref<32x32xf32, 2>
    %694 = adf.buffer.create @L1_L1_B_252() : memref<32x32xf32, 2>
    %695 = adf.buffer.create @L1_L1_A_253() : memref<32x32xf32, 2>
    %696 = adf.buffer.create @L1_L1_B_253() : memref<32x32xf32, 2>
    %697 = adf.buffer.create @L1_L1_C_253() : memref<32x32xf32, 2>
    %698 = adf.buffer.create @L1_L1_A_254() : memref<32x32xf32, 2>
    %699 = adf.buffer.create @L1_L1_B_254() : memref<32x32xf32, 2>
    %700 = adf.buffer.create @L1_L1_C_254() : memref<32x32xf32, 2>
    %701 = adf.buffer.create @L1_L1_A_255() : memref<32x32xf32, 2>
    %702 = adf.buffer.create @L1_L1_B_255() : memref<32x32xf32, 2>
    %703 = adf.buffer.create @L1_L1_C_255() : memref<32x32xf32, 2>
    %704 = adf.buffer.create @L1_L1_A_256() : memref<32x32xf32, 2>
    %705 = adf.buffer.create @L1_L1_B_256() : memref<32x32xf32, 2>
    %706 = adf.buffer.create @L1_L1_A_257() : memref<32x32xf32, 2>
    %707 = adf.buffer.create @L1_L1_B_257() : memref<32x32xf32, 2>
    %708 = adf.buffer.create @L1_L1_C_257() : memref<32x32xf32, 2>
    %709 = adf.buffer.create @L1_L1_A_258() : memref<32x32xf32, 2>
    %710 = adf.buffer.create @L1_L1_B_258() : memref<32x32xf32, 2>
    %711 = adf.buffer.create @L1_L1_C_258() : memref<32x32xf32, 2>
    %712 = adf.buffer.create @L1_L1_A_259() : memref<32x32xf32, 2>
    %713 = adf.buffer.create @L1_L1_B_259() : memref<32x32xf32, 2>
    %714 = adf.buffer.create @L1_L1_C_259() : memref<32x32xf32, 2>
    %715 = adf.buffer.create @L1_L1_A_260() : memref<32x32xf32, 2>
    %716 = adf.buffer.create @L1_L1_B_260() : memref<32x32xf32, 2>
    %717 = adf.buffer.create @L1_L1_A_261() : memref<32x32xf32, 2>
    %718 = adf.buffer.create @L1_L1_B_261() : memref<32x32xf32, 2>
    %719 = adf.buffer.create @L1_L1_C_261() : memref<32x32xf32, 2>
    %720 = adf.buffer.create @L1_L1_A_262() : memref<32x32xf32, 2>
    %721 = adf.buffer.create @L1_L1_B_262() : memref<32x32xf32, 2>
    %722 = adf.buffer.create @L1_L1_C_262() : memref<32x32xf32, 2>
    %723 = adf.buffer.create @L1_L1_A_263() : memref<32x32xf32, 2>
    %724 = adf.buffer.create @L1_L1_B_263() : memref<32x32xf32, 2>
    %725 = adf.buffer.create @L1_L1_C_263() : memref<32x32xf32, 2>
    %726 = adf.buffer.create @L1_L1_A_264() : memref<32x32xf32, 2>
    %727 = adf.buffer.create @L1_L1_B_264() : memref<32x32xf32, 2>
    %728 = adf.buffer.create @L1_L1_A_265() : memref<32x32xf32, 2>
    %729 = adf.buffer.create @L1_L1_B_265() : memref<32x32xf32, 2>
    %730 = adf.buffer.create @L1_L1_C_265() : memref<32x32xf32, 2>
    %731 = adf.buffer.create @L1_L1_A_266() : memref<32x32xf32, 2>
    %732 = adf.buffer.create @L1_L1_B_266() : memref<32x32xf32, 2>
    %733 = adf.buffer.create @L1_L1_C_266() : memref<32x32xf32, 2>
    %734 = adf.buffer.create @L1_L1_A_267() : memref<32x32xf32, 2>
    %735 = adf.buffer.create @L1_L1_B_267() : memref<32x32xf32, 2>
    %736 = adf.buffer.create @L1_L1_C_267() : memref<32x32xf32, 2>
    %737 = adf.buffer.create @L1_L1_A_268() : memref<32x32xf32, 2>
    %738 = adf.buffer.create @L1_L1_B_268() : memref<32x32xf32, 2>
    %739 = adf.buffer.create @L1_L1_A_269() : memref<32x32xf32, 2>
    %740 = adf.buffer.create @L1_L1_B_269() : memref<32x32xf32, 2>
    %741 = adf.buffer.create @L1_L1_C_269() : memref<32x32xf32, 2>
    %742 = adf.buffer.create @L1_L1_A_270() : memref<32x32xf32, 2>
    %743 = adf.buffer.create @L1_L1_B_270() : memref<32x32xf32, 2>
    %744 = adf.buffer.create @L1_L1_C_270() : memref<32x32xf32, 2>
    %745 = adf.buffer.create @L1_L1_A_271() : memref<32x32xf32, 2>
    %746 = adf.buffer.create @L1_L1_B_271() : memref<32x32xf32, 2>
    %747 = adf.buffer.create @L1_L1_C_271() : memref<32x32xf32, 2>
    %748 = adf.buffer.create @L1_L1_A_272() : memref<32x32xf32, 2>
    %749 = adf.buffer.create @L1_L1_B_272() : memref<32x32xf32, 2>
    %750 = adf.buffer.create @L1_L1_A_273() : memref<32x32xf32, 2>
    %751 = adf.buffer.create @L1_L1_B_273() : memref<32x32xf32, 2>
    %752 = adf.buffer.create @L1_L1_C_273() : memref<32x32xf32, 2>
    %753 = adf.buffer.create @L1_L1_A_274() : memref<32x32xf32, 2>
    %754 = adf.buffer.create @L1_L1_B_274() : memref<32x32xf32, 2>
    %755 = adf.buffer.create @L1_L1_C_274() : memref<32x32xf32, 2>
    %756 = adf.buffer.create @L1_L1_A_275() : memref<32x32xf32, 2>
    %757 = adf.buffer.create @L1_L1_B_275() : memref<32x32xf32, 2>
    %758 = adf.buffer.create @L1_L1_C_275() : memref<32x32xf32, 2>
    %759 = adf.buffer.create @L1_L1_A_276() : memref<32x32xf32, 2>
    %760 = adf.buffer.create @L1_L1_B_276() : memref<32x32xf32, 2>
    %761 = adf.buffer.create @L1_L1_A_277() : memref<32x32xf32, 2>
    %762 = adf.buffer.create @L1_L1_B_277() : memref<32x32xf32, 2>
    %763 = adf.buffer.create @L1_L1_C_277() : memref<32x32xf32, 2>
    %764 = adf.buffer.create @L1_L1_A_278() : memref<32x32xf32, 2>
    %765 = adf.buffer.create @L1_L1_B_278() : memref<32x32xf32, 2>
    %766 = adf.buffer.create @L1_L1_C_278() : memref<32x32xf32, 2>
    %767 = adf.buffer.create @L1_L1_A_279() : memref<32x32xf32, 2>
    %768 = adf.buffer.create @L1_L1_B_279() : memref<32x32xf32, 2>
    %769 = adf.buffer.create @L1_L1_C_279() : memref<32x32xf32, 2>
    %770 = adf.buffer.create @L1_L1_A_280() : memref<32x32xf32, 2>
    %771 = adf.buffer.create @L1_L1_B_280() : memref<32x32xf32, 2>
    %772 = adf.buffer.create @L1_L1_A_281() : memref<32x32xf32, 2>
    %773 = adf.buffer.create @L1_L1_B_281() : memref<32x32xf32, 2>
    %774 = adf.buffer.create @L1_L1_C_281() : memref<32x32xf32, 2>
    %775 = adf.buffer.create @L1_L1_A_282() : memref<32x32xf32, 2>
    %776 = adf.buffer.create @L1_L1_B_282() : memref<32x32xf32, 2>
    %777 = adf.buffer.create @L1_L1_C_282() : memref<32x32xf32, 2>
    %778 = adf.buffer.create @L1_L1_A_283() : memref<32x32xf32, 2>
    %779 = adf.buffer.create @L1_L1_B_283() : memref<32x32xf32, 2>
    %780 = adf.buffer.create @L1_L1_C_283() : memref<32x32xf32, 2>
    %781 = adf.buffer.create @L1_L1_A_284() : memref<32x32xf32, 2>
    %782 = adf.buffer.create @L1_L1_B_284() : memref<32x32xf32, 2>
    %783 = adf.buffer.create @L1_L1_A_285() : memref<32x32xf32, 2>
    %784 = adf.buffer.create @L1_L1_B_285() : memref<32x32xf32, 2>
    %785 = adf.buffer.create @L1_L1_C_285() : memref<32x32xf32, 2>
    %786 = adf.buffer.create @L1_L1_A_286() : memref<32x32xf32, 2>
    %787 = adf.buffer.create @L1_L1_B_286() : memref<32x32xf32, 2>
    %788 = adf.buffer.create @L1_L1_C_286() : memref<32x32xf32, 2>
    %789 = adf.buffer.create @L1_L1_A_287() : memref<32x32xf32, 2>
    %790 = adf.buffer.create @L1_L1_B_287() : memref<32x32xf32, 2>
    %791 = adf.buffer.create @L1_L1_C_287() : memref<32x32xf32, 2>
    %792 = adf.buffer.create @L1_L1_A_288() : memref<32x32xf32, 2>
    %793 = adf.buffer.create @L1_L1_B_288() : memref<32x32xf32, 2>
    %794 = adf.buffer.create @L1_L1_A_289() : memref<32x32xf32, 2>
    %795 = adf.buffer.create @L1_L1_B_289() : memref<32x32xf32, 2>
    %796 = adf.buffer.create @L1_L1_C_289() : memref<32x32xf32, 2>
    %797 = adf.buffer.create @L1_L1_A_290() : memref<32x32xf32, 2>
    %798 = adf.buffer.create @L1_L1_B_290() : memref<32x32xf32, 2>
    %799 = adf.buffer.create @L1_L1_C_290() : memref<32x32xf32, 2>
    %800 = adf.buffer.create @L1_L1_A_291() : memref<32x32xf32, 2>
    %801 = adf.buffer.create @L1_L1_B_291() : memref<32x32xf32, 2>
    %802 = adf.buffer.create @L1_L1_C_291() : memref<32x32xf32, 2>
    %803 = adf.buffer.create @L1_L1_A_292() : memref<32x32xf32, 2>
    %804 = adf.buffer.create @L1_L1_B_292() : memref<32x32xf32, 2>
    %805 = adf.buffer.create @L1_L1_A_293() : memref<32x32xf32, 2>
    %806 = adf.buffer.create @L1_L1_B_293() : memref<32x32xf32, 2>
    %807 = adf.buffer.create @L1_L1_C_293() : memref<32x32xf32, 2>
    %808 = adf.buffer.create @L1_L1_A_294() : memref<32x32xf32, 2>
    %809 = adf.buffer.create @L1_L1_B_294() : memref<32x32xf32, 2>
    %810 = adf.buffer.create @L1_L1_C_294() : memref<32x32xf32, 2>
    %811 = adf.buffer.create @L1_L1_A_295() : memref<32x32xf32, 2>
    %812 = adf.buffer.create @L1_L1_B_295() : memref<32x32xf32, 2>
    %813 = adf.buffer.create @L1_L1_C_295() : memref<32x32xf32, 2>
    %814 = adf.buffer.create @L1_L1_A_296() : memref<32x32xf32, 2>
    %815 = adf.buffer.create @L1_L1_B_296() : memref<32x32xf32, 2>
    %816 = adf.buffer.create @L1_L1_A_297() : memref<32x32xf32, 2>
    %817 = adf.buffer.create @L1_L1_B_297() : memref<32x32xf32, 2>
    %818 = adf.buffer.create @L1_L1_C_297() : memref<32x32xf32, 2>
    %819 = adf.buffer.create @L1_L1_A_298() : memref<32x32xf32, 2>
    %820 = adf.buffer.create @L1_L1_B_298() : memref<32x32xf32, 2>
    %821 = adf.buffer.create @L1_L1_C_298() : memref<32x32xf32, 2>
    %822 = adf.buffer.create @L1_L1_A_299() : memref<32x32xf32, 2>
    %823 = adf.buffer.create @L1_L1_B_299() : memref<32x32xf32, 2>
    %824 = adf.buffer.create @L1_L1_C_299() : memref<32x32xf32, 2>
    %825 = adf.buffer.create @L1_L1_A_300() : memref<32x32xf32, 2>
    %826 = adf.buffer.create @L1_L1_B_300() : memref<32x32xf32, 2>
    %827 = adf.buffer.create @L1_L1_A_301() : memref<32x32xf32, 2>
    %828 = adf.buffer.create @L1_L1_B_301() : memref<32x32xf32, 2>
    %829 = adf.buffer.create @L1_L1_C_301() : memref<32x32xf32, 2>
    %830 = adf.buffer.create @L1_L1_A_302() : memref<32x32xf32, 2>
    %831 = adf.buffer.create @L1_L1_B_302() : memref<32x32xf32, 2>
    %832 = adf.buffer.create @L1_L1_C_302() : memref<32x32xf32, 2>
    %833 = adf.buffer.create @L1_L1_A_303() : memref<32x32xf32, 2>
    %834 = adf.buffer.create @L1_L1_B_303() : memref<32x32xf32, 2>
    %835 = adf.buffer.create @L1_L1_C_303() : memref<32x32xf32, 2>
    %836 = adf.buffer.create @L1_L1_A_304() : memref<32x32xf32, 2>
    %837 = adf.buffer.create @L1_L1_B_304() : memref<32x32xf32, 2>
    %838 = adf.buffer.create @L1_L1_A_305() : memref<32x32xf32, 2>
    %839 = adf.buffer.create @L1_L1_B_305() : memref<32x32xf32, 2>
    %840 = adf.buffer.create @L1_L1_C_305() : memref<32x32xf32, 2>
    %841 = adf.buffer.create @L1_L1_A_306() : memref<32x32xf32, 2>
    %842 = adf.buffer.create @L1_L1_B_306() : memref<32x32xf32, 2>
    %843 = adf.buffer.create @L1_L1_C_306() : memref<32x32xf32, 2>
    %844 = adf.buffer.create @L1_L1_A_307() : memref<32x32xf32, 2>
    %845 = adf.buffer.create @L1_L1_B_307() : memref<32x32xf32, 2>
    %846 = adf.buffer.create @L1_L1_C_307() : memref<32x32xf32, 2>
    %847 = adf.buffer.create @L1_L1_A_308() : memref<32x32xf32, 2>
    %848 = adf.buffer.create @L1_L1_B_308() : memref<32x32xf32, 2>
    %849 = adf.buffer.create @L1_L1_A_309() : memref<32x32xf32, 2>
    %850 = adf.buffer.create @L1_L1_B_309() : memref<32x32xf32, 2>
    %851 = adf.buffer.create @L1_L1_C_309() : memref<32x32xf32, 2>
    %852 = adf.buffer.create @L1_L1_A_310() : memref<32x32xf32, 2>
    %853 = adf.buffer.create @L1_L1_B_310() : memref<32x32xf32, 2>
    %854 = adf.buffer.create @L1_L1_C_310() : memref<32x32xf32, 2>
    %855 = adf.buffer.create @L1_L1_A_311() : memref<32x32xf32, 2>
    %856 = adf.buffer.create @L1_L1_B_311() : memref<32x32xf32, 2>
    %857 = adf.buffer.create @L1_L1_C_311() : memref<32x32xf32, 2>
    %858 = adf.buffer.create @L1_L1_A_312() : memref<32x32xf32, 2>
    %859 = adf.buffer.create @L1_L1_B_312() : memref<32x32xf32, 2>
    %860 = adf.buffer.create @L1_L1_A_313() : memref<32x32xf32, 2>
    %861 = adf.buffer.create @L1_L1_B_313() : memref<32x32xf32, 2>
    %862 = adf.buffer.create @L1_L1_C_313() : memref<32x32xf32, 2>
    %863 = adf.buffer.create @L1_L1_A_314() : memref<32x32xf32, 2>
    %864 = adf.buffer.create @L1_L1_B_314() : memref<32x32xf32, 2>
    %865 = adf.buffer.create @L1_L1_C_314() : memref<32x32xf32, 2>
    %866 = adf.buffer.create @L1_L1_A_315() : memref<32x32xf32, 2>
    %867 = adf.buffer.create @L1_L1_B_315() : memref<32x32xf32, 2>
    %868 = adf.buffer.create @L1_L1_C_315() : memref<32x32xf32, 2>
    %869 = adf.buffer.create @L1_L1_A_316() : memref<32x32xf32, 2>
    %870 = adf.buffer.create @L1_L1_B_316() : memref<32x32xf32, 2>
    %871 = adf.buffer.create @L1_L1_A_317() : memref<32x32xf32, 2>
    %872 = adf.buffer.create @L1_L1_B_317() : memref<32x32xf32, 2>
    %873 = adf.buffer.create @L1_L1_C_317() : memref<32x32xf32, 2>
    %874 = adf.buffer.create @L1_L1_A_318() : memref<32x32xf32, 2>
    %875 = adf.buffer.create @L1_L1_B_318() : memref<32x32xf32, 2>
    %876 = adf.buffer.create @L1_L1_C_318() : memref<32x32xf32, 2>
    %877 = adf.buffer.create @L1_L1_A_319() : memref<32x32xf32, 2>
    %878 = adf.buffer.create @L1_L1_B_319() : memref<32x32xf32, 2>
    %879 = adf.buffer.create @L1_L1_C_319() : memref<32x32xf32, 2>
    %880 = adf.buffer.create @L1_L1_A_320() : memref<32x32xf32, 2>
    %881 = adf.buffer.create @L1_L1_B_320() : memref<32x32xf32, 2>
    %882 = adf.buffer.create @L1_L1_A_321() : memref<32x32xf32, 2>
    %883 = adf.buffer.create @L1_L1_B_321() : memref<32x32xf32, 2>
    %884 = adf.buffer.create @L1_L1_C_321() : memref<32x32xf32, 2>
    %885 = adf.buffer.create @L1_L1_A_322() : memref<32x32xf32, 2>
    %886 = adf.buffer.create @L1_L1_B_322() : memref<32x32xf32, 2>
    %887 = adf.buffer.create @L1_L1_C_322() : memref<32x32xf32, 2>
    %888 = adf.buffer.create @L1_L1_A_323() : memref<32x32xf32, 2>
    %889 = adf.buffer.create @L1_L1_B_323() : memref<32x32xf32, 2>
    %890 = adf.buffer.create @L1_L1_C_323() : memref<32x32xf32, 2>
    %891 = adf.buffer.create @L1_L1_A_324() : memref<32x32xf32, 2>
    %892 = adf.buffer.create @L1_L1_B_324() : memref<32x32xf32, 2>
    %893 = adf.buffer.create @L1_L1_A_325() : memref<32x32xf32, 2>
    %894 = adf.buffer.create @L1_L1_B_325() : memref<32x32xf32, 2>
    %895 = adf.buffer.create @L1_L1_C_325() : memref<32x32xf32, 2>
    %896 = adf.buffer.create @L1_L1_A_326() : memref<32x32xf32, 2>
    %897 = adf.buffer.create @L1_L1_B_326() : memref<32x32xf32, 2>
    %898 = adf.buffer.create @L1_L1_C_326() : memref<32x32xf32, 2>
    %899 = adf.buffer.create @L1_L1_A_327() : memref<32x32xf32, 2>
    %900 = adf.buffer.create @L1_L1_B_327() : memref<32x32xf32, 2>
    %901 = adf.buffer.create @L1_L1_C_327() : memref<32x32xf32, 2>
    %902 = adf.buffer.create @L1_L1_A_328() : memref<32x32xf32, 2>
    %903 = adf.buffer.create @L1_L1_B_328() : memref<32x32xf32, 2>
    %904 = adf.buffer.create @L1_L1_A_329() : memref<32x32xf32, 2>
    %905 = adf.buffer.create @L1_L1_B_329() : memref<32x32xf32, 2>
    %906 = adf.buffer.create @L1_L1_C_329() : memref<32x32xf32, 2>
    %907 = adf.buffer.create @L1_L1_A_330() : memref<32x32xf32, 2>
    %908 = adf.buffer.create @L1_L1_B_330() : memref<32x32xf32, 2>
    %909 = adf.buffer.create @L1_L1_C_330() : memref<32x32xf32, 2>
    %910 = adf.buffer.create @L1_L1_A_331() : memref<32x32xf32, 2>
    %911 = adf.buffer.create @L1_L1_B_331() : memref<32x32xf32, 2>
    %912 = adf.buffer.create @L1_L1_C_331() : memref<32x32xf32, 2>
    %913 = adf.buffer.create @L1_L1_A_332() : memref<32x32xf32, 2>
    %914 = adf.buffer.create @L1_L1_B_332() : memref<32x32xf32, 2>
    %915 = adf.buffer.create @L1_L1_A_333() : memref<32x32xf32, 2>
    %916 = adf.buffer.create @L1_L1_B_333() : memref<32x32xf32, 2>
    %917 = adf.buffer.create @L1_L1_C_333() : memref<32x32xf32, 2>
    %918 = adf.buffer.create @L1_L1_A_334() : memref<32x32xf32, 2>
    %919 = adf.buffer.create @L1_L1_B_334() : memref<32x32xf32, 2>
    %920 = adf.buffer.create @L1_L1_C_334() : memref<32x32xf32, 2>
    %921 = adf.buffer.create @L1_L1_A_335() : memref<32x32xf32, 2>
    %922 = adf.buffer.create @L1_L1_B_335() : memref<32x32xf32, 2>
    %923 = adf.buffer.create @L1_L1_C_335() : memref<32x32xf32, 2>
    %924 = adf.buffer.create @L1_L1_A_336() : memref<32x32xf32, 2>
    %925 = adf.buffer.create @L1_L1_B_336() : memref<32x32xf32, 2>
    %926 = adf.buffer.create @L1_L1_A_337() : memref<32x32xf32, 2>
    %927 = adf.buffer.create @L1_L1_B_337() : memref<32x32xf32, 2>
    %928 = adf.buffer.create @L1_L1_C_337() : memref<32x32xf32, 2>
    %929 = adf.buffer.create @L1_L1_A_338() : memref<32x32xf32, 2>
    %930 = adf.buffer.create @L1_L1_B_338() : memref<32x32xf32, 2>
    %931 = adf.buffer.create @L1_L1_C_338() : memref<32x32xf32, 2>
    %932 = adf.buffer.create @L1_L1_A_339() : memref<32x32xf32, 2>
    %933 = adf.buffer.create @L1_L1_B_339() : memref<32x32xf32, 2>
    %934 = adf.buffer.create @L1_L1_C_339() : memref<32x32xf32, 2>
    %935 = adf.buffer.create @L1_L1_A_340() : memref<32x32xf32, 2>
    %936 = adf.buffer.create @L1_L1_B_340() : memref<32x32xf32, 2>
    %937 = adf.buffer.create @L1_L1_A_341() : memref<32x32xf32, 2>
    %938 = adf.buffer.create @L1_L1_B_341() : memref<32x32xf32, 2>
    %939 = adf.buffer.create @L1_L1_C_341() : memref<32x32xf32, 2>
    %940 = adf.buffer.create @L1_L1_A_342() : memref<32x32xf32, 2>
    %941 = adf.buffer.create @L1_L1_B_342() : memref<32x32xf32, 2>
    %942 = adf.buffer.create @L1_L1_C_342() : memref<32x32xf32, 2>
    %943 = adf.buffer.create @L1_L1_A_343() : memref<32x32xf32, 2>
    %944 = adf.buffer.create @L1_L1_B_343() : memref<32x32xf32, 2>
    %945 = adf.buffer.create @L1_L1_C_343() : memref<32x32xf32, 2>
    %946 = adf.buffer.create @L1_L1_A_344() : memref<32x32xf32, 2>
    %947 = adf.buffer.create @L1_L1_B_344() : memref<32x32xf32, 2>
    %948 = adf.buffer.create @L1_L1_A_345() : memref<32x32xf32, 2>
    %949 = adf.buffer.create @L1_L1_B_345() : memref<32x32xf32, 2>
    %950 = adf.buffer.create @L1_L1_C_345() : memref<32x32xf32, 2>
    %951 = adf.buffer.create @L1_L1_A_346() : memref<32x32xf32, 2>
    %952 = adf.buffer.create @L1_L1_B_346() : memref<32x32xf32, 2>
    %953 = adf.buffer.create @L1_L1_C_346() : memref<32x32xf32, 2>
    %954 = adf.buffer.create @L1_L1_A_347() : memref<32x32xf32, 2>
    %955 = adf.buffer.create @L1_L1_B_347() : memref<32x32xf32, 2>
    %956 = adf.buffer.create @L1_L1_C_347() : memref<32x32xf32, 2>
    %957 = adf.buffer.create @L1_L1_A_348() : memref<32x32xf32, 2>
    %958 = adf.buffer.create @L1_L1_B_348() : memref<32x32xf32, 2>
    %959 = adf.buffer.create @L1_L1_A_349() : memref<32x32xf32, 2>
    %960 = adf.buffer.create @L1_L1_B_349() : memref<32x32xf32, 2>
    %961 = adf.buffer.create @L1_L1_C_349() : memref<32x32xf32, 2>
    %962 = adf.buffer.create @L1_L1_A_350() : memref<32x32xf32, 2>
    %963 = adf.buffer.create @L1_L1_B_350() : memref<32x32xf32, 2>
    %964 = adf.buffer.create @L1_L1_C_350() : memref<32x32xf32, 2>
    %965 = adf.buffer.create @L1_L1_A_351() : memref<32x32xf32, 2>
    %966 = adf.buffer.create @L1_L1_B_351() : memref<32x32xf32, 2>
    %967 = adf.buffer.create @L1_L1_C_351() : memref<32x32xf32, 2>
    adf.connect(%arg0, %0) : (!adf.plio<In, 128>, memref<32x32xf32, 2>)
    adf.connect(%arg1, %1) : (!adf.plio<In, 128>, memref<32x32xf32, 2>)
    %968 = call @kernel_gemm0(%0, %1) {adf.kernel, "col, row" = [3 : index, 0 : index], ivs = [0 : index, 0 : index, 0 : index], kernel = 0 : index, kernel_gemm0 = 0 : index} : (memref<32x32xf32, 2>, memref<32x32xf32, 2>) -> memref<32x32xf32, 2>
    adf.buffer.location(%968, %c3, %c0, %c0, %c8192) : (memref<32x32xf32, 2>, index, index, index, index)
    adf.buffer.location(%1, %c2, %c0, %c0, %c8192) : (memref<32x32xf32, 2>, index, index, index, index)
    adf.buffer.location(%0, %c3, %c1, %c0, %c8192) : (memref<32x32xf32, 2>, index, index, index, index)
    adf.connect(%arg2, %2) : (!adf.plio<In, 128>, memref<32x32xf32, 2>)
    adf.connect(%arg3, %3) : (!adf.plio<In, 128>, memref<32x32xf32, 2>)
    adf.connect(%968, %4) : (memref<32x32xf32, 2>, memref<32x32xf32, 2>)
    %969 = call @kernel_gemm(%2, %3, %4) {adf.kernel, "col, row" = [4 : index, 0 : index], ivs = [1 : index, 0 : index, 0 : index], kernel_gemm = 1 : index} : (memref<32x32xf32, 2>, memref<32x32xf32, 2>, memref<32x32xf32, 2>) -> memref<32x32xf32, 2>
    adf.buffer.location(%969, %c4, %c0, %c0, %c8192) : (memref<32x32xf32, 2>, index, index, index, index)
    adf.buffer.location(%3, %c3, %c0, %c16384, %c24576) : (memref<32x32xf32, 2>, index, index, index, index)
    adf.buffer.location(%2, %c4, %c1, %c0, %c8192) : (memref<32x32xf32, 2>, index, index, index, index)
    adf.connect(%arg4, %5) : (!adf.plio<In, 128>, memref<32x32xf32, 2>)
    adf.connect(%arg5, %6) : (!adf.plio<In, 128>, memref<32x32xf32, 2>)
    adf.connect(%969, %7) : (memref<32x32xf32, 2>, memref<32x32xf32, 2>)
    %970 = call @kernel_gemm(%5, %6, %7) {adf.kernel, "col, row" = [5 : index, 0 : index], ivs = [2 : index, 0 : index, 0 : index], kernel_gemm = 2 : index} : (memref<32x32xf32, 2>, memref<32x32xf32, 2>, memref<32x32xf32, 2>) -> memref<32x32xf32, 2>
    adf.buffer.location(%970, %c5, %c0, %c0, %c8192) : (memref<32x32xf32, 2>, index, index, index, index)
    adf.buffer.location(%6, %c4, %c0, %c16384, %c24576) : (memref<32x32xf32, 2>, index, index, index, index)
    adf.buffer.location(%5, %c5, %c1, %c0, %c8192) : (memref<32x32xf32, 2>, index, index, index, index)
    adf.connect(%arg6, %8) : (!adf.plio<In, 128>, memref<32x32xf32, 2>)
    adf.connect(%arg7, %9) : (!adf.plio<In, 128>, memref<32x32xf32, 2>)
    adf.connect(%970, %10) : (memref<32x32xf32, 2>, memref<32x32xf32, 2>)
    %971 = call @kernel_gemm(%8, %9, %10) {adf.kernel, "col, row" = [6 : index, 0 : index], ivs = [3 : index, 0 : index, 0 : index], kernel_gemm = 3 : index} : (memref<32x32xf32, 2>, memref<32x32xf32, 2>, memref<32x32xf32, 2>) -> memref<32x32xf32, 2>
    adf.buffer.location(%971, %c6, %c0, %c0, %c8192) : (memref<32x32xf32, 2>, index, index, index, index)
    adf.buffer.location(%9, %c5, %c0, %c16384, %c24576) : (memref<32x32xf32, 2>, index, index, index, index)
    adf.buffer.location(%8, %c6, %c1, %c0, %c8192) : (memref<32x32xf32, 2>, index, index, index, index)
    adf.connect(%971, %arg8) {write = 3 : index} : (memref<32x32xf32, 2>, !adf.plio<Out, 128>)
    adf.connect(%arg0, %11) : (!adf.plio<In, 128>, memref<32x32xf32, 2>)
    adf.connect(%arg9, %12) : (!adf.plio<In, 128>, memref<32x32xf32, 2>)
    %972 = call @kernel_gemm0(%11, %12) {adf.kernel, "col, row" = [3 : index, 1 : index], ivs = [0 : index, 1 : index, 0 : index], kernel = 0 : index, kernel_gemm0 = 4 : index} : (memref<32x32xf32, 2>, memref<32x32xf32, 2>) -> memref<32x32xf32, 2>
    adf.buffer.location(%972, %c4, %c1, %c16384, %c24576) : (memref<32x32xf32, 2>, index, index, index, index)
    adf.buffer.location(%12, %c3, %c2, %c0, %c8192) : (memref<32x32xf32, 2>, index, index, index, index)
    adf.buffer.location(%11, %c3, %c0, %c4096, %c12288) : (memref<32x32xf32, 2>, index, index, index, index)
    adf.connect(%arg2, %13) : (!adf.plio<In, 128>, memref<32x32xf32, 2>)
    adf.connect(%arg10, %14) : (!adf.plio<In, 128>, memref<32x32xf32, 2>)
    adf.connect(%972, %15) : (memref<32x32xf32, 2>, memref<32x32xf32, 2>)
    %973 = call @kernel_gemm(%13, %14, %15) {adf.kernel, "col, row" = [4 : index, 1 : index], ivs = [1 : index, 1 : index, 0 : index], kernel_gemm = 5 : index} : (memref<32x32xf32, 2>, memref<32x32xf32, 2>, memref<32x32xf32, 2>) -> memref<32x32xf32, 2>
    adf.buffer.location(%973, %c5, %c1, %c16384, %c24576) : (memref<32x32xf32, 2>, index, index, index, index)
    adf.buffer.location(%14, %c4, %c2, %c0, %c8192) : (memref<32x32xf32, 2>, index, index, index, index)
    adf.buffer.location(%13, %c4, %c0, %c4096, %c12288) : (memref<32x32xf32, 2>, index, index, index, index)
    adf.connect(%arg4, %16) : (!adf.plio<In, 128>, memref<32x32xf32, 2>)
    adf.connect(%arg11, %17) : (!adf.plio<In, 128>, memref<32x32xf32, 2>)
    adf.connect(%973, %18) : (memref<32x32xf32, 2>, memref<32x32xf32, 2>)
    %974 = call @kernel_gemm(%16, %17, %18) {adf.kernel, "col, row" = [5 : index, 1 : index], ivs = [2 : index, 1 : index, 0 : index], kernel_gemm = 6 : index} : (memref<32x32xf32, 2>, memref<32x32xf32, 2>, memref<32x32xf32, 2>) -> memref<32x32xf32, 2>
    adf.buffer.location(%974, %c6, %c1, %c16384, %c24576) : (memref<32x32xf32, 2>, index, index, index, index)
    adf.buffer.location(%17, %c5, %c2, %c0, %c8192) : (memref<32x32xf32, 2>, index, index, index, index)
    adf.buffer.location(%16, %c5, %c0, %c4096, %c12288) : (memref<32x32xf32, 2>, index, index, index, index)
    adf.connect(%arg6, %19) : (!adf.plio<In, 128>, memref<32x32xf32, 2>)
    adf.connect(%arg12, %20) : (!adf.plio<In, 128>, memref<32x32xf32, 2>)
    adf.connect(%974, %21) : (memref<32x32xf32, 2>, memref<32x32xf32, 2>)
    %975 = call @kernel_gemm(%19, %20, %21) {adf.kernel, "col, row" = [6 : index, 1 : index], ivs = [3 : index, 1 : index, 0 : index], kernel_gemm = 7 : index} : (memref<32x32xf32, 2>, memref<32x32xf32, 2>, memref<32x32xf32, 2>) -> memref<32x32xf32, 2>
    adf.buffer.location(%975, %c7, %c1, %c0, %c8192) : (memref<32x32xf32, 2>, index, index, index, index)
    adf.buffer.location(%20, %c6, %c2, %c0, %c8192) : (memref<32x32xf32, 2>, index, index, index, index)
    adf.buffer.location(%19, %c6, %c0, %c16384, %c24576) : (memref<32x32xf32, 2>, index, index, index, index)
    adf.connect(%975, %arg13) {write = 3 : index} : (memref<32x32xf32, 2>, !adf.plio<Out, 128>)
    adf.connect(%arg0, %22) : (!adf.plio<In, 128>, memref<32x32xf32, 2>)
    adf.connect(%arg14, %23) : (!adf.plio<In, 128>, memref<32x32xf32, 2>)
    %976 = call @kernel_gemm0(%22, %23) {adf.kernel, "col, row" = [3 : index, 2 : index], ivs = [0 : index, 2 : index, 0 : index], kernel = 0 : index, kernel_gemm0 = 8 : index} : (memref<32x32xf32, 2>, memref<32x32xf32, 2>) -> memref<32x32xf32, 2>
    adf.buffer.location(%976, %c3, %c2, %c16384, %c24576) : (memref<32x32xf32, 2>, index, index, index, index)
    adf.buffer.location(%23, %c3, %c3, %c0, %c8192) : (memref<32x32xf32, 2>, index, index, index, index)
    adf.buffer.location(%22, %c3, %c1, %c16384, %c24576) : (memref<32x32xf32, 2>, index, index, index, index)
    adf.connect(%arg2, %24) : (!adf.plio<In, 128>, memref<32x32xf32, 2>)
    adf.connect(%arg15, %25) : (!adf.plio<In, 128>, memref<32x32xf32, 2>)
    adf.connect(%976, %26) : (memref<32x32xf32, 2>, memref<32x32xf32, 2>)
    %977 = call @kernel_gemm(%24, %25, %26) {adf.kernel, "col, row" = [4 : index, 2 : index], ivs = [1 : index, 2 : index, 0 : index], kernel_gemm = 9 : index} : (memref<32x32xf32, 2>, memref<32x32xf32, 2>, memref<32x32xf32, 2>) -> memref<32x32xf32, 2>
    adf.buffer.location(%977, %c4, %c2, %c16384, %c24576) : (memref<32x32xf32, 2>, index, index, index, index)
    adf.buffer.location(%25, %c4, %c3, %c0, %c8192) : (memref<32x32xf32, 2>, index, index, index, index)
    adf.buffer.location(%24, %c4, %c1, %c4096, %c12288) : (memref<32x32xf32, 2>, index, index, index, index)
    adf.connect(%arg4, %27) : (!adf.plio<In, 128>, memref<32x32xf32, 2>)
    adf.connect(%arg16, %28) : (!adf.plio<In, 128>, memref<32x32xf32, 2>)
    adf.connect(%977, %29) : (memref<32x32xf32, 2>, memref<32x32xf32, 2>)
    %978 = call @kernel_gemm(%27, %28, %29) {adf.kernel, "col, row" = [5 : index, 2 : index], ivs = [2 : index, 2 : index, 0 : index], kernel_gemm = 10 : index} : (memref<32x32xf32, 2>, memref<32x32xf32, 2>, memref<32x32xf32, 2>) -> memref<32x32xf32, 2>
    adf.buffer.location(%978, %c5, %c2, %c16384, %c24576) : (memref<32x32xf32, 2>, index, index, index, index)
    adf.buffer.location(%28, %c5, %c3, %c0, %c8192) : (memref<32x32xf32, 2>, index, index, index, index)
    adf.buffer.location(%27, %c5, %c1, %c4096, %c12288) : (memref<32x32xf32, 2>, index, index, index, index)
    adf.connect(%arg6, %30) : (!adf.plio<In, 128>, memref<32x32xf32, 2>)
    adf.connect(%arg17, %31) : (!adf.plio<In, 128>, memref<32x32xf32, 2>)
    adf.connect(%978, %32) : (memref<32x32xf32, 2>, memref<32x32xf32, 2>)
    %979 = call @kernel_gemm(%30, %31, %32) {adf.kernel, "col, row" = [6 : index, 2 : index], ivs = [3 : index, 2 : index, 0 : index], kernel_gemm = 11 : index} : (memref<32x32xf32, 2>, memref<32x32xf32, 2>, memref<32x32xf32, 2>) -> memref<32x32xf32, 2>
    adf.buffer.location(%979, %c6, %c2, %c16384, %c24576) : (memref<32x32xf32, 2>, index, index, index, index)
    adf.buffer.location(%31, %c6, %c3, %c0, %c8192) : (memref<32x32xf32, 2>, index, index, index, index)
    adf.buffer.location(%30, %c6, %c1, %c4096, %c12288) : (memref<32x32xf32, 2>, index, index, index, index)
    adf.connect(%979, %arg18) {write = 3 : index} : (memref<32x32xf32, 2>, !adf.plio<Out, 128>)
    adf.connect(%arg0, %33) : (!adf.plio<In, 128>, memref<32x32xf32, 2>)
    adf.connect(%arg19, %34) : (!adf.plio<In, 128>, memref<32x32xf32, 2>)
    %980 = call @kernel_gemm0(%33, %34) {adf.kernel, "col, row" = [3 : index, 3 : index], ivs = [0 : index, 3 : index, 0 : index], kernel = 0 : index, kernel_gemm0 = 12 : index} : (memref<32x32xf32, 2>, memref<32x32xf32, 2>) -> memref<32x32xf32, 2>
    adf.buffer.location(%980, %c4, %c3, %c16384, %c24576) : (memref<32x32xf32, 2>, index, index, index, index)
    adf.buffer.location(%34, %c3, %c4, %c0, %c8192) : (memref<32x32xf32, 2>, index, index, index, index)
    adf.buffer.location(%33, %c3, %c2, %c4096, %c12288) : (memref<32x32xf32, 2>, index, index, index, index)
    adf.connect(%arg2, %35) : (!adf.plio<In, 128>, memref<32x32xf32, 2>)
    adf.connect(%arg20, %36) : (!adf.plio<In, 128>, memref<32x32xf32, 2>)
    adf.connect(%980, %37) : (memref<32x32xf32, 2>, memref<32x32xf32, 2>)
    %981 = call @kernel_gemm(%35, %36, %37) {adf.kernel, "col, row" = [4 : index, 3 : index], ivs = [1 : index, 3 : index, 0 : index], kernel_gemm = 13 : index} : (memref<32x32xf32, 2>, memref<32x32xf32, 2>, memref<32x32xf32, 2>) -> memref<32x32xf32, 2>
    adf.buffer.location(%981, %c5, %c3, %c16384, %c24576) : (memref<32x32xf32, 2>, index, index, index, index)
    adf.buffer.location(%36, %c4, %c4, %c0, %c8192) : (memref<32x32xf32, 2>, index, index, index, index)
    adf.buffer.location(%35, %c4, %c2, %c4096, %c12288) : (memref<32x32xf32, 2>, index, index, index, index)
    adf.connect(%arg4, %38) : (!adf.plio<In, 128>, memref<32x32xf32, 2>)
    adf.connect(%arg21, %39) : (!adf.plio<In, 128>, memref<32x32xf32, 2>)
    adf.connect(%981, %40) : (memref<32x32xf32, 2>, memref<32x32xf32, 2>)
    %982 = call @kernel_gemm(%38, %39, %40) {adf.kernel, "col, row" = [5 : index, 3 : index], ivs = [2 : index, 3 : index, 0 : index], kernel_gemm = 14 : index} : (memref<32x32xf32, 2>, memref<32x32xf32, 2>, memref<32x32xf32, 2>) -> memref<32x32xf32, 2>
    adf.buffer.location(%982, %c6, %c3, %c16384, %c24576) : (memref<32x32xf32, 2>, index, index, index, index)
    adf.buffer.location(%39, %c5, %c4, %c0, %c8192) : (memref<32x32xf32, 2>, index, index, index, index)
    adf.buffer.location(%38, %c5, %c2, %c4096, %c12288) : (memref<32x32xf32, 2>, index, index, index, index)
    adf.connect(%arg6, %41) : (!adf.plio<In, 128>, memref<32x32xf32, 2>)
    adf.connect(%arg22, %42) : (!adf.plio<In, 128>, memref<32x32xf32, 2>)
    adf.connect(%982, %43) : (memref<32x32xf32, 2>, memref<32x32xf32, 2>)
    %983 = call @kernel_gemm(%41, %42, %43) {adf.kernel, "col, row" = [6 : index, 3 : index], ivs = [3 : index, 3 : index, 0 : index], kernel_gemm = 15 : index} : (memref<32x32xf32, 2>, memref<32x32xf32, 2>, memref<32x32xf32, 2>) -> memref<32x32xf32, 2>
    adf.buffer.location(%983, %c7, %c3, %c0, %c8192) : (memref<32x32xf32, 2>, index, index, index, index)
    adf.buffer.location(%42, %c6, %c4, %c0, %c8192) : (memref<32x32xf32, 2>, index, index, index, index)
    adf.buffer.location(%41, %c6, %c2, %c4096, %c12288) : (memref<32x32xf32, 2>, index, index, index, index)
    adf.connect(%983, %arg23) {write = 3 : index} : (memref<32x32xf32, 2>, !adf.plio<Out, 128>)
    adf.connect(%arg0, %44) : (!adf.plio<In, 128>, memref<32x32xf32, 2>)
    adf.connect(%arg24, %45) : (!adf.plio<In, 128>, memref<32x32xf32, 2>)
    %984 = call @kernel_gemm0(%44, %45) {adf.kernel, "col, row" = [3 : index, 4 : index], ivs = [0 : index, 4 : index, 0 : index], kernel = 0 : index, kernel_gemm0 = 16 : index} : (memref<32x32xf32, 2>, memref<32x32xf32, 2>) -> memref<32x32xf32, 2>
    adf.buffer.location(%984, %c3, %c4, %c16384, %c24576) : (memref<32x32xf32, 2>, index, index, index, index)
    adf.buffer.location(%45, %c3, %c5, %c0, %c8192) : (memref<32x32xf32, 2>, index, index, index, index)
    adf.buffer.location(%44, %c3, %c3, %c16384, %c24576) : (memref<32x32xf32, 2>, index, index, index, index)
    adf.connect(%arg2, %46) : (!adf.plio<In, 128>, memref<32x32xf32, 2>)
    adf.connect(%arg25, %47) : (!adf.plio<In, 128>, memref<32x32xf32, 2>)
    adf.connect(%984, %48) : (memref<32x32xf32, 2>, memref<32x32xf32, 2>)
    %985 = call @kernel_gemm(%46, %47, %48) {adf.kernel, "col, row" = [4 : index, 4 : index], ivs = [1 : index, 4 : index, 0 : index], kernel_gemm = 17 : index} : (memref<32x32xf32, 2>, memref<32x32xf32, 2>, memref<32x32xf32, 2>) -> memref<32x32xf32, 2>
    adf.buffer.location(%985, %c4, %c4, %c16384, %c24576) : (memref<32x32xf32, 2>, index, index, index, index)
    adf.buffer.location(%47, %c4, %c5, %c0, %c8192) : (memref<32x32xf32, 2>, index, index, index, index)
    adf.buffer.location(%46, %c4, %c3, %c4096, %c12288) : (memref<32x32xf32, 2>, index, index, index, index)
    adf.connect(%arg4, %49) : (!adf.plio<In, 128>, memref<32x32xf32, 2>)
    adf.connect(%arg26, %50) : (!adf.plio<In, 128>, memref<32x32xf32, 2>)
    adf.connect(%985, %51) : (memref<32x32xf32, 2>, memref<32x32xf32, 2>)
    %986 = call @kernel_gemm(%49, %50, %51) {adf.kernel, "col, row" = [5 : index, 4 : index], ivs = [2 : index, 4 : index, 0 : index], kernel_gemm = 18 : index} : (memref<32x32xf32, 2>, memref<32x32xf32, 2>, memref<32x32xf32, 2>) -> memref<32x32xf32, 2>
    adf.buffer.location(%986, %c5, %c4, %c16384, %c24576) : (memref<32x32xf32, 2>, index, index, index, index)
    adf.buffer.location(%50, %c5, %c5, %c0, %c8192) : (memref<32x32xf32, 2>, index, index, index, index)
    adf.buffer.location(%49, %c5, %c3, %c4096, %c12288) : (memref<32x32xf32, 2>, index, index, index, index)
    adf.connect(%arg6, %52) : (!adf.plio<In, 128>, memref<32x32xf32, 2>)
    adf.connect(%arg27, %53) : (!adf.plio<In, 128>, memref<32x32xf32, 2>)
    adf.connect(%986, %54) : (memref<32x32xf32, 2>, memref<32x32xf32, 2>)
    %987 = call @kernel_gemm(%52, %53, %54) {adf.kernel, "col, row" = [6 : index, 4 : index], ivs = [3 : index, 4 : index, 0 : index], kernel_gemm = 19 : index} : (memref<32x32xf32, 2>, memref<32x32xf32, 2>, memref<32x32xf32, 2>) -> memref<32x32xf32, 2>
    adf.buffer.location(%987, %c6, %c4, %c16384, %c24576) : (memref<32x32xf32, 2>, index, index, index, index)
    adf.buffer.location(%53, %c6, %c5, %c0, %c8192) : (memref<32x32xf32, 2>, index, index, index, index)
    adf.buffer.location(%52, %c6, %c3, %c4096, %c12288) : (memref<32x32xf32, 2>, index, index, index, index)
    adf.connect(%987, %arg28) {write = 3 : index} : (memref<32x32xf32, 2>, !adf.plio<Out, 128>)
    adf.connect(%arg0, %55) : (!adf.plio<In, 128>, memref<32x32xf32, 2>)
    adf.connect(%arg29, %56) : (!adf.plio<In, 128>, memref<32x32xf32, 2>)
    %988 = call @kernel_gemm0(%55, %56) {adf.kernel, "col, row" = [3 : index, 5 : index], ivs = [0 : index, 5 : index, 0 : index], kernel = 0 : index, kernel_gemm0 = 20 : index} : (memref<32x32xf32, 2>, memref<32x32xf32, 2>) -> memref<32x32xf32, 2>
    adf.buffer.location(%988, %c4, %c5, %c16384, %c24576) : (memref<32x32xf32, 2>, index, index, index, index)
    adf.buffer.location(%56, %c3, %c6, %c0, %c8192) : (memref<32x32xf32, 2>, index, index, index, index)
    adf.buffer.location(%55, %c3, %c4, %c4096, %c12288) : (memref<32x32xf32, 2>, index, index, index, index)
    adf.connect(%arg2, %57) : (!adf.plio<In, 128>, memref<32x32xf32, 2>)
    adf.connect(%arg30, %58) : (!adf.plio<In, 128>, memref<32x32xf32, 2>)
    adf.connect(%988, %59) : (memref<32x32xf32, 2>, memref<32x32xf32, 2>)
    %989 = call @kernel_gemm(%57, %58, %59) {adf.kernel, "col, row" = [4 : index, 5 : index], ivs = [1 : index, 5 : index, 0 : index], kernel_gemm = 21 : index} : (memref<32x32xf32, 2>, memref<32x32xf32, 2>, memref<32x32xf32, 2>) -> memref<32x32xf32, 2>
    adf.buffer.location(%989, %c5, %c5, %c16384, %c24576) : (memref<32x32xf32, 2>, index, index, index, index)
    adf.buffer.location(%58, %c4, %c6, %c0, %c8192) : (memref<32x32xf32, 2>, index, index, index, index)
    adf.buffer.location(%57, %c4, %c4, %c4096, %c12288) : (memref<32x32xf32, 2>, index, index, index, index)
    adf.connect(%arg4, %60) : (!adf.plio<In, 128>, memref<32x32xf32, 2>)
    adf.connect(%arg31, %61) : (!adf.plio<In, 128>, memref<32x32xf32, 2>)
    adf.connect(%989, %62) : (memref<32x32xf32, 2>, memref<32x32xf32, 2>)
    %990 = call @kernel_gemm(%60, %61, %62) {adf.kernel, "col, row" = [5 : index, 5 : index], ivs = [2 : index, 5 : index, 0 : index], kernel_gemm = 22 : index} : (memref<32x32xf32, 2>, memref<32x32xf32, 2>, memref<32x32xf32, 2>) -> memref<32x32xf32, 2>
    adf.buffer.location(%990, %c6, %c5, %c16384, %c24576) : (memref<32x32xf32, 2>, index, index, index, index)
    adf.buffer.location(%61, %c5, %c6, %c0, %c8192) : (memref<32x32xf32, 2>, index, index, index, index)
    adf.buffer.location(%60, %c5, %c4, %c4096, %c12288) : (memref<32x32xf32, 2>, index, index, index, index)
    adf.connect(%arg6, %63) : (!adf.plio<In, 128>, memref<32x32xf32, 2>)
    adf.connect(%arg32, %64) : (!adf.plio<In, 128>, memref<32x32xf32, 2>)
    adf.connect(%990, %65) : (memref<32x32xf32, 2>, memref<32x32xf32, 2>)
    %991 = call @kernel_gemm(%63, %64, %65) {adf.kernel, "col, row" = [6 : index, 5 : index], ivs = [3 : index, 5 : index, 0 : index], kernel_gemm = 23 : index} : (memref<32x32xf32, 2>, memref<32x32xf32, 2>, memref<32x32xf32, 2>) -> memref<32x32xf32, 2>
    adf.buffer.location(%991, %c7, %c5, %c0, %c8192) : (memref<32x32xf32, 2>, index, index, index, index)
    adf.buffer.location(%64, %c6, %c6, %c0, %c8192) : (memref<32x32xf32, 2>, index, index, index, index)
    adf.buffer.location(%63, %c6, %c4, %c4096, %c12288) : (memref<32x32xf32, 2>, index, index, index, index)
    adf.connect(%991, %arg33) {write = 3 : index} : (memref<32x32xf32, 2>, !adf.plio<Out, 128>)
    adf.connect(%arg0, %66) : (!adf.plio<In, 128>, memref<32x32xf32, 2>)
    adf.connect(%arg34, %67) : (!adf.plio<In, 128>, memref<32x32xf32, 2>)
    %992 = call @kernel_gemm0(%66, %67) {adf.kernel, "col, row" = [3 : index, 6 : index], ivs = [0 : index, 6 : index, 0 : index], kernel = 0 : index, kernel_gemm0 = 24 : index} : (memref<32x32xf32, 2>, memref<32x32xf32, 2>) -> memref<32x32xf32, 2>
    adf.buffer.location(%992, %c3, %c6, %c16384, %c24576) : (memref<32x32xf32, 2>, index, index, index, index)
    adf.buffer.location(%67, %c3, %c7, %c0, %c8192) : (memref<32x32xf32, 2>, index, index, index, index)
    adf.buffer.location(%66, %c3, %c5, %c16384, %c24576) : (memref<32x32xf32, 2>, index, index, index, index)
    adf.connect(%arg2, %68) : (!adf.plio<In, 128>, memref<32x32xf32, 2>)
    adf.connect(%arg35, %69) : (!adf.plio<In, 128>, memref<32x32xf32, 2>)
    adf.connect(%992, %70) : (memref<32x32xf32, 2>, memref<32x32xf32, 2>)
    %993 = call @kernel_gemm(%68, %69, %70) {adf.kernel, "col, row" = [4 : index, 6 : index], ivs = [1 : index, 6 : index, 0 : index], kernel_gemm = 25 : index} : (memref<32x32xf32, 2>, memref<32x32xf32, 2>, memref<32x32xf32, 2>) -> memref<32x32xf32, 2>
    adf.buffer.location(%993, %c4, %c6, %c16384, %c24576) : (memref<32x32xf32, 2>, index, index, index, index)
    adf.buffer.location(%69, %c4, %c7, %c0, %c8192) : (memref<32x32xf32, 2>, index, index, index, index)
    adf.buffer.location(%68, %c4, %c5, %c4096, %c12288) : (memref<32x32xf32, 2>, index, index, index, index)
    adf.connect(%arg4, %71) : (!adf.plio<In, 128>, memref<32x32xf32, 2>)
    adf.connect(%arg36, %72) : (!adf.plio<In, 128>, memref<32x32xf32, 2>)
    adf.connect(%993, %73) : (memref<32x32xf32, 2>, memref<32x32xf32, 2>)
    %994 = call @kernel_gemm(%71, %72, %73) {adf.kernel, "col, row" = [5 : index, 6 : index], ivs = [2 : index, 6 : index, 0 : index], kernel_gemm = 26 : index} : (memref<32x32xf32, 2>, memref<32x32xf32, 2>, memref<32x32xf32, 2>) -> memref<32x32xf32, 2>
    adf.buffer.location(%994, %c5, %c6, %c16384, %c24576) : (memref<32x32xf32, 2>, index, index, index, index)
    adf.buffer.location(%72, %c5, %c7, %c0, %c8192) : (memref<32x32xf32, 2>, index, index, index, index)
    adf.buffer.location(%71, %c5, %c5, %c4096, %c12288) : (memref<32x32xf32, 2>, index, index, index, index)
    adf.connect(%arg6, %74) : (!adf.plio<In, 128>, memref<32x32xf32, 2>)
    adf.connect(%arg37, %75) : (!adf.plio<In, 128>, memref<32x32xf32, 2>)
    adf.connect(%994, %76) : (memref<32x32xf32, 2>, memref<32x32xf32, 2>)
    %995 = call @kernel_gemm(%74, %75, %76) {adf.kernel, "col, row" = [6 : index, 6 : index], ivs = [3 : index, 6 : index, 0 : index], kernel_gemm = 27 : index} : (memref<32x32xf32, 2>, memref<32x32xf32, 2>, memref<32x32xf32, 2>) -> memref<32x32xf32, 2>
    adf.buffer.location(%995, %c6, %c6, %c16384, %c24576) : (memref<32x32xf32, 2>, index, index, index, index)
    adf.buffer.location(%75, %c6, %c7, %c0, %c8192) : (memref<32x32xf32, 2>, index, index, index, index)
    adf.buffer.location(%74, %c6, %c5, %c4096, %c12288) : (memref<32x32xf32, 2>, index, index, index, index)
    adf.connect(%995, %arg38) {write = 3 : index} : (memref<32x32xf32, 2>, !adf.plio<Out, 128>)
    adf.connect(%arg0, %77) : (!adf.plio<In, 128>, memref<32x32xf32, 2>)
    adf.connect(%arg39, %78) : (!adf.plio<In, 128>, memref<32x32xf32, 2>)
    %996 = call @kernel_gemm0(%77, %78) {adf.kernel, "col, row" = [3 : index, 7 : index], ivs = [0 : index, 7 : index, 0 : index], kernel = 0 : index, kernel_gemm0 = 28 : index} : (memref<32x32xf32, 2>, memref<32x32xf32, 2>) -> memref<32x32xf32, 2>
    adf.buffer.location(%996, %c4, %c7, %c16384, %c24576) : (memref<32x32xf32, 2>, index, index, index, index)
    adf.buffer.location(%78, %c3, %c7, %c16384, %c24576) : (memref<32x32xf32, 2>, index, index, index, index)
    adf.buffer.location(%77, %c3, %c6, %c4096, %c12288) : (memref<32x32xf32, 2>, index, index, index, index)
    adf.connect(%arg2, %79) : (!adf.plio<In, 128>, memref<32x32xf32, 2>)
    adf.connect(%arg40, %80) : (!adf.plio<In, 128>, memref<32x32xf32, 2>)
    adf.connect(%996, %81) : (memref<32x32xf32, 2>, memref<32x32xf32, 2>)
    %997 = call @kernel_gemm(%79, %80, %81) {adf.kernel, "col, row" = [4 : index, 7 : index], ivs = [1 : index, 7 : index, 0 : index], kernel_gemm = 29 : index} : (memref<32x32xf32, 2>, memref<32x32xf32, 2>, memref<32x32xf32, 2>) -> memref<32x32xf32, 2>
    adf.buffer.location(%997, %c5, %c7, %c16384, %c24576) : (memref<32x32xf32, 2>, index, index, index, index)
    adf.buffer.location(%80, %c4, %c7, %c4096, %c12288) : (memref<32x32xf32, 2>, index, index, index, index)
    adf.buffer.location(%79, %c4, %c6, %c4096, %c12288) : (memref<32x32xf32, 2>, index, index, index, index)
    adf.connect(%arg4, %82) : (!adf.plio<In, 128>, memref<32x32xf32, 2>)
    adf.connect(%arg41, %83) : (!adf.plio<In, 128>, memref<32x32xf32, 2>)
    adf.connect(%997, %84) : (memref<32x32xf32, 2>, memref<32x32xf32, 2>)
    %998 = call @kernel_gemm(%82, %83, %84) {adf.kernel, "col, row" = [5 : index, 7 : index], ivs = [2 : index, 7 : index, 0 : index], kernel_gemm = 30 : index} : (memref<32x32xf32, 2>, memref<32x32xf32, 2>, memref<32x32xf32, 2>) -> memref<32x32xf32, 2>
    adf.buffer.location(%998, %c6, %c7, %c16384, %c24576) : (memref<32x32xf32, 2>, index, index, index, index)
    adf.buffer.location(%83, %c5, %c7, %c4096, %c12288) : (memref<32x32xf32, 2>, index, index, index, index)
    adf.buffer.location(%82, %c5, %c6, %c4096, %c12288) : (memref<32x32xf32, 2>, index, index, index, index)
    adf.connect(%arg6, %85) : (!adf.plio<In, 128>, memref<32x32xf32, 2>)
    adf.connect(%arg42, %86) : (!adf.plio<In, 128>, memref<32x32xf32, 2>)
    adf.connect(%998, %87) : (memref<32x32xf32, 2>, memref<32x32xf32, 2>)
    %999 = call @kernel_gemm(%85, %86, %87) {adf.kernel, "col, row" = [6 : index, 7 : index], ivs = [3 : index, 7 : index, 0 : index], kernel_gemm = 31 : index} : (memref<32x32xf32, 2>, memref<32x32xf32, 2>, memref<32x32xf32, 2>) -> memref<32x32xf32, 2>
    adf.buffer.location(%999, %c7, %c7, %c0, %c8192) : (memref<32x32xf32, 2>, index, index, index, index)
    adf.buffer.location(%86, %c6, %c7, %c4096, %c12288) : (memref<32x32xf32, 2>, index, index, index, index)
    adf.buffer.location(%85, %c6, %c6, %c4096, %c12288) : (memref<32x32xf32, 2>, index, index, index, index)
    adf.connect(%999, %arg43) {write = 3 : index} : (memref<32x32xf32, 2>, !adf.plio<Out, 128>)
    adf.connect(%arg44, %88) : (!adf.plio<In, 128>, memref<32x32xf32, 2>)
    adf.connect(%arg1, %89) : (!adf.plio<In, 128>, memref<32x32xf32, 2>)
    %1000 = call @kernel_gemm0(%88, %89) {adf.kernel, "col, row" = [7 : index, 0 : index], ivs = [0 : index, 0 : index, 1 : index], kernel = 0 : index, kernel_gemm0 = 32 : index} : (memref<32x32xf32, 2>, memref<32x32xf32, 2>) -> memref<32x32xf32, 2>
    adf.buffer.location(%1000, %c7, %c0, %c0, %c8192) : (memref<32x32xf32, 2>, index, index, index, index)
    adf.buffer.location(%89, %c6, %c0, %c4096, %c12288) : (memref<32x32xf32, 2>, index, index, index, index)
    adf.buffer.location(%88, %c7, %c1, %c16384, %c24576) : (memref<32x32xf32, 2>, index, index, index, index)
    adf.connect(%arg45, %90) : (!adf.plio<In, 128>, memref<32x32xf32, 2>)
    adf.connect(%arg3, %91) : (!adf.plio<In, 128>, memref<32x32xf32, 2>)
    adf.connect(%1000, %92) : (memref<32x32xf32, 2>, memref<32x32xf32, 2>)
    %1001 = call @kernel_gemm(%90, %91, %92) {adf.kernel, "col, row" = [8 : index, 0 : index], ivs = [1 : index, 0 : index, 1 : index], kernel_gemm = 33 : index} : (memref<32x32xf32, 2>, memref<32x32xf32, 2>, memref<32x32xf32, 2>) -> memref<32x32xf32, 2>
    adf.buffer.location(%1001, %c8, %c0, %c0, %c8192) : (memref<32x32xf32, 2>, index, index, index, index)
    adf.buffer.location(%91, %c7, %c0, %c16384, %c24576) : (memref<32x32xf32, 2>, index, index, index, index)
    adf.buffer.location(%90, %c8, %c1, %c0, %c8192) : (memref<32x32xf32, 2>, index, index, index, index)
    adf.connect(%arg46, %93) : (!adf.plio<In, 128>, memref<32x32xf32, 2>)
    adf.connect(%arg5, %94) : (!adf.plio<In, 128>, memref<32x32xf32, 2>)
    adf.connect(%1001, %95) : (memref<32x32xf32, 2>, memref<32x32xf32, 2>)
    %1002 = call @kernel_gemm(%93, %94, %95) {adf.kernel, "col, row" = [9 : index, 0 : index], ivs = [2 : index, 0 : index, 1 : index], kernel_gemm = 34 : index} : (memref<32x32xf32, 2>, memref<32x32xf32, 2>, memref<32x32xf32, 2>) -> memref<32x32xf32, 2>
    adf.buffer.location(%1002, %c9, %c0, %c0, %c8192) : (memref<32x32xf32, 2>, index, index, index, index)
    adf.buffer.location(%94, %c8, %c0, %c16384, %c24576) : (memref<32x32xf32, 2>, index, index, index, index)
    adf.buffer.location(%93, %c9, %c1, %c0, %c8192) : (memref<32x32xf32, 2>, index, index, index, index)
    adf.connect(%arg47, %96) : (!adf.plio<In, 128>, memref<32x32xf32, 2>)
    adf.connect(%arg7, %97) : (!adf.plio<In, 128>, memref<32x32xf32, 2>)
    adf.connect(%1002, %98) : (memref<32x32xf32, 2>, memref<32x32xf32, 2>)
    %1003 = call @kernel_gemm(%96, %97, %98) {adf.kernel, "col, row" = [10 : index, 0 : index], ivs = [3 : index, 0 : index, 1 : index], kernel_gemm = 35 : index} : (memref<32x32xf32, 2>, memref<32x32xf32, 2>, memref<32x32xf32, 2>) -> memref<32x32xf32, 2>
    adf.buffer.location(%1003, %c10, %c0, %c0, %c8192) : (memref<32x32xf32, 2>, index, index, index, index)
    adf.buffer.location(%97, %c9, %c0, %c16384, %c24576) : (memref<32x32xf32, 2>, index, index, index, index)
    adf.buffer.location(%96, %c10, %c1, %c0, %c8192) : (memref<32x32xf32, 2>, index, index, index, index)
    adf.connect(%1003, %arg48) {write = 3 : index} : (memref<32x32xf32, 2>, !adf.plio<Out, 128>)
    adf.connect(%arg44, %99) : (!adf.plio<In, 128>, memref<32x32xf32, 2>)
    adf.connect(%arg9, %100) : (!adf.plio<In, 128>, memref<32x32xf32, 2>)
    %1004 = call @kernel_gemm0(%99, %100) {adf.kernel, "col, row" = [7 : index, 1 : index], ivs = [0 : index, 1 : index, 1 : index], kernel = 0 : index, kernel_gemm0 = 36 : index} : (memref<32x32xf32, 2>, memref<32x32xf32, 2>) -> memref<32x32xf32, 2>
    adf.buffer.location(%1004, %c8, %c1, %c16384, %c24576) : (memref<32x32xf32, 2>, index, index, index, index)
    adf.buffer.location(%100, %c7, %c2, %c0, %c8192) : (memref<32x32xf32, 2>, index, index, index, index)
    adf.buffer.location(%99, %c7, %c0, %c4096, %c12288) : (memref<32x32xf32, 2>, index, index, index, index)
    adf.connect(%arg45, %101) : (!adf.plio<In, 128>, memref<32x32xf32, 2>)
    adf.connect(%arg10, %102) : (!adf.plio<In, 128>, memref<32x32xf32, 2>)
    adf.connect(%1004, %103) : (memref<32x32xf32, 2>, memref<32x32xf32, 2>)
    %1005 = call @kernel_gemm(%101, %102, %103) {adf.kernel, "col, row" = [8 : index, 1 : index], ivs = [1 : index, 1 : index, 1 : index], kernel_gemm = 37 : index} : (memref<32x32xf32, 2>, memref<32x32xf32, 2>, memref<32x32xf32, 2>) -> memref<32x32xf32, 2>
    adf.buffer.location(%1005, %c9, %c1, %c16384, %c24576) : (memref<32x32xf32, 2>, index, index, index, index)
    adf.buffer.location(%102, %c8, %c2, %c0, %c8192) : (memref<32x32xf32, 2>, index, index, index, index)
    adf.buffer.location(%101, %c8, %c0, %c4096, %c12288) : (memref<32x32xf32, 2>, index, index, index, index)
    adf.connect(%arg46, %104) : (!adf.plio<In, 128>, memref<32x32xf32, 2>)
    adf.connect(%arg11, %105) : (!adf.plio<In, 128>, memref<32x32xf32, 2>)
    adf.connect(%1005, %106) : (memref<32x32xf32, 2>, memref<32x32xf32, 2>)
    %1006 = call @kernel_gemm(%104, %105, %106) {adf.kernel, "col, row" = [9 : index, 1 : index], ivs = [2 : index, 1 : index, 1 : index], kernel_gemm = 38 : index} : (memref<32x32xf32, 2>, memref<32x32xf32, 2>, memref<32x32xf32, 2>) -> memref<32x32xf32, 2>
    adf.buffer.location(%1006, %c10, %c1, %c16384, %c24576) : (memref<32x32xf32, 2>, index, index, index, index)
    adf.buffer.location(%105, %c9, %c2, %c0, %c8192) : (memref<32x32xf32, 2>, index, index, index, index)
    adf.buffer.location(%104, %c9, %c0, %c4096, %c12288) : (memref<32x32xf32, 2>, index, index, index, index)
    adf.connect(%arg47, %107) : (!adf.plio<In, 128>, memref<32x32xf32, 2>)
    adf.connect(%arg12, %108) : (!adf.plio<In, 128>, memref<32x32xf32, 2>)
    adf.connect(%1006, %109) : (memref<32x32xf32, 2>, memref<32x32xf32, 2>)
    %1007 = call @kernel_gemm(%107, %108, %109) {adf.kernel, "col, row" = [10 : index, 1 : index], ivs = [3 : index, 1 : index, 1 : index], kernel_gemm = 39 : index} : (memref<32x32xf32, 2>, memref<32x32xf32, 2>, memref<32x32xf32, 2>) -> memref<32x32xf32, 2>
    adf.buffer.location(%1007, %c11, %c1, %c0, %c8192) : (memref<32x32xf32, 2>, index, index, index, index)
    adf.buffer.location(%108, %c10, %c2, %c0, %c8192) : (memref<32x32xf32, 2>, index, index, index, index)
    adf.buffer.location(%107, %c10, %c0, %c16384, %c24576) : (memref<32x32xf32, 2>, index, index, index, index)
    adf.connect(%1007, %arg49) {write = 3 : index} : (memref<32x32xf32, 2>, !adf.plio<Out, 128>)
    adf.connect(%arg44, %110) : (!adf.plio<In, 128>, memref<32x32xf32, 2>)
    adf.connect(%arg14, %111) : (!adf.plio<In, 128>, memref<32x32xf32, 2>)
    %1008 = call @kernel_gemm0(%110, %111) {adf.kernel, "col, row" = [7 : index, 2 : index], ivs = [0 : index, 2 : index, 1 : index], kernel = 0 : index, kernel_gemm0 = 40 : index} : (memref<32x32xf32, 2>, memref<32x32xf32, 2>) -> memref<32x32xf32, 2>
    adf.buffer.location(%1008, %c7, %c2, %c16384, %c24576) : (memref<32x32xf32, 2>, index, index, index, index)
    adf.buffer.location(%111, %c7, %c3, %c16384, %c24576) : (memref<32x32xf32, 2>, index, index, index, index)
    adf.buffer.location(%110, %c7, %c1, %c4096, %c12288) : (memref<32x32xf32, 2>, index, index, index, index)
    adf.connect(%arg45, %112) : (!adf.plio<In, 128>, memref<32x32xf32, 2>)
    adf.connect(%arg15, %113) : (!adf.plio<In, 128>, memref<32x32xf32, 2>)
    adf.connect(%1008, %114) : (memref<32x32xf32, 2>, memref<32x32xf32, 2>)
    %1009 = call @kernel_gemm(%112, %113, %114) {adf.kernel, "col, row" = [8 : index, 2 : index], ivs = [1 : index, 2 : index, 1 : index], kernel_gemm = 41 : index} : (memref<32x32xf32, 2>, memref<32x32xf32, 2>, memref<32x32xf32, 2>) -> memref<32x32xf32, 2>
    adf.buffer.location(%1009, %c8, %c2, %c16384, %c24576) : (memref<32x32xf32, 2>, index, index, index, index)
    adf.buffer.location(%113, %c8, %c3, %c0, %c8192) : (memref<32x32xf32, 2>, index, index, index, index)
    adf.buffer.location(%112, %c8, %c1, %c4096, %c12288) : (memref<32x32xf32, 2>, index, index, index, index)
    adf.connect(%arg46, %115) : (!adf.plio<In, 128>, memref<32x32xf32, 2>)
    adf.connect(%arg16, %116) : (!adf.plio<In, 128>, memref<32x32xf32, 2>)
    adf.connect(%1009, %117) : (memref<32x32xf32, 2>, memref<32x32xf32, 2>)
    %1010 = call @kernel_gemm(%115, %116, %117) {adf.kernel, "col, row" = [9 : index, 2 : index], ivs = [2 : index, 2 : index, 1 : index], kernel_gemm = 42 : index} : (memref<32x32xf32, 2>, memref<32x32xf32, 2>, memref<32x32xf32, 2>) -> memref<32x32xf32, 2>
    adf.buffer.location(%1010, %c9, %c2, %c16384, %c24576) : (memref<32x32xf32, 2>, index, index, index, index)
    adf.buffer.location(%116, %c9, %c3, %c0, %c8192) : (memref<32x32xf32, 2>, index, index, index, index)
    adf.buffer.location(%115, %c9, %c1, %c4096, %c12288) : (memref<32x32xf32, 2>, index, index, index, index)
    adf.connect(%arg47, %118) : (!adf.plio<In, 128>, memref<32x32xf32, 2>)
    adf.connect(%arg17, %119) : (!adf.plio<In, 128>, memref<32x32xf32, 2>)
    adf.connect(%1010, %120) : (memref<32x32xf32, 2>, memref<32x32xf32, 2>)
    %1011 = call @kernel_gemm(%118, %119, %120) {adf.kernel, "col, row" = [10 : index, 2 : index], ivs = [3 : index, 2 : index, 1 : index], kernel_gemm = 43 : index} : (memref<32x32xf32, 2>, memref<32x32xf32, 2>, memref<32x32xf32, 2>) -> memref<32x32xf32, 2>
    adf.buffer.location(%1011, %c10, %c2, %c16384, %c24576) : (memref<32x32xf32, 2>, index, index, index, index)
    adf.buffer.location(%119, %c10, %c3, %c0, %c8192) : (memref<32x32xf32, 2>, index, index, index, index)
    adf.buffer.location(%118, %c10, %c1, %c4096, %c12288) : (memref<32x32xf32, 2>, index, index, index, index)
    adf.connect(%1011, %arg50) {write = 3 : index} : (memref<32x32xf32, 2>, !adf.plio<Out, 128>)
    adf.connect(%arg44, %121) : (!adf.plio<In, 128>, memref<32x32xf32, 2>)
    adf.connect(%arg19, %122) : (!adf.plio<In, 128>, memref<32x32xf32, 2>)
    %1012 = call @kernel_gemm0(%121, %122) {adf.kernel, "col, row" = [7 : index, 3 : index], ivs = [0 : index, 3 : index, 1 : index], kernel = 0 : index, kernel_gemm0 = 44 : index} : (memref<32x32xf32, 2>, memref<32x32xf32, 2>) -> memref<32x32xf32, 2>
    adf.buffer.location(%1012, %c8, %c3, %c16384, %c24576) : (memref<32x32xf32, 2>, index, index, index, index)
    adf.buffer.location(%122, %c7, %c4, %c0, %c8192) : (memref<32x32xf32, 2>, index, index, index, index)
    adf.buffer.location(%121, %c7, %c2, %c4096, %c12288) : (memref<32x32xf32, 2>, index, index, index, index)
    adf.connect(%arg45, %123) : (!adf.plio<In, 128>, memref<32x32xf32, 2>)
    adf.connect(%arg20, %124) : (!adf.plio<In, 128>, memref<32x32xf32, 2>)
    adf.connect(%1012, %125) : (memref<32x32xf32, 2>, memref<32x32xf32, 2>)
    %1013 = call @kernel_gemm(%123, %124, %125) {adf.kernel, "col, row" = [8 : index, 3 : index], ivs = [1 : index, 3 : index, 1 : index], kernel_gemm = 45 : index} : (memref<32x32xf32, 2>, memref<32x32xf32, 2>, memref<32x32xf32, 2>) -> memref<32x32xf32, 2>
    adf.buffer.location(%1013, %c9, %c3, %c16384, %c24576) : (memref<32x32xf32, 2>, index, index, index, index)
    adf.buffer.location(%124, %c8, %c4, %c0, %c8192) : (memref<32x32xf32, 2>, index, index, index, index)
    adf.buffer.location(%123, %c8, %c2, %c4096, %c12288) : (memref<32x32xf32, 2>, index, index, index, index)
    adf.connect(%arg46, %126) : (!adf.plio<In, 128>, memref<32x32xf32, 2>)
    adf.connect(%arg21, %127) : (!adf.plio<In, 128>, memref<32x32xf32, 2>)
    adf.connect(%1013, %128) : (memref<32x32xf32, 2>, memref<32x32xf32, 2>)
    %1014 = call @kernel_gemm(%126, %127, %128) {adf.kernel, "col, row" = [9 : index, 3 : index], ivs = [2 : index, 3 : index, 1 : index], kernel_gemm = 46 : index} : (memref<32x32xf32, 2>, memref<32x32xf32, 2>, memref<32x32xf32, 2>) -> memref<32x32xf32, 2>
    adf.buffer.location(%1014, %c10, %c3, %c16384, %c24576) : (memref<32x32xf32, 2>, index, index, index, index)
    adf.buffer.location(%127, %c9, %c4, %c0, %c8192) : (memref<32x32xf32, 2>, index, index, index, index)
    adf.buffer.location(%126, %c9, %c2, %c4096, %c12288) : (memref<32x32xf32, 2>, index, index, index, index)
    adf.connect(%arg47, %129) : (!adf.plio<In, 128>, memref<32x32xf32, 2>)
    adf.connect(%arg22, %130) : (!adf.plio<In, 128>, memref<32x32xf32, 2>)
    adf.connect(%1014, %131) : (memref<32x32xf32, 2>, memref<32x32xf32, 2>)
    %1015 = call @kernel_gemm(%129, %130, %131) {adf.kernel, "col, row" = [10 : index, 3 : index], ivs = [3 : index, 3 : index, 1 : index], kernel_gemm = 47 : index} : (memref<32x32xf32, 2>, memref<32x32xf32, 2>, memref<32x32xf32, 2>) -> memref<32x32xf32, 2>
    adf.buffer.location(%1015, %c11, %c3, %c0, %c8192) : (memref<32x32xf32, 2>, index, index, index, index)
    adf.buffer.location(%130, %c10, %c4, %c0, %c8192) : (memref<32x32xf32, 2>, index, index, index, index)
    adf.buffer.location(%129, %c10, %c2, %c4096, %c12288) : (memref<32x32xf32, 2>, index, index, index, index)
    adf.connect(%1015, %arg51) {write = 3 : index} : (memref<32x32xf32, 2>, !adf.plio<Out, 128>)
    adf.connect(%arg44, %132) : (!adf.plio<In, 128>, memref<32x32xf32, 2>)
    adf.connect(%arg24, %133) : (!adf.plio<In, 128>, memref<32x32xf32, 2>)
    %1016 = call @kernel_gemm0(%132, %133) {adf.kernel, "col, row" = [7 : index, 4 : index], ivs = [0 : index, 4 : index, 1 : index], kernel = 0 : index, kernel_gemm0 = 48 : index} : (memref<32x32xf32, 2>, memref<32x32xf32, 2>) -> memref<32x32xf32, 2>
    adf.buffer.location(%1016, %c7, %c4, %c16384, %c24576) : (memref<32x32xf32, 2>, index, index, index, index)
    adf.buffer.location(%133, %c7, %c5, %c16384, %c24576) : (memref<32x32xf32, 2>, index, index, index, index)
    adf.buffer.location(%132, %c7, %c3, %c4096, %c12288) : (memref<32x32xf32, 2>, index, index, index, index)
    adf.connect(%arg45, %134) : (!adf.plio<In, 128>, memref<32x32xf32, 2>)
    adf.connect(%arg25, %135) : (!adf.plio<In, 128>, memref<32x32xf32, 2>)
    adf.connect(%1016, %136) : (memref<32x32xf32, 2>, memref<32x32xf32, 2>)
    %1017 = call @kernel_gemm(%134, %135, %136) {adf.kernel, "col, row" = [8 : index, 4 : index], ivs = [1 : index, 4 : index, 1 : index], kernel_gemm = 49 : index} : (memref<32x32xf32, 2>, memref<32x32xf32, 2>, memref<32x32xf32, 2>) -> memref<32x32xf32, 2>
    adf.buffer.location(%1017, %c8, %c4, %c16384, %c24576) : (memref<32x32xf32, 2>, index, index, index, index)
    adf.buffer.location(%135, %c8, %c5, %c0, %c8192) : (memref<32x32xf32, 2>, index, index, index, index)
    adf.buffer.location(%134, %c8, %c3, %c4096, %c12288) : (memref<32x32xf32, 2>, index, index, index, index)
    adf.connect(%arg46, %137) : (!adf.plio<In, 128>, memref<32x32xf32, 2>)
    adf.connect(%arg26, %138) : (!adf.plio<In, 128>, memref<32x32xf32, 2>)
    adf.connect(%1017, %139) : (memref<32x32xf32, 2>, memref<32x32xf32, 2>)
    %1018 = call @kernel_gemm(%137, %138, %139) {adf.kernel, "col, row" = [9 : index, 4 : index], ivs = [2 : index, 4 : index, 1 : index], kernel_gemm = 50 : index} : (memref<32x32xf32, 2>, memref<32x32xf32, 2>, memref<32x32xf32, 2>) -> memref<32x32xf32, 2>
    adf.buffer.location(%1018, %c9, %c4, %c16384, %c24576) : (memref<32x32xf32, 2>, index, index, index, index)
    adf.buffer.location(%138, %c9, %c5, %c0, %c8192) : (memref<32x32xf32, 2>, index, index, index, index)
    adf.buffer.location(%137, %c9, %c3, %c4096, %c12288) : (memref<32x32xf32, 2>, index, index, index, index)
    adf.connect(%arg47, %140) : (!adf.plio<In, 128>, memref<32x32xf32, 2>)
    adf.connect(%arg27, %141) : (!adf.plio<In, 128>, memref<32x32xf32, 2>)
    adf.connect(%1018, %142) : (memref<32x32xf32, 2>, memref<32x32xf32, 2>)
    %1019 = call @kernel_gemm(%140, %141, %142) {adf.kernel, "col, row" = [10 : index, 4 : index], ivs = [3 : index, 4 : index, 1 : index], kernel_gemm = 51 : index} : (memref<32x32xf32, 2>, memref<32x32xf32, 2>, memref<32x32xf32, 2>) -> memref<32x32xf32, 2>
    adf.buffer.location(%1019, %c10, %c4, %c16384, %c24576) : (memref<32x32xf32, 2>, index, index, index, index)
    adf.buffer.location(%141, %c10, %c5, %c0, %c8192) : (memref<32x32xf32, 2>, index, index, index, index)
    adf.buffer.location(%140, %c10, %c3, %c4096, %c12288) : (memref<32x32xf32, 2>, index, index, index, index)
    adf.connect(%1019, %arg52) {write = 3 : index} : (memref<32x32xf32, 2>, !adf.plio<Out, 128>)
    adf.connect(%arg44, %143) : (!adf.plio<In, 128>, memref<32x32xf32, 2>)
    adf.connect(%arg29, %144) : (!adf.plio<In, 128>, memref<32x32xf32, 2>)
    %1020 = call @kernel_gemm0(%143, %144) {adf.kernel, "col, row" = [7 : index, 5 : index], ivs = [0 : index, 5 : index, 1 : index], kernel = 0 : index, kernel_gemm0 = 52 : index} : (memref<32x32xf32, 2>, memref<32x32xf32, 2>) -> memref<32x32xf32, 2>
    adf.buffer.location(%1020, %c8, %c5, %c16384, %c24576) : (memref<32x32xf32, 2>, index, index, index, index)
    adf.buffer.location(%144, %c7, %c6, %c0, %c8192) : (memref<32x32xf32, 2>, index, index, index, index)
    adf.buffer.location(%143, %c7, %c4, %c4096, %c12288) : (memref<32x32xf32, 2>, index, index, index, index)
    adf.connect(%arg45, %145) : (!adf.plio<In, 128>, memref<32x32xf32, 2>)
    adf.connect(%arg30, %146) : (!adf.plio<In, 128>, memref<32x32xf32, 2>)
    adf.connect(%1020, %147) : (memref<32x32xf32, 2>, memref<32x32xf32, 2>)
    %1021 = call @kernel_gemm(%145, %146, %147) {adf.kernel, "col, row" = [8 : index, 5 : index], ivs = [1 : index, 5 : index, 1 : index], kernel_gemm = 53 : index} : (memref<32x32xf32, 2>, memref<32x32xf32, 2>, memref<32x32xf32, 2>) -> memref<32x32xf32, 2>
    adf.buffer.location(%1021, %c9, %c5, %c16384, %c24576) : (memref<32x32xf32, 2>, index, index, index, index)
    adf.buffer.location(%146, %c8, %c6, %c0, %c8192) : (memref<32x32xf32, 2>, index, index, index, index)
    adf.buffer.location(%145, %c8, %c4, %c4096, %c12288) : (memref<32x32xf32, 2>, index, index, index, index)
    adf.connect(%arg46, %148) : (!adf.plio<In, 128>, memref<32x32xf32, 2>)
    adf.connect(%arg31, %149) : (!adf.plio<In, 128>, memref<32x32xf32, 2>)
    adf.connect(%1021, %150) : (memref<32x32xf32, 2>, memref<32x32xf32, 2>)
    %1022 = call @kernel_gemm(%148, %149, %150) {adf.kernel, "col, row" = [9 : index, 5 : index], ivs = [2 : index, 5 : index, 1 : index], kernel_gemm = 54 : index} : (memref<32x32xf32, 2>, memref<32x32xf32, 2>, memref<32x32xf32, 2>) -> memref<32x32xf32, 2>
    adf.buffer.location(%1022, %c10, %c5, %c16384, %c24576) : (memref<32x32xf32, 2>, index, index, index, index)
    adf.buffer.location(%149, %c9, %c6, %c0, %c8192) : (memref<32x32xf32, 2>, index, index, index, index)
    adf.buffer.location(%148, %c9, %c4, %c4096, %c12288) : (memref<32x32xf32, 2>, index, index, index, index)
    adf.connect(%arg47, %151) : (!adf.plio<In, 128>, memref<32x32xf32, 2>)
    adf.connect(%arg32, %152) : (!adf.plio<In, 128>, memref<32x32xf32, 2>)
    adf.connect(%1022, %153) : (memref<32x32xf32, 2>, memref<32x32xf32, 2>)
    %1023 = call @kernel_gemm(%151, %152, %153) {adf.kernel, "col, row" = [10 : index, 5 : index], ivs = [3 : index, 5 : index, 1 : index], kernel_gemm = 55 : index} : (memref<32x32xf32, 2>, memref<32x32xf32, 2>, memref<32x32xf32, 2>) -> memref<32x32xf32, 2>
    adf.buffer.location(%1023, %c11, %c5, %c0, %c8192) : (memref<32x32xf32, 2>, index, index, index, index)
    adf.buffer.location(%152, %c10, %c6, %c0, %c8192) : (memref<32x32xf32, 2>, index, index, index, index)
    adf.buffer.location(%151, %c10, %c4, %c4096, %c12288) : (memref<32x32xf32, 2>, index, index, index, index)
    adf.connect(%1023, %arg53) {write = 3 : index} : (memref<32x32xf32, 2>, !adf.plio<Out, 128>)
    adf.connect(%arg44, %154) : (!adf.plio<In, 128>, memref<32x32xf32, 2>)
    adf.connect(%arg34, %155) : (!adf.plio<In, 128>, memref<32x32xf32, 2>)
    %1024 = call @kernel_gemm0(%154, %155) {adf.kernel, "col, row" = [7 : index, 6 : index], ivs = [0 : index, 6 : index, 1 : index], kernel = 0 : index, kernel_gemm0 = 56 : index} : (memref<32x32xf32, 2>, memref<32x32xf32, 2>) -> memref<32x32xf32, 2>
    adf.buffer.location(%1024, %c7, %c6, %c16384, %c24576) : (memref<32x32xf32, 2>, index, index, index, index)
    adf.buffer.location(%155, %c7, %c7, %c16384, %c24576) : (memref<32x32xf32, 2>, index, index, index, index)
    adf.buffer.location(%154, %c7, %c5, %c4096, %c12288) : (memref<32x32xf32, 2>, index, index, index, index)
    adf.connect(%arg45, %156) : (!adf.plio<In, 128>, memref<32x32xf32, 2>)
    adf.connect(%arg35, %157) : (!adf.plio<In, 128>, memref<32x32xf32, 2>)
    adf.connect(%1024, %158) : (memref<32x32xf32, 2>, memref<32x32xf32, 2>)
    %1025 = call @kernel_gemm(%156, %157, %158) {adf.kernel, "col, row" = [8 : index, 6 : index], ivs = [1 : index, 6 : index, 1 : index], kernel_gemm = 57 : index} : (memref<32x32xf32, 2>, memref<32x32xf32, 2>, memref<32x32xf32, 2>) -> memref<32x32xf32, 2>
    adf.buffer.location(%1025, %c8, %c6, %c16384, %c24576) : (memref<32x32xf32, 2>, index, index, index, index)
    adf.buffer.location(%157, %c8, %c7, %c0, %c8192) : (memref<32x32xf32, 2>, index, index, index, index)
    adf.buffer.location(%156, %c8, %c5, %c4096, %c12288) : (memref<32x32xf32, 2>, index, index, index, index)
    adf.connect(%arg46, %159) : (!adf.plio<In, 128>, memref<32x32xf32, 2>)
    adf.connect(%arg36, %160) : (!adf.plio<In, 128>, memref<32x32xf32, 2>)
    adf.connect(%1025, %161) : (memref<32x32xf32, 2>, memref<32x32xf32, 2>)
    %1026 = call @kernel_gemm(%159, %160, %161) {adf.kernel, "col, row" = [9 : index, 6 : index], ivs = [2 : index, 6 : index, 1 : index], kernel_gemm = 58 : index} : (memref<32x32xf32, 2>, memref<32x32xf32, 2>, memref<32x32xf32, 2>) -> memref<32x32xf32, 2>
    adf.buffer.location(%1026, %c9, %c6, %c16384, %c24576) : (memref<32x32xf32, 2>, index, index, index, index)
    adf.buffer.location(%160, %c9, %c7, %c0, %c8192) : (memref<32x32xf32, 2>, index, index, index, index)
    adf.buffer.location(%159, %c9, %c5, %c4096, %c12288) : (memref<32x32xf32, 2>, index, index, index, index)
    adf.connect(%arg47, %162) : (!adf.plio<In, 128>, memref<32x32xf32, 2>)
    adf.connect(%arg37, %163) : (!adf.plio<In, 128>, memref<32x32xf32, 2>)
    adf.connect(%1026, %164) : (memref<32x32xf32, 2>, memref<32x32xf32, 2>)
    %1027 = call @kernel_gemm(%162, %163, %164) {adf.kernel, "col, row" = [10 : index, 6 : index], ivs = [3 : index, 6 : index, 1 : index], kernel_gemm = 59 : index} : (memref<32x32xf32, 2>, memref<32x32xf32, 2>, memref<32x32xf32, 2>) -> memref<32x32xf32, 2>
    adf.buffer.location(%1027, %c10, %c6, %c16384, %c24576) : (memref<32x32xf32, 2>, index, index, index, index)
    adf.buffer.location(%163, %c10, %c7, %c0, %c8192) : (memref<32x32xf32, 2>, index, index, index, index)
    adf.buffer.location(%162, %c10, %c5, %c4096, %c12288) : (memref<32x32xf32, 2>, index, index, index, index)
    adf.connect(%1027, %arg54) {write = 3 : index} : (memref<32x32xf32, 2>, !adf.plio<Out, 128>)
    adf.connect(%arg44, %165) : (!adf.plio<In, 128>, memref<32x32xf32, 2>)
    adf.connect(%arg39, %166) : (!adf.plio<In, 128>, memref<32x32xf32, 2>)
    %1028 = call @kernel_gemm0(%165, %166) {adf.kernel, "col, row" = [7 : index, 7 : index], ivs = [0 : index, 7 : index, 1 : index], kernel = 0 : index, kernel_gemm0 = 60 : index} : (memref<32x32xf32, 2>, memref<32x32xf32, 2>) -> memref<32x32xf32, 2>
    adf.buffer.location(%1028, %c8, %c7, %c16384, %c24576) : (memref<32x32xf32, 2>, index, index, index, index)
    adf.buffer.location(%166, %c7, %c7, %c4096, %c12288) : (memref<32x32xf32, 2>, index, index, index, index)
    adf.buffer.location(%165, %c7, %c6, %c4096, %c12288) : (memref<32x32xf32, 2>, index, index, index, index)
    adf.connect(%arg45, %167) : (!adf.plio<In, 128>, memref<32x32xf32, 2>)
    adf.connect(%arg40, %168) : (!adf.plio<In, 128>, memref<32x32xf32, 2>)
    adf.connect(%1028, %169) : (memref<32x32xf32, 2>, memref<32x32xf32, 2>)
    %1029 = call @kernel_gemm(%167, %168, %169) {adf.kernel, "col, row" = [8 : index, 7 : index], ivs = [1 : index, 7 : index, 1 : index], kernel_gemm = 61 : index} : (memref<32x32xf32, 2>, memref<32x32xf32, 2>, memref<32x32xf32, 2>) -> memref<32x32xf32, 2>
    adf.buffer.location(%1029, %c9, %c7, %c16384, %c24576) : (memref<32x32xf32, 2>, index, index, index, index)
    adf.buffer.location(%168, %c8, %c7, %c4096, %c12288) : (memref<32x32xf32, 2>, index, index, index, index)
    adf.buffer.location(%167, %c8, %c6, %c4096, %c12288) : (memref<32x32xf32, 2>, index, index, index, index)
    adf.connect(%arg46, %170) : (!adf.plio<In, 128>, memref<32x32xf32, 2>)
    adf.connect(%arg41, %171) : (!adf.plio<In, 128>, memref<32x32xf32, 2>)
    adf.connect(%1029, %172) : (memref<32x32xf32, 2>, memref<32x32xf32, 2>)
    %1030 = call @kernel_gemm(%170, %171, %172) {adf.kernel, "col, row" = [9 : index, 7 : index], ivs = [2 : index, 7 : index, 1 : index], kernel_gemm = 62 : index} : (memref<32x32xf32, 2>, memref<32x32xf32, 2>, memref<32x32xf32, 2>) -> memref<32x32xf32, 2>
    adf.buffer.location(%1030, %c10, %c7, %c16384, %c24576) : (memref<32x32xf32, 2>, index, index, index, index)
    adf.buffer.location(%171, %c9, %c7, %c4096, %c12288) : (memref<32x32xf32, 2>, index, index, index, index)
    adf.buffer.location(%170, %c9, %c6, %c4096, %c12288) : (memref<32x32xf32, 2>, index, index, index, index)
    adf.connect(%arg47, %173) : (!adf.plio<In, 128>, memref<32x32xf32, 2>)
    adf.connect(%arg42, %174) : (!adf.plio<In, 128>, memref<32x32xf32, 2>)
    adf.connect(%1030, %175) : (memref<32x32xf32, 2>, memref<32x32xf32, 2>)
    %1031 = call @kernel_gemm(%173, %174, %175) {adf.kernel, "col, row" = [10 : index, 7 : index], ivs = [3 : index, 7 : index, 1 : index], kernel_gemm = 63 : index} : (memref<32x32xf32, 2>, memref<32x32xf32, 2>, memref<32x32xf32, 2>) -> memref<32x32xf32, 2>
    adf.buffer.location(%1031, %c11, %c7, %c0, %c8192) : (memref<32x32xf32, 2>, index, index, index, index)
    adf.buffer.location(%174, %c10, %c7, %c4096, %c12288) : (memref<32x32xf32, 2>, index, index, index, index)
    adf.buffer.location(%173, %c10, %c6, %c4096, %c12288) : (memref<32x32xf32, 2>, index, index, index, index)
    adf.connect(%1031, %arg55) {write = 3 : index} : (memref<32x32xf32, 2>, !adf.plio<Out, 128>)
    adf.connect(%arg56, %176) : (!adf.plio<In, 128>, memref<32x32xf32, 2>)
    adf.connect(%arg1, %177) : (!adf.plio<In, 128>, memref<32x32xf32, 2>)
    %1032 = call @kernel_gemm0(%176, %177) {adf.kernel, "col, row" = [11 : index, 0 : index], ivs = [0 : index, 0 : index, 2 : index], kernel = 0 : index, kernel_gemm0 = 64 : index} : (memref<32x32xf32, 2>, memref<32x32xf32, 2>) -> memref<32x32xf32, 2>
    adf.buffer.location(%1032, %c11, %c0, %c0, %c8192) : (memref<32x32xf32, 2>, index, index, index, index)
    adf.buffer.location(%177, %c10, %c0, %c4096, %c12288) : (memref<32x32xf32, 2>, index, index, index, index)
    adf.buffer.location(%176, %c11, %c1, %c16384, %c24576) : (memref<32x32xf32, 2>, index, index, index, index)
    adf.connect(%arg57, %178) : (!adf.plio<In, 128>, memref<32x32xf32, 2>)
    adf.connect(%arg3, %179) : (!adf.plio<In, 128>, memref<32x32xf32, 2>)
    adf.connect(%1032, %180) : (memref<32x32xf32, 2>, memref<32x32xf32, 2>)
    %1033 = call @kernel_gemm(%178, %179, %180) {adf.kernel, "col, row" = [12 : index, 0 : index], ivs = [1 : index, 0 : index, 2 : index], kernel_gemm = 65 : index} : (memref<32x32xf32, 2>, memref<32x32xf32, 2>, memref<32x32xf32, 2>) -> memref<32x32xf32, 2>
    adf.buffer.location(%1033, %c12, %c0, %c0, %c8192) : (memref<32x32xf32, 2>, index, index, index, index)
    adf.buffer.location(%179, %c11, %c0, %c16384, %c24576) : (memref<32x32xf32, 2>, index, index, index, index)
    adf.buffer.location(%178, %c12, %c1, %c0, %c8192) : (memref<32x32xf32, 2>, index, index, index, index)
    adf.connect(%arg58, %181) : (!adf.plio<In, 128>, memref<32x32xf32, 2>)
    adf.connect(%arg5, %182) : (!adf.plio<In, 128>, memref<32x32xf32, 2>)
    adf.connect(%1033, %183) : (memref<32x32xf32, 2>, memref<32x32xf32, 2>)
    %1034 = call @kernel_gemm(%181, %182, %183) {adf.kernel, "col, row" = [13 : index, 0 : index], ivs = [2 : index, 0 : index, 2 : index], kernel_gemm = 66 : index} : (memref<32x32xf32, 2>, memref<32x32xf32, 2>, memref<32x32xf32, 2>) -> memref<32x32xf32, 2>
    adf.buffer.location(%1034, %c13, %c0, %c0, %c8192) : (memref<32x32xf32, 2>, index, index, index, index)
    adf.buffer.location(%182, %c12, %c0, %c16384, %c24576) : (memref<32x32xf32, 2>, index, index, index, index)
    adf.buffer.location(%181, %c13, %c1, %c0, %c8192) : (memref<32x32xf32, 2>, index, index, index, index)
    adf.connect(%arg59, %184) : (!adf.plio<In, 128>, memref<32x32xf32, 2>)
    adf.connect(%arg7, %185) : (!adf.plio<In, 128>, memref<32x32xf32, 2>)
    adf.connect(%1034, %186) : (memref<32x32xf32, 2>, memref<32x32xf32, 2>)
    %1035 = call @kernel_gemm(%184, %185, %186) {adf.kernel, "col, row" = [14 : index, 0 : index], ivs = [3 : index, 0 : index, 2 : index], kernel_gemm = 67 : index} : (memref<32x32xf32, 2>, memref<32x32xf32, 2>, memref<32x32xf32, 2>) -> memref<32x32xf32, 2>
    adf.buffer.location(%1035, %c14, %c0, %c0, %c8192) : (memref<32x32xf32, 2>, index, index, index, index)
    adf.buffer.location(%185, %c13, %c0, %c16384, %c24576) : (memref<32x32xf32, 2>, index, index, index, index)
    adf.buffer.location(%184, %c14, %c1, %c0, %c8192) : (memref<32x32xf32, 2>, index, index, index, index)
    adf.connect(%1035, %arg60) {write = 3 : index} : (memref<32x32xf32, 2>, !adf.plio<Out, 128>)
    adf.connect(%arg56, %187) : (!adf.plio<In, 128>, memref<32x32xf32, 2>)
    adf.connect(%arg9, %188) : (!adf.plio<In, 128>, memref<32x32xf32, 2>)
    %1036 = call @kernel_gemm0(%187, %188) {adf.kernel, "col, row" = [11 : index, 1 : index], ivs = [0 : index, 1 : index, 2 : index], kernel = 0 : index, kernel_gemm0 = 68 : index} : (memref<32x32xf32, 2>, memref<32x32xf32, 2>) -> memref<32x32xf32, 2>
    adf.buffer.location(%1036, %c12, %c1, %c16384, %c24576) : (memref<32x32xf32, 2>, index, index, index, index)
    adf.buffer.location(%188, %c11, %c2, %c0, %c8192) : (memref<32x32xf32, 2>, index, index, index, index)
    adf.buffer.location(%187, %c11, %c0, %c4096, %c12288) : (memref<32x32xf32, 2>, index, index, index, index)
    adf.connect(%arg57, %189) : (!adf.plio<In, 128>, memref<32x32xf32, 2>)
    adf.connect(%arg10, %190) : (!adf.plio<In, 128>, memref<32x32xf32, 2>)
    adf.connect(%1036, %191) : (memref<32x32xf32, 2>, memref<32x32xf32, 2>)
    %1037 = call @kernel_gemm(%189, %190, %191) {adf.kernel, "col, row" = [12 : index, 1 : index], ivs = [1 : index, 1 : index, 2 : index], kernel_gemm = 69 : index} : (memref<32x32xf32, 2>, memref<32x32xf32, 2>, memref<32x32xf32, 2>) -> memref<32x32xf32, 2>
    adf.buffer.location(%1037, %c13, %c1, %c16384, %c24576) : (memref<32x32xf32, 2>, index, index, index, index)
    adf.buffer.location(%190, %c12, %c2, %c0, %c8192) : (memref<32x32xf32, 2>, index, index, index, index)
    adf.buffer.location(%189, %c12, %c0, %c4096, %c12288) : (memref<32x32xf32, 2>, index, index, index, index)
    adf.connect(%arg58, %192) : (!adf.plio<In, 128>, memref<32x32xf32, 2>)
    adf.connect(%arg11, %193) : (!adf.plio<In, 128>, memref<32x32xf32, 2>)
    adf.connect(%1037, %194) : (memref<32x32xf32, 2>, memref<32x32xf32, 2>)
    %1038 = call @kernel_gemm(%192, %193, %194) {adf.kernel, "col, row" = [13 : index, 1 : index], ivs = [2 : index, 1 : index, 2 : index], kernel_gemm = 70 : index} : (memref<32x32xf32, 2>, memref<32x32xf32, 2>, memref<32x32xf32, 2>) -> memref<32x32xf32, 2>
    adf.buffer.location(%1038, %c14, %c1, %c16384, %c24576) : (memref<32x32xf32, 2>, index, index, index, index)
    adf.buffer.location(%193, %c13, %c2, %c0, %c8192) : (memref<32x32xf32, 2>, index, index, index, index)
    adf.buffer.location(%192, %c13, %c0, %c4096, %c12288) : (memref<32x32xf32, 2>, index, index, index, index)
    adf.connect(%arg59, %195) : (!adf.plio<In, 128>, memref<32x32xf32, 2>)
    adf.connect(%arg12, %196) : (!adf.plio<In, 128>, memref<32x32xf32, 2>)
    adf.connect(%1038, %197) : (memref<32x32xf32, 2>, memref<32x32xf32, 2>)
    %1039 = call @kernel_gemm(%195, %196, %197) {adf.kernel, "col, row" = [14 : index, 1 : index], ivs = [3 : index, 1 : index, 2 : index], kernel_gemm = 71 : index} : (memref<32x32xf32, 2>, memref<32x32xf32, 2>, memref<32x32xf32, 2>) -> memref<32x32xf32, 2>
    adf.buffer.location(%1039, %c15, %c1, %c0, %c8192) : (memref<32x32xf32, 2>, index, index, index, index)
    adf.buffer.location(%196, %c14, %c2, %c0, %c8192) : (memref<32x32xf32, 2>, index, index, index, index)
    adf.buffer.location(%195, %c14, %c0, %c16384, %c24576) : (memref<32x32xf32, 2>, index, index, index, index)
    adf.connect(%1039, %arg61) {write = 3 : index} : (memref<32x32xf32, 2>, !adf.plio<Out, 128>)
    adf.connect(%arg56, %198) : (!adf.plio<In, 128>, memref<32x32xf32, 2>)
    adf.connect(%arg14, %199) : (!adf.plio<In, 128>, memref<32x32xf32, 2>)
    %1040 = call @kernel_gemm0(%198, %199) {adf.kernel, "col, row" = [11 : index, 2 : index], ivs = [0 : index, 2 : index, 2 : index], kernel = 0 : index, kernel_gemm0 = 72 : index} : (memref<32x32xf32, 2>, memref<32x32xf32, 2>) -> memref<32x32xf32, 2>
    adf.buffer.location(%1040, %c11, %c2, %c16384, %c24576) : (memref<32x32xf32, 2>, index, index, index, index)
    adf.buffer.location(%199, %c11, %c3, %c16384, %c24576) : (memref<32x32xf32, 2>, index, index, index, index)
    adf.buffer.location(%198, %c11, %c1, %c4096, %c12288) : (memref<32x32xf32, 2>, index, index, index, index)
    adf.connect(%arg57, %200) : (!adf.plio<In, 128>, memref<32x32xf32, 2>)
    adf.connect(%arg15, %201) : (!adf.plio<In, 128>, memref<32x32xf32, 2>)
    adf.connect(%1040, %202) : (memref<32x32xf32, 2>, memref<32x32xf32, 2>)
    %1041 = call @kernel_gemm(%200, %201, %202) {adf.kernel, "col, row" = [12 : index, 2 : index], ivs = [1 : index, 2 : index, 2 : index], kernel_gemm = 73 : index} : (memref<32x32xf32, 2>, memref<32x32xf32, 2>, memref<32x32xf32, 2>) -> memref<32x32xf32, 2>
    adf.buffer.location(%1041, %c12, %c2, %c16384, %c24576) : (memref<32x32xf32, 2>, index, index, index, index)
    adf.buffer.location(%201, %c12, %c3, %c0, %c8192) : (memref<32x32xf32, 2>, index, index, index, index)
    adf.buffer.location(%200, %c12, %c1, %c4096, %c12288) : (memref<32x32xf32, 2>, index, index, index, index)
    adf.connect(%arg58, %203) : (!adf.plio<In, 128>, memref<32x32xf32, 2>)
    adf.connect(%arg16, %204) : (!adf.plio<In, 128>, memref<32x32xf32, 2>)
    adf.connect(%1041, %205) : (memref<32x32xf32, 2>, memref<32x32xf32, 2>)
    %1042 = call @kernel_gemm(%203, %204, %205) {adf.kernel, "col, row" = [13 : index, 2 : index], ivs = [2 : index, 2 : index, 2 : index], kernel_gemm = 74 : index} : (memref<32x32xf32, 2>, memref<32x32xf32, 2>, memref<32x32xf32, 2>) -> memref<32x32xf32, 2>
    adf.buffer.location(%1042, %c13, %c2, %c16384, %c24576) : (memref<32x32xf32, 2>, index, index, index, index)
    adf.buffer.location(%204, %c13, %c3, %c0, %c8192) : (memref<32x32xf32, 2>, index, index, index, index)
    adf.buffer.location(%203, %c13, %c1, %c4096, %c12288) : (memref<32x32xf32, 2>, index, index, index, index)
    adf.connect(%arg59, %206) : (!adf.plio<In, 128>, memref<32x32xf32, 2>)
    adf.connect(%arg17, %207) : (!adf.plio<In, 128>, memref<32x32xf32, 2>)
    adf.connect(%1042, %208) : (memref<32x32xf32, 2>, memref<32x32xf32, 2>)
    %1043 = call @kernel_gemm(%206, %207, %208) {adf.kernel, "col, row" = [14 : index, 2 : index], ivs = [3 : index, 2 : index, 2 : index], kernel_gemm = 75 : index} : (memref<32x32xf32, 2>, memref<32x32xf32, 2>, memref<32x32xf32, 2>) -> memref<32x32xf32, 2>
    adf.buffer.location(%1043, %c14, %c2, %c16384, %c24576) : (memref<32x32xf32, 2>, index, index, index, index)
    adf.buffer.location(%207, %c14, %c3, %c0, %c8192) : (memref<32x32xf32, 2>, index, index, index, index)
    adf.buffer.location(%206, %c14, %c1, %c4096, %c12288) : (memref<32x32xf32, 2>, index, index, index, index)
    adf.connect(%1043, %arg62) {write = 3 : index} : (memref<32x32xf32, 2>, !adf.plio<Out, 128>)
    adf.connect(%arg56, %209) : (!adf.plio<In, 128>, memref<32x32xf32, 2>)
    adf.connect(%arg19, %210) : (!adf.plio<In, 128>, memref<32x32xf32, 2>)
    %1044 = call @kernel_gemm0(%209, %210) {adf.kernel, "col, row" = [11 : index, 3 : index], ivs = [0 : index, 3 : index, 2 : index], kernel = 0 : index, kernel_gemm0 = 76 : index} : (memref<32x32xf32, 2>, memref<32x32xf32, 2>) -> memref<32x32xf32, 2>
    adf.buffer.location(%1044, %c12, %c3, %c16384, %c24576) : (memref<32x32xf32, 2>, index, index, index, index)
    adf.buffer.location(%210, %c11, %c4, %c0, %c8192) : (memref<32x32xf32, 2>, index, index, index, index)
    adf.buffer.location(%209, %c11, %c2, %c4096, %c12288) : (memref<32x32xf32, 2>, index, index, index, index)
    adf.connect(%arg57, %211) : (!adf.plio<In, 128>, memref<32x32xf32, 2>)
    adf.connect(%arg20, %212) : (!adf.plio<In, 128>, memref<32x32xf32, 2>)
    adf.connect(%1044, %213) : (memref<32x32xf32, 2>, memref<32x32xf32, 2>)
    %1045 = call @kernel_gemm(%211, %212, %213) {adf.kernel, "col, row" = [12 : index, 3 : index], ivs = [1 : index, 3 : index, 2 : index], kernel_gemm = 77 : index} : (memref<32x32xf32, 2>, memref<32x32xf32, 2>, memref<32x32xf32, 2>) -> memref<32x32xf32, 2>
    adf.buffer.location(%1045, %c13, %c3, %c16384, %c24576) : (memref<32x32xf32, 2>, index, index, index, index)
…
>, memref<1xi128, "stream">, memref<1xi512, "stream2">, memref<1xi128, "stream">, memref<1xi512, "stream2">, memref<1xi128, "stream">) -> ()
    return
  }
  func.func @gemm(%arg0: memref<2816x512xi512>, %arg1: memref<8192x192xi512>, %arg2: memref<2816x192xi512>, %arg3: memref<1xi128, "plio">, %arg4: memref<1xi128, "plio">, %arg5: memref<1xi128, "plio">, %arg6: memref<1xi128, "plio">, %arg7: memref<1xi128, "plio">, %arg8: memref<1xi128, "plio">, %arg9: memref<1xi128, "plio">, %arg10: memref<1xi128, "plio">, %arg11: memref<1xi128, "plio">, %arg12: memref<1xi128, "plio">, %arg13: memref<1xi128, "plio">, %arg14: memref<1xi128, "plio">, %arg15: memref<1xi128, "plio">, %arg16: memref<1xi128, "plio">, %arg17: memref<1xi128, "plio">, %arg18: memref<1xi128, "plio">, %arg19: memref<1xi128, "plio">, %arg20: memref<1xi128, "plio">, %arg21: memref<1xi128, "plio">, %arg22: memref<1xi128, "plio">, %arg23: memref<1xi128, "plio">, %arg24: memref<1xi128, "plio">, %arg25: memref<1xi128, "plio">, %arg26: memref<1xi128, "plio">, %arg27: memref<1xi128, "plio">, %arg28: memref<1xi128, "plio">, %arg29: memref<1xi128, "plio">, %arg30: memref<1xi128, "plio">, %arg31: memref<1xi128, "plio">, %arg32: memref<1xi128, "plio">, %arg33: memref<1xi128, "plio">, %arg34: memref<1xi128, "plio">, %arg35: memref<1xi128, "plio">, %arg36: memref<1xi128, "plio">, %arg37: memref<1xi128, "plio">, %arg38: memref<1xi128, "plio">, %arg39: memref<1xi128, "plio">, %arg40: memref<1xi128, "plio">, %arg41: memref<1xi128, "plio">, %arg42: memref<1xi128, "plio">, %arg43: memref<1xi128, "plio">, %arg44: memref<1xi128, "plio">, %arg45: memref<1xi128, "plio">, %arg46: memref<1xi128, "plio">, %arg47: memref<1xi128, "plio">, %arg48: memref<1xi128, "plio">, %arg49: memref<1xi128, "plio">, %arg50: memref<1xi128, "plio">, %arg51: memref<1xi128, "plio">, %arg52: memref<1xi128, "plio">, %arg53: memref<1xi128, "plio">, %arg54: memref<1xi128, "plio">, %arg55: memref<1xi128, "plio">, %arg56: memref<1xi128, "plio">, %arg57: memref<1xi128, "plio">, %arg58: memref<1xi128, "plio">, %arg59: memref<1xi128, "plio">, %arg60: memref<1xi128, "plio">, %arg61: memref<1xi128, "plio">, %arg62: memref<1xi128, "plio">, %arg63: memref<1xi128, "plio">, %arg64: memref<1xi128, "plio">, %arg65: memref<1xi128, "plio">, %arg66: memref<1xi128, "plio">, %arg67: memref<1xi128, "plio">, %arg68: memref<1xi128, "plio">, %arg69: memref<1xi128, "plio">, %arg70: memref<1xi128, "plio">, %arg71: memref<1xi128, "plio">, %arg72: memref<1xi128, "plio">, %arg73: memref<1xi128, "plio">, %arg74: memref<1xi128, "plio">, %arg75: memref<1xi128, "plio">, %arg76: memref<1xi128, "plio">, %arg77: memref<1xi128, "plio">, %arg78: memref<1xi128, "plio">, %arg79: memref<1xi128, "plio">, %arg80: memref<1xi128, "plio">, %arg81: memref<1xi128, "plio">, %arg82: memref<1xi128, "plio">, %arg83: memref<1xi128, "plio">, %arg84: memref<1xi128, "plio">, %arg85: memref<1xi128, "plio">, %arg86: memref<1xi128, "plio">, %arg87: memref<1xi128, "plio">, %arg88: memref<1xi128, "plio">, %arg89: memref<1xi128, "plio">, %arg90: memref<1xi128, "plio">, %arg91: memref<1xi128, "plio">, %arg92: memref<1xi128, "plio">, %arg93: memref<1xi128, "plio">, %arg94: memref<1xi128, "plio">, %arg95: memref<1xi128, "plio">, %arg96: memref<1xi128, "plio">, %arg97: memref<1xi128, "plio">, %arg98: memref<1xi128, "plio">, %arg99: memref<1xi128, "plio">, %arg100: memref<1xi128, "plio">, %arg101: memref<1xi128, "plio">, %arg102: memref<1xi128, "plio">, %arg103: memref<1xi128, "plio">, %arg104: memref<1xi128, "plio">, %arg105: memref<1xi128, "plio">, %arg106: memref<1xi128, "plio">, %arg107: memref<1xi128, "plio">, %arg108: memref<1xi128, "plio">, %arg109: memref<1xi128, "plio">, %arg110: memref<1xi128, "plio">, %arg111: memref<1xi128, "plio">, %arg112: memref<1xi128, "plio">, %arg113: memref<1xi128, "plio">, %arg114: memref<1xi128, "plio">, %arg115: memref<1xi128, "plio">, %arg116: memref<1xi128, "plio">, %arg117: memref<1xi128, "plio">, %arg118: memref<1xi128, "plio">, %arg119: memref<1xi128, "plio">, %arg120: memref<1xi128, "plio">, %arg121: memref<1xi128, "plio">, %arg122: memref<1xi128, "plio">, %arg123: memref<1xi128, "plio">, %arg124: memref<1xi128, "plio">, %arg125: memref<1xi128, "plio">, %arg126: memref<1xi128, "plio">, %arg127: memref<1xi128, "plio">, %arg128: memref<1xi128, "plio">, %arg129: memref<1xi128, "plio">, %arg130: memref<1xi128, "plio">, %arg131: memref<1xi128, "plio">, %arg132: memref<1xi128, "plio">, %arg133: memref<1xi128, "plio">, %arg134: memref<1xi128, "plio">, %arg135: memref<1xi128, "plio">, %arg136: memref<1xi128, "plio">, %arg137: memref<1xi128, "plio">, %arg138: memref<1xi128, "plio">, %arg139: memref<1xi128, "plio">, %arg140: memref<1xi128, "plio">, %arg141: memref<1xi128, "plio">, %arg142: memref<1xi128, "plio">, %arg143: memref<1xi128, "plio">, %arg144: memref<1xi128, "plio">, %arg145: memref<1xi128, "plio">, %arg146: memref<1xi128, "plio">, %arg147: memref<1xi128, "plio">, %arg148: memref<1xi128, "plio">, %arg149: memref<1xi128, "plio">, %arg150: memref<1xi128, "plio">, %arg151: memref<1xi128, "plio">, %arg152: memref<1xi128, "plio">, %arg153: memref<1xi128, "plio">, %arg154: memref<1xi128, "plio">, %arg155: memref<1xi128, "plio">, %arg156: memref<1xi128, "plio">, %arg157: memref<1xi128, "plio">, %arg158: memref<1xi128, "plio">, %arg159: memref<1xi128, "plio">, %arg160: memref<1xi128, "plio">, %arg161: memref<1xi128, "plio">, %arg162: memref<1xi128, "plio">, %arg163: memref<1xi128, "plio">, %arg164: memref<1xi128, "plio">, %arg165: memref<1xi128, "plio">, %arg166: memref<1xi128, "plio">) attributes {adf.func, plio = true} {
    %0 = adf.graph.io(PLIO) : !adf.plio<Out, 128>
    adf.connect(%0, %arg9) {top_config} : (!adf.plio<Out, 128>, memref<1xi128, "plio">)
    %1 = adf.graph.io(PLIO) : !adf.plio<Out, 128>
    adf.connect(%1, %arg116) {top_config} : (!adf.plio<Out, 128>, memref<1xi128, "plio">)
    %2 = adf.graph.io(PLIO) : !adf.plio<Out, 128>
    adf.connect(%2, %arg161) {top_config} : (!adf.plio<Out, 128>, memref<1xi128, "plio">)
    %3 = adf.graph.io(PLIO) : !adf.plio<Out, 128>
    adf.connect(%3, %arg37) {top_config} : (!adf.plio<Out, 128>, memref<1xi128, "plio">)
    %4 = adf.graph.io(PLIO) : !adf.plio<Out, 128>
    adf.connect(%4, %arg113) {top_config} : (!adf.plio<Out, 128>, memref<1xi128, "plio">)
    %5 = adf.graph.io(PLIO) : !adf.plio<Out, 128>
    adf.connect(%5, %arg50) {top_config} : (!adf.plio<Out, 128>, memref<1xi128, "plio">)
    %6 = adf.graph.io(PLIO) : !adf.plio<Out, 128>
    adf.connect(%6, %arg92) {top_config} : (!adf.plio<Out, 128>, memref<1xi128, "plio">)
    %7 = adf.graph.io(PLIO) : !adf.plio<Out, 128>
    adf.connect(%7, %arg67) {top_config} : (!adf.plio<Out, 128>, memref<1xi128, "plio">)
    %8 = adf.graph.io(PLIO) : !adf.plio<In, 128>
    adf.connect(%arg26, %8) {top_config} : (memref<1xi128, "plio">, !adf.plio<In, 128>)
    %9 = adf.graph.io(PLIO) : !adf.plio<In, 128>
    adf.connect(%arg123, %9) {top_config} : (memref<1xi128, "plio">, !adf.plio<In, 128>)
    %10 = adf.graph.io(PLIO) : !adf.plio<In, 128>
    adf.connect(%arg11, %10) {top_config} : (memref<1xi128, "plio">, !adf.plio<In, 128>)
    %11 = adf.graph.io(PLIO) : !adf.plio<In, 128>
    adf.connect(%arg164, %11) {top_config} : (memref<1xi128, "plio">, !adf.plio<In, 128>)
    %12 = adf.graph.io(PLIO) : !adf.plio<Out, 128>
    adf.connect(%12, %arg141) {top_config} : (!adf.plio<Out, 128>, memref<1xi128, "plio">)
    %13 = adf.graph.io(PLIO) : !adf.plio<Out, 128>
    adf.connect(%13, %arg145) {top_config} : (!adf.plio<Out, 128>, memref<1xi128, "plio">)
    %14 = adf.graph.io(PLIO) : !adf.plio<Out, 128>
    adf.connect(%14, %arg55) {top_config} : (!adf.plio<Out, 128>, memref<1xi128, "plio">)
    %15 = adf.graph.io(PLIO) : !adf.plio<Out, 128>
    adf.connect(%15, %arg89) {top_config} : (!adf.plio<Out, 128>, memref<1xi128, "plio">)
    %16 = adf.graph.io(PLIO) : !adf.plio<Out, 128>
    adf.connect(%16, %arg41) {top_config} : (!adf.plio<Out, 128>, memref<1xi128, "plio">)
    %17 = adf.graph.io(PLIO) : !adf.plio<Out, 128>
    adf.connect(%17, %arg85) {top_config} : (!adf.plio<Out, 128>, memref<1xi128, "plio">)
    %18 = adf.graph.io(PLIO) : !adf.plio<Out, 128>
    adf.connect(%18, %arg56) {top_config} : (!adf.plio<Out, 128>, memref<1xi128, "plio">)
    %19 = adf.graph.io(PLIO) : !adf.plio<Out, 128>
    adf.connect(%19, %arg30) {top_config} : (!adf.plio<Out, 128>, memref<1xi128, "plio">)
    %20 = adf.graph.io(PLIO) : !adf.plio<In, 128>
    adf.connect(%arg93, %20) {top_config} : (memref<1xi128, "plio">, !adf.plio<In, 128>)
    %21 = adf.graph.io(PLIO) : !adf.plio<In, 128>
    adf.connect(%arg13, %21) {top_config} : (memref<1xi128, "plio">, !adf.plio<In, 128>)
    %22 = adf.graph.io(PLIO) : !adf.plio<In, 128>
    adf.connect(%arg84, %22) {top_config} : (memref<1xi128, "plio">, !adf.plio<In, 128>)
    %23 = adf.graph.io(PLIO) : !adf.plio<In, 128>
    adf.connect(%arg98, %23) {top_config} : (memref<1xi128, "plio">, !adf.plio<In, 128>)
    %24 = adf.graph.io(PLIO) : !adf.plio<Out, 128>
    adf.connect(%24, %arg159) {top_config} : (!adf.plio<Out, 128>, memref<1xi128, "plio">)
    %25 = adf.graph.io(PLIO) : !adf.plio<Out, 128>
    adf.connect(%25, %arg101) {top_config} : (!adf.plio<Out, 128>, memref<1xi128, "plio">)
    %26 = adf.graph.io(PLIO) : !adf.plio<Out, 128>
    adf.connect(%26, %arg158) {top_config} : (!adf.plio<Out, 128>, memref<1xi128, "plio">)
    %27 = adf.graph.io(PLIO) : !adf.plio<Out, 128>
    adf.connect(%27, %arg72) {top_config} : (!adf.plio<Out, 128>, memref<1xi128, "plio">)
    %28 = adf.graph.io(PLIO) : !adf.plio<Out, 128>
    adf.connect(%28, %arg90) {top_config} : (!adf.plio<Out, 128>, memref<1xi128, "plio">)
    %29 = adf.graph.io(PLIO) : !adf.plio<Out, 128>
    adf.connect(%29, %arg19) {top_config} : (!adf.plio<Out, 128>, memref<1xi128, "plio">)
    %30 = adf.graph.io(PLIO) : !adf.plio<Out, 128>
    adf.connect(%30, %arg125) {top_config} : (!adf.plio<Out, 128>, memref<1xi128, "plio">)
    %31 = adf.graph.io(PLIO) : !adf.plio<Out, 128>
    adf.connect(%31, %arg118) {top_config} : (!adf.plio<Out, 128>, memref<1xi128, "plio">)
    %32 = adf.graph.io(PLIO) : !adf.plio<In, 128>
    adf.connect(%arg80, %32) {top_config} : (memref<1xi128, "plio">, !adf.plio<In, 128>)
    %33 = adf.graph.io(PLIO) : !adf.plio<In, 128>
    adf.connect(%arg79, %33) {top_config} : (memref<1xi128, "plio">, !adf.plio<In, 128>)
    %34 = adf.graph.io(PLIO) : !adf.plio<In, 128>
    adf.connect(%arg107, %34) {top_config} : (memref<1xi128, "plio">, !adf.plio<In, 128>)
    %35 = adf.graph.io(PLIO) : !adf.plio<In, 128>
    adf.connect(%arg91, %35) {top_config} : (memref<1xi128, "plio">, !adf.plio<In, 128>)
    %36 = adf.graph.io(PLIO) : !adf.plio<Out, 128>
    adf.connect(%36, %arg138) {top_config} : (!adf.plio<Out, 128>, memref<1xi128, "plio">)
    %37 = adf.graph.io(PLIO) : !adf.plio<Out, 128>
    adf.connect(%37, %arg47) {top_config} : (!adf.plio<Out, 128>, memref<1xi128, "plio">)
    %38 = adf.graph.io(PLIO) : !adf.plio<Out, 128>
    adf.connect(%38, %arg108) {top_config} : (!adf.plio<Out, 128>, memref<1xi128, "plio">)
    %39 = adf.graph.io(PLIO) : !adf.plio<Out, 128>
    adf.connect(%39, %arg45) {top_config} : (!adf.plio<Out, 128>, memref<1xi128, "plio">)
    %40 = adf.graph.io(PLIO) : !adf.plio<Out, 128>
    adf.connect(%40, %arg137) {top_config} : (!adf.plio<Out, 128>, memref<1xi128, "plio">)
    %41 = adf.graph.io(PLIO) : !adf.plio<Out, 128>
    adf.connect(%41, %arg83) {top_config} : (!adf.plio<Out, 128>, memref<1xi128, "plio">)
    %42 = adf.graph.io(PLIO) : !adf.plio<Out, 128>
    adf.connect(%42, %arg43) {top_config} : (!adf.plio<Out, 128>, memref<1xi128, "plio">)
    %43 = adf.graph.io(PLIO) : !adf.plio<Out, 128>
    adf.connect(%43, %arg34) {top_config} : (!adf.plio<Out, 128>, memref<1xi128, "plio">)
    %44 = adf.graph.io(PLIO) : !adf.plio<In, 128>
    adf.connect(%arg95, %44) {top_config} : (memref<1xi128, "plio">, !adf.plio<In, 128>)
    %45 = adf.graph.io(PLIO) : !adf.plio<In, 128>
    adf.connect(%arg42, %45) {top_config} : (memref<1xi128, "plio">, !adf.plio<In, 128>)
    %46 = adf.graph.io(PLIO) : !adf.plio<In, 128>
    adf.connect(%arg23, %46) {top_config} : (memref<1xi128, "plio">, !adf.plio<In, 128>)
    %47 = adf.graph.io(PLIO) : !adf.plio<In, 128>
    adf.connect(%arg132, %47) {top_config} : (memref<1xi128, "plio">, !adf.plio<In, 128>)
    %48 = adf.graph.io(PLIO) : !adf.plio<Out, 128>
    adf.connect(%48, %arg144) {top_config} : (!adf.plio<Out, 128>, memref<1xi128, "plio">)
    %49 = adf.graph.io(PLIO) : !adf.plio<Out, 128>
    adf.connect(%49, %arg64) {top_config} : (!adf.plio<Out, 128>, memref<1xi128, "plio">)
    %50 = adf.graph.io(PLIO) : !adf.plio<Out, 128>
    adf.connect(%50, %arg59) {top_config} : (!adf.plio<Out, 128>, memref<1xi128, "plio">)
    %51 = adf.graph.io(PLIO) : !adf.plio<Out, 128>
    adf.connect(%51, %arg112) {top_config} : (!adf.plio<Out, 128>, memref<1xi128, "plio">)
    %52 = adf.graph.io(PLIO) : !adf.plio<Out, 128>
    adf.connect(%52, %arg104) {top_config} : (!adf.plio<Out, 128>, memref<1xi128, "plio">)
    %53 = adf.graph.io(PLIO) : !adf.plio<Out, 128>
    adf.connect(%53, %arg16) {top_config} : (!adf.plio<Out, 128>, memref<1xi128, "plio">)
    %54 = adf.graph.io(PLIO) : !adf.plio<Out, 128>
    adf.connect(%54, %arg103) {top_config} : (!adf.plio<Out, 128>, memref<1xi128, "plio">)
    %55 = adf.graph.io(PLIO) : !adf.plio<Out, 128>
    adf.connect(%55, %arg57) {top_config} : (!adf.plio<Out, 128>, memref<1xi128, "plio">)
    %56 = adf.graph.io(PLIO) : !adf.plio<In, 128>
    adf.connect(%arg122, %56) {top_config} : (memref<1xi128, "plio">, !adf.plio<In, 128>)
    %57 = adf.graph.io(PLIO) : !adf.plio<In, 128>
    adf.connect(%arg140, %57) {top_config} : (memref<1xi128, "plio">, !adf.plio<In, 128>)
    %58 = adf.graph.io(PLIO) : !adf.plio<In, 128>
    adf.connect(%arg4, %58) {top_config} : (memref<1xi128, "plio">, !adf.plio<In, 128>)
    %59 = adf.graph.io(PLIO) : !adf.plio<In, 128>
    adf.connect(%arg15, %59) {top_config} : (memref<1xi128, "plio">, !adf.plio<In, 128>)
    %60 = adf.graph.io(PLIO) : !adf.plio<Out, 128>
    adf.connect(%60, %arg39) {top_config} : (!adf.plio<Out, 128>, memref<1xi128, "plio">)
    %61 = adf.graph.io(PLIO) : !adf.plio<Out, 128>
    adf.connect(%61, %arg54) {top_config} : (!adf.plio<Out, 128>, memref<1xi128, "plio">)
    %62 = adf.graph.io(PLIO) : !adf.plio<Out, 128>
    adf.connect(%62, %arg165) {top_config} : (!adf.plio<Out, 128>, memref<1xi128, "plio">)
    %63 = adf.graph.io(PLIO) : !adf.plio<Out, 128>
    adf.connect(%63, %arg97) {top_config} : (!adf.plio<Out, 128>, memref<1xi128, "plio">)
    %64 = adf.graph.io(PLIO) : !adf.plio<Out, 128>
    adf.connect(%64, %arg149) {top_config} : (!adf.plio<Out, 128>, memref<1xi128, "plio">)
    %65 = adf.graph.io(PLIO) : !adf.plio<Out, 128>
    adf.connect(%65, %arg44) {top_config} : (!adf.plio<Out, 128>, memref<1xi128, "plio">)
    %66 = adf.graph.io(PLIO) : !adf.plio<Out, 128>
    adf.connect(%66, %arg96) {top_config} : (!adf.plio<Out, 128>, memref<1xi128, "plio">)
    %67 = adf.graph.io(PLIO) : !adf.plio<Out, 128>
    adf.connect(%67, %arg166) {top_config} : (!adf.plio<Out, 128>, memref<1xi128, "plio">)
    %68 = adf.graph.io(PLIO) : !adf.plio<In, 128>
    adf.connect(%arg75, %68) {top_config} : (memref<1xi128, "plio">, !adf.plio<In, 128>)
    %69 = adf.graph.io(PLIO) : !adf.plio<In, 128>
    adf.connect(%arg99, %69) {top_config} : (memref<1xi128, "plio">, !adf.plio<In, 128>)
    %70 = adf.graph.io(PLIO) : !adf.plio<In, 128>
    adf.connect(%arg148, %70) {top_config} : (memref<1xi128, "plio">, !adf.plio<In, 128>)
    %71 = adf.graph.io(PLIO) : !adf.plio<In, 128>
    adf.connect(%arg38, %71) {top_config} : (memref<1xi128, "plio">, !adf.plio<In, 128>)
    %72 = adf.graph.io(PLIO) : !adf.plio<Out, 128>
    adf.connect(%72, %arg6) {top_config} : (!adf.plio<Out, 128>, memref<1xi128, "plio">)
    %73 = adf.graph.io(PLIO) : !adf.plio<Out, 128>
    adf.connect(%73, %arg153) {top_config} : (!adf.plio<Out, 128>, memref<1xi128, "plio">)
    %74 = adf.graph.io(PLIO) : !adf.plio<Out, 128>
    adf.connect(%74, %arg155) {top_config} : (!adf.plio<Out, 128>, memref<1xi128, "plio">)
    %75 = adf.graph.io(PLIO) : !adf.plio<Out, 128>
    adf.connect(%75, %arg65) {top_config} : (!adf.plio<Out, 128>, memref<1xi128, "plio">)
    %76 = adf.graph.io(PLIO) : !adf.plio<Out, 128>
    adf.connect(%76, %arg33) {top_config} : (!adf.plio<Out, 128>, memref<1xi128, "plio">)
    %77 = adf.graph.io(PLIO) : !adf.plio<Out, 128>
    adf.connect(%77, %arg27) {top_config} : (!adf.plio<Out, 128>, memref<1xi128, "plio">)
    %78 = adf.graph.io(PLIO) : !adf.plio<Out, 128>
    adf.connect(%78, %arg70) {top_config} : (!adf.plio<Out, 128>, memref<1xi128, "plio">)
    %79 = adf.graph.io(PLIO) : !adf.plio<Out, 128>
    adf.connect(%79, %arg121) {top_config} : (!adf.plio<Out, 128>, memref<1xi128, "plio">)
    %80 = adf.graph.io(PLIO) : !adf.plio<In, 128>
    adf.connect(%arg134, %80) {top_config} : (memref<1xi128, "plio">, !adf.plio<In, 128>)
    %81 = adf.graph.io(PLIO) : !adf.plio<In, 128>
    adf.connect(%arg88, %81) {top_config} : (memref<1xi128, "plio">, !adf.plio<In, 128>)
    %82 = adf.graph.io(PLIO) : !adf.plio<In, 128>
    adf.connect(%arg22, %82) {top_config} : (memref<1xi128, "plio">, !adf.plio<In, 128>)
    %83 = adf.graph.io(PLIO) : !adf.plio<In, 128>
    adf.connect(%arg162, %83) {top_config} : (memref<1xi128, "plio">, !adf.plio<In, 128>)
    %84 = adf.graph.io(PLIO) : !adf.plio<Out, 128>
    adf.connect(%84, %arg40) {top_config} : (!adf.plio<Out, 128>, memref<1xi128, "plio">)
    %85 = adf.graph.io(PLIO) : !adf.plio<Out, 128>
    adf.connect(%85, %arg102) {top_config} : (!adf.plio<Out, 128>, memref<1xi128, "plio">)
    %86 = adf.graph.io(PLIO) : !adf.plio<Out, 128>
    adf.connect(%86, %arg14) {top_config} : (!adf.plio<Out, 128>, memref<1xi128, "plio">)
    %87 = adf.graph.io(PLIO) : !adf.plio<Out, 128>
    adf.connect(%87, %arg12) {top_config} : (!adf.plio<Out, 128>, memref<1xi128, "plio">)
    %88 = adf.graph.io(PLIO) : !adf.plio<Out, 128>
    adf.connect(%88, %arg18) {top_config} : (!adf.plio<Out, 128>, memref<1xi128, "plio">)
    %89 = adf.graph.io(PLIO) : !adf.plio<Out, 128>
    adf.connect(%89, %arg35) {top_config} : (!adf.plio<Out, 128>, memref<1xi128, "plio">)
    %90 = adf.graph.io(PLIO) : !adf.plio<Out, 128>
    adf.connect(%90, %arg120) {top_config} : (!adf.plio<Out, 128>, memref<1xi128, "plio">)
    %91 = adf.graph.io(PLIO) : !adf.plio<Out, 128>
    adf.connect(%91, %arg150) {top_config} : (!adf.plio<Out, 128>, memref<1xi128, "plio">)
    %92 = adf.graph.io(PLIO) : !adf.plio<In, 128>
    adf.connect(%arg51, %92) {top_config} : (memref<1xi128, "plio">, !adf.plio<In, 128>)
    %93 = adf.graph.io(PLIO) : !adf.plio<In, 128>
    adf.connect(%arg77, %93) {top_config} : (memref<1xi128, "plio">, !adf.plio<In, 128>)
    %94 = adf.graph.io(PLIO) : !adf.plio<In, 128>
    adf.connect(%arg5, %94) {top_config} : (memref<1xi128, "plio">, !adf.plio<In, 128>)
    %95 = adf.graph.io(PLIO) : !adf.plio<In, 128>
    adf.connect(%arg157, %95) {top_config} : (memref<1xi128, "plio">, !adf.plio<In, 128>)
    %96 = adf.graph.io(PLIO) : !adf.plio<Out, 128>
    adf.connect(%96, %arg119) {top_config} : (!adf.plio<Out, 128>, memref<1xi128, "plio">)
    %97 = adf.graph.io(PLIO) : !adf.plio<Out, 128>
    adf.connect(%97, %arg20) {top_config} : (!adf.plio<Out, 128>, memref<1xi128, "plio">)
    %98 = adf.graph.io(PLIO) : !adf.plio<Out, 128>
    adf.connect(%98, %arg87) {top_config} : (!adf.plio<Out, 128>, memref<1xi128, "plio">)
    %99 = adf.graph.io(PLIO) : !adf.plio<Out, 128>
    adf.connect(%99, %arg135) {top_config} : (!adf.plio<Out, 128>, memref<1xi128, "plio">)
    %100 = adf.graph.io(PLIO) : !adf.plio<Out, 128>
    adf.connect(%100, %arg62) {top_config} : (!adf.plio<Out, 128>, memref<1xi128, "plio">)
    %101 = adf.graph.io(PLIO) : !adf.plio<Out, 128>
    adf.connect(%101, %arg147) {top_config} : (!adf.plio<Out, 128>, memref<1xi128, "plio">)
    %102 = adf.graph.io(PLIO) : !adf.plio<Out, 128>
    adf.connect(%102, %arg151) {top_config} : (!adf.plio<Out, 128>, memref<1xi128, "plio">)
    %103 = adf.graph.io(PLIO) : !adf.plio<Out, 128>
    adf.connect(%103, %arg66) {top_config} : (!adf.plio<Out, 128>, memref<1xi128, "plio">)
    %104 = adf.graph.io(PLIO) : !adf.plio<In, 128>
    adf.connect(%arg111, %104) {top_config} : (memref<1xi128, "plio">, !adf.plio<In, 128>)
    %105 = adf.graph.io(PLIO) : !adf.plio<In, 128>
    adf.connect(%arg133, %105) {top_config} : (memref<1xi128, "plio">, !adf.plio<In, 128>)
    %106 = adf.graph.io(PLIO) : !adf.plio<In, 128>
    adf.connect(%arg63, %106) {top_config} : (memref<1xi128, "plio">, !adf.plio<In, 128>)
    %107 = adf.graph.io(PLIO) : !adf.plio<In, 128>
    adf.connect(%arg31, %107) {top_config} : (memref<1xi128, "plio">, !adf.plio<In, 128>)
    %108 = adf.graph.io(PLIO) : !adf.plio<Out, 128>
    adf.connect(%108, %arg129) {top_config} : (!adf.plio<Out, 128>, memref<1xi128, "plio">)
    %109 = adf.graph.io(PLIO) : !adf.plio<Out, 128>
    adf.connect(%109, %arg73) {top_config} : (!adf.plio<Out, 128>, memref<1xi128, "plio">)
    %110 = adf.graph.io(PLIO) : !adf.plio<Out, 128>
    adf.connect(%110, %arg3) {top_config} : (!adf.plio<Out, 128>, memref<1xi128, "plio">)
    %111 = adf.graph.io(PLIO) : !adf.plio<Out, 128>
    adf.connect(%111, %arg8) {top_config} : (!adf.plio<Out, 128>, memref<1xi128, "plio">)
    %112 = adf.graph.io(PLIO) : !adf.plio<Out, 128>
    adf.connect(%112, %arg29) {top_config} : (!adf.plio<Out, 128>, memref<1xi128, "plio">)
    %113 = adf.graph.io(PLIO) : !adf.plio<Out, 128>
    adf.connect(%113, %arg74) {top_config} : (!adf.plio<Out, 128>, memref<1xi128, "plio">)
    %114 = adf.graph.io(PLIO) : !adf.plio<Out, 128>
    adf.connect(%114, %arg68) {top_config} : (!adf.plio<Out, 128>, memref<1xi128, "plio">)
    %115 = adf.graph.io(PLIO) : !adf.plio<Out, 128>
    adf.connect(%115, %arg86) {top_config} : (!adf.plio<Out, 128>, memref<1xi128, "plio">)
    %116 = adf.graph.io(PLIO) : !adf.plio<In, 128>
    adf.connect(%arg106, %116) {top_config} : (memref<1xi128, "plio">, !adf.plio<In, 128>)
    %117 = adf.graph.io(PLIO) : !adf.plio<In, 128>
    adf.connect(%arg143, %117) {top_config} : (memref<1xi128, "plio">, !adf.plio<In, 128>)
    %118 = adf.graph.io(PLIO) : !adf.plio<In, 128>
    adf.connect(%arg21, %118) {top_config} : (memref<1xi128, "plio">, !adf.plio<In, 128>)
    %119 = adf.graph.io(PLIO) : !adf.plio<In, 128>
    adf.connect(%arg53, %119) {top_config} : (memref<1xi128, "plio">, !adf.plio<In, 128>)
    %120 = adf.graph.io(PLIO) : !adf.plio<Out, 128>
    adf.connect(%120, %arg58) {top_config} : (!adf.plio<Out, 128>, memref<1xi128, "plio">)
    %121 = adf.graph.io(PLIO) : !adf.plio<In, 128>
    adf.connect(%arg126, %121) {top_config} : (memref<1xi128, "plio">, !adf.plio<In, 128>)
    %122 = adf.graph.io(PLIO) : !adf.plio<In, 128>
    adf.connect(%arg110, %122) {top_config} : (memref<1xi128, "plio">, !adf.plio<In, 128>)
    %123 = adf.graph.io(PLIO) : !adf.plio<In, 128>
    adf.connect(%arg160, %123) {top_config} : (memref<1xi128, "plio">, !adf.plio<In, 128>)
    %124 = adf.graph.io(PLIO) : !adf.plio<In, 128>
    adf.connect(%arg105, %124) {top_config} : (memref<1xi128, "plio">, !adf.plio<In, 128>)
    %125 = adf.graph.io(PLIO) : !adf.plio<Out, 128>
    adf.connect(%125, %arg36) {top_config} : (!adf.plio<Out, 128>, memref<1xi128, "plio">)
    %126 = adf.graph.io(PLIO) : !adf.plio<In, 128>
    adf.connect(%arg25, %126) {top_config} : (memref<1xi128, "plio">, !adf.plio<In, 128>)
    %127 = adf.graph.io(PLIO) : !adf.plio<In, 128>
    adf.connect(%arg76, %127) {top_config} : (memref<1xi128, "plio">, !adf.plio<In, 128>)
    %128 = adf.graph.io(PLIO) : !adf.plio<In, 128>
    adf.connect(%arg100, %128) {top_config} : (memref<1xi128, "plio">, !adf.plio<In, 128>)
    %129 = adf.graph.io(PLIO) : !adf.plio<In, 128>
    adf.connect(%arg127, %129) {top_config} : (memref<1xi128, "plio">, !adf.plio<In, 128>)
    %130 = adf.graph.io(PLIO) : !adf.plio<Out, 128>
    adf.connect(%130, %arg7) {top_config} : (!adf.plio<Out, 128>, memref<1xi128, "plio">)
    %131 = adf.graph.io(PLIO) : !adf.plio<In, 128>
    adf.connect(%arg156, %131) {top_config} : (memref<1xi128, "plio">, !adf.plio<In, 128>)
    %132 = adf.graph.io(PLIO) : !adf.plio<In, 128>
    adf.connect(%arg71, %132) {top_config} : (memref<1xi128, "plio">, !adf.plio<In, 128>)
    %133 = adf.graph.io(PLIO) : !adf.plio<In, 128>
    adf.connect(%arg48, %133) {top_config} : (memref<1xi128, "plio">, !adf.plio<In, 128>)
    %134 = adf.graph.io(PLIO) : !adf.plio<In, 128>
    adf.connect(%arg130, %134) {top_config} : (memref<1xi128, "plio">, !adf.plio<In, 128>)
    %135 = adf.graph.io(PLIO) : !adf.plio<Out, 128>
    adf.connect(%135, %arg81) {top_config} : (!adf.plio<Out, 128>, memref<1xi128, "plio">)
    %136 = adf.graph.io(PLIO) : !adf.plio<In, 128>
    adf.connect(%arg46, %136) {top_config} : (memref<1xi128, "plio">, !adf.plio<In, 128>)
    %137 = adf.graph.io(PLIO) : !adf.plio<In, 128>
    adf.connect(%arg78, %137) {top_config} : (memref<1xi128, "plio">, !adf.plio<In, 128>)
    %138 = adf.graph.io(PLIO) : !adf.plio<In, 128>
    adf.connect(%arg61, %138) {top_config} : (memref<1xi128, "plio">, !adf.plio<In, 128>)
    %139 = adf.graph.io(PLIO) : !adf.plio<In, 128>
    adf.connect(%arg128, %139) {top_config} : (memref<1xi128, "plio">, !adf.plio<In, 128>)
    %140 = adf.graph.io(PLIO) : !adf.plio<Out, 128>
    adf.connect(%140, %arg52) {top_config} : (!adf.plio<Out, 128>, memref<1xi128, "plio">)
    %141 = adf.graph.io(PLIO) : !adf.plio<In, 128>
    adf.connect(%arg49, %141) {top_config} : (memref<1xi128, "plio">, !adf.plio<In, 128>)
    %142 = adf.graph.io(PLIO) : !adf.plio<In, 128>
    adf.connect(%arg124, %142) {top_config} : (memref<1xi128, "plio">, !adf.plio<In, 128>)
    %143 = adf.graph.io(PLIO) : !adf.plio<In, 128>
    adf.connect(%arg142, %143) {top_config} : (memref<1xi128, "plio">, !adf.plio<In, 128>)
    %144 = adf.graph.io(PLIO) : !adf.plio<In, 128>
    adf.connect(%arg94, %144) {top_config} : (memref<1xi128, "plio">, !adf.plio<In, 128>)
    %145 = adf.graph.io(PLIO) : !adf.plio<Out, 128>
    adf.connect(%145, %arg28) {top_config} : (!adf.plio<Out, 128>, memref<1xi128, "plio">)
    %146 = adf.graph.io(PLIO) : !adf.plio<In, 128>
    adf.connect(%arg117, %146) {top_config} : (memref<1xi128, "plio">, !adf.plio<In, 128>)
    %147 = adf.graph.io(PLIO) : !adf.plio<In, 128>
    adf.connect(%arg163, %147) {top_config} : (memref<1xi128, "plio">, !adf.plio<In, 128>)
    %148 = adf.graph.io(PLIO) : !adf.plio<In, 128>
    adf.connect(%arg115, %148) {top_config} : (memref<1xi128, "plio">, !adf.plio<In, 128>)
    %149 = adf.graph.io(PLIO) : !adf.plio<In, 128>
    adf.connect(%arg131, %149) {top_config} : (memref<1xi128, "plio">, !adf.plio<In, 128>)
    %150 = adf.graph.io(PLIO) : !adf.plio<Out, 128>
    adf.connect(%150, %arg139) {top_config} : (!adf.plio<Out, 128>, memref<1xi128, "plio">)
    %151 = adf.graph.io(PLIO) : !adf.plio<In, 128>
    adf.connect(%arg109, %151) {top_config} : (memref<1xi128, "plio">, !adf.plio<In, 128>)
    %152 = adf.graph.io(PLIO) : !adf.plio<In, 128>
    adf.connect(%arg10, %152) {top_config} : (memref<1xi128, "plio">, !adf.plio<In, 128>)
    %153 = adf.graph.io(PLIO) : !adf.plio<In, 128>
    adf.connect(%arg114, %153) {top_config} : (memref<1xi128, "plio">, !adf.plio<In, 128>)
    %154 = adf.graph.io(PLIO) : !adf.plio<In, 128>
    adf.connect(%arg152, %154) {top_config} : (memref<1xi128, "plio">, !adf.plio<In, 128>)
    %155 = adf.graph.io(PLIO) : !adf.plio<Out, 128>
    adf.connect(%155, %arg69) {top_config} : (!adf.plio<Out, 128>, memref<1xi128, "plio">)
    %156 = adf.graph.io(PLIO) : !adf.plio<In, 128>
    adf.connect(%arg82, %156) {top_config} : (memref<1xi128, "plio">, !adf.plio<In, 128>)
    %157 = adf.graph.io(PLIO) : !adf.plio<In, 128>
    adf.connect(%arg24, %157) {top_config} : (memref<1xi128, "plio">, !adf.plio<In, 128>)
    %158 = adf.graph.io(PLIO) : !adf.plio<In, 128>
    adf.connect(%arg136, %158) {top_config} : (memref<1xi128, "plio">, !adf.plio<In, 128>)
    %159 = adf.graph.io(PLIO) : !adf.plio<In, 128>
    adf.connect(%arg60, %159) {top_config} : (memref<1xi128, "plio">, !adf.plio<In, 128>)
    %160 = adf.graph.io(PLIO) : !adf.plio<In, 128>
    adf.connect(%arg146, %160) {top_config} : (memref<1xi128, "plio">, !adf.plio<In, 128>)
    %161 = adf.graph.io(PLIO) : !adf.plio<In, 128>
    adf.connect(%arg17, %161) {top_config} : (memref<1xi128, "plio">, !adf.plio<In, 128>)
    %162 = adf.graph.io(PLIO) : !adf.plio<In, 128>
    adf.connect(%arg32, %162) {top_config} : (memref<1xi128, "plio">, !adf.plio<In, 128>)
    %163 = adf.graph.io(PLIO) : !adf.plio<In, 128>
    adf.connect(%arg154, %163) {top_config} : (memref<1xi128, "plio">, !adf.plio<In, 128>)
    adf.cell.launch @adf_cell0 {
      func.call @adf_cell0(%163, %162, %161, %160, %159, %158, %157, %156, %155, %154, %153, %152, %151, %150, %149, %148, %147, %146, %145, %144, %143, %142, %141, %140, %139, %138, %137, %136, %135, %134, %133, %132, %131, %130, %129, %128, %127, %126, %125, %124, %123, %122, %121, %120, %119, %118, %117, %116, %115, %114, %113, %112, %111, %110, %109, %108, %107, %106, %105, %104, %103, %102, %101, %100, %99, %98, %97, %96, %95, %94, %93, %92, %91, %90, %89, %88, %87, %86, %85, %84, %83, %82, %81, %80, %79, %78, %77, %76, %75, %74, %73, %72, %71, %70, %69, %68, %67, %66, %65, %64, %63, %62, %61, %60, %59, %58, %57, %56, %55, %54, %53, %52, %51, %50, %49, %48, %47, %46, %45, %44, %43, %42, %41, %40, %39, %38, %37, %36, %35, %34, %33, %32, %31, %30, %29, %28, %27, %26, %25, %24, %23, %22, %21, %20, %19, %18, %17, %16, %15, %14, %13, %12, %11, %10, %9, %8, %7, %6, %5, %4, %3, %2, %1, %0) {adf.cell} : (!adf.plio<In, 128>, !adf.plio<In, 128>, !adf.plio<In, 128>, !adf.plio<In, 128>, !adf.plio<In, 128>, !adf.plio<In, 128>, !adf.plio<In, 128>, !adf.plio<In, 128>, !adf.plio<Out, 128>, !adf.plio<In, 128>, !adf.plio<In, 128>, !adf.plio<In, 128>, !adf.plio<In, 128>, !adf.plio<Out, 128>, !adf.plio<In, 128>, !adf.plio<In, 128>, !adf.plio<In, 128>, !adf.plio<In, 128>, !adf.plio<Out, 128>, !adf.plio<In, 128>, !adf.plio<In, 128>, !adf.plio<In, 128>, !adf.plio<In, 128>, !adf.plio<Out, 128>, !adf.plio<In, 128>, !adf.plio<In, 128>, !adf.plio<In, 128>, !adf.plio<In, 128>, !adf.plio<Out, 128>, !adf.plio<In, 128>, !adf.plio<In, 128>, !adf.plio<In, 128>, !adf.plio<In, 128>, !adf.plio<Out, 128>, !adf.plio<In, 128>, !adf.plio<In, 128>, !adf.plio<In, 128>, !adf.plio<In, 128>, !adf.plio<Out, 128>, !adf.plio<In, 128>, !adf.plio<In, 128>, !adf.plio<In, 128>, !adf.plio<In, 128>, !adf.plio<Out, 128>, !adf.plio<In, 128>, !adf.plio<In, 128>, !adf.plio<In, 128>, !adf.plio<In, 128>, !adf.plio<Out, 128>, !adf.plio<Out, 128>, !adf.plio<Out, 128>, !adf.plio<Out, 128>, !adf.plio<Out, 128>, !adf.plio<Out, 128>, !adf.plio<Out, 128>, !adf.plio<Out, 128>, !adf.plio<In, 128>, !adf.plio<In, 128>, !adf.plio<In, 128>, !adf.plio<In, 128>, !adf.plio<Out, 128>, !adf.plio<Out, 128>, !adf.plio<Out, 128>, !adf.plio<Out, 128>, !adf.plio<Out, 128>, !adf.plio<Out, 128>, !adf.plio<Out, 128>, !adf.plio<Out, 128>, !adf.plio<In, 128>, !adf.plio<In, 128>, !adf.plio<In, 128>, !adf.plio<In, 128>, !adf.plio<Out, 128>, !adf.plio<Out, 128>, !adf.plio<Out, 128>, !adf.plio<Out, 128>, !adf.plio<Out, 128>, !adf.plio<Out, 128>, !adf.plio<Out, 128>, !adf.plio<Out, 128>, !adf.plio<In, 128>, !adf.plio<In, 128>, !adf.plio<In, 128>, !adf.plio<In, 128>, !adf.plio<Out, 128>, !adf.plio<Out, 128>, !adf.plio<Out, 128>, !adf.plio<Out, 128>, !adf.plio<Out, 128>, !adf.plio<Out, 128>, !adf.plio<Out, 128>, !adf.plio<Out, 128>, !adf.plio<In, 128>, !adf.plio<In, 128>, !adf.plio<In, 128>, !adf.plio<In, 128>, !adf.plio<Out, 128>, !adf.plio<Out, 128>, !adf.plio<Out, 128>, !adf.plio<Out, 128>, !adf.plio<Out, 128>, !adf.plio<Out, 128>, !adf.plio<Out, 128>, !adf.plio<Out, 128>, !adf.plio<In, 128>, !adf.plio<In, 128>, !adf.plio<In, 128>, !adf.plio<In, 128>, !adf.plio<Out, 128>, !adf.plio<Out, 128>, !adf.plio<Out, 128>, !adf.plio<Out, 128>, !adf.plio<Out, 128>, !adf.plio<Out, 128>, !adf.plio<Out, 128>, !adf.plio<Out, 128>, !adf.plio<In, 128>, !adf.plio<In, 128>, !adf.plio<In, 128>, !adf.plio<In, 128>, !adf.plio<Out, 128>, !adf.plio<Out, 128>, !adf.plio<Out, 128>, !adf.plio<Out, 128>, !adf.plio<Out, 128>, !adf.plio<Out, 128>, !adf.plio<Out, 128>, !adf.plio<Out, 128>, !adf.plio<In, 128>, !adf.plio<In, 128>, !adf.plio<In, 128>, !adf.plio<In, 128>, !adf.plio<Out, 128>, !adf.plio<Out, 128>, !adf.plio<Out, 128>, !adf.plio<Out, 128>, !adf.plio<Out, 128>, !adf.plio<Out, 128>, !adf.plio<Out, 128>, !adf.plio<Out, 128>, !adf.plio<In, 128>, !adf.plio<In, 128>, !adf.plio<In, 128>, !adf.plio<In, 128>, !adf.plio<Out, 128>, !adf.plio<Out, 128>, !adf.plio<Out, 128>, !adf.plio<Out, 128>, !adf.plio<Out, 128>, !adf.plio<Out, 128>, !adf.plio<Out, 128>, !adf.plio<Out, 128>, !adf.plio<In, 128>, !adf.plio<In, 128>, !adf.plio<In, 128>, !adf.plio<In, 128>, !adf.plio<Out, 128>, !adf.plio<Out, 128>, !adf.plio<Out, 128>, !adf.plio<Out, 128>, !adf.plio<Out, 128>, !adf.plio<Out, 128>, !adf.plio<Out, 128>, !adf.plio<Out, 128>) -> ()
      adf.cell.launch.end
    }
    adf.pl.launch @gemm_pl {
      func.call @gemm_pl(%arg0, %arg1, %arg2, %arg3, %arg4, %arg5, %arg6, %arg7, %arg8, %arg9, %arg10, %arg11, %arg12, %arg13, %arg14, %arg15, %arg16, %arg17, %arg18, %arg19, %arg20, %arg21, %arg22, %arg23, %arg24, %arg25, %arg26, %arg27, %arg28, %arg29, %arg30, %arg31, %arg32, %arg33, %arg34, %arg35, %arg36, %arg37, %arg38, %arg39, %arg40, %arg41, %arg42, %arg43, %arg44, %arg45, %arg46, %arg47, %arg48, %arg49, %arg50, %arg51, %arg52, %arg53, %arg54, %arg55, %arg56, %arg57, %arg58, %arg59, %arg60, %arg61, %arg62, %arg63, %arg64, %arg65, %arg66, %arg67, %arg68, %arg69, %arg70, %arg71, %arg72, %arg73, %arg74, %arg75, %arg76, %arg77, %arg78, %arg79, %arg80, %arg81, %arg82, %arg83, %arg84, %arg85, %arg86, %arg87, %arg88, %arg89, %arg90, %arg91, %arg92, %arg93, %arg94, %arg95, %arg96, %arg97, %arg98, %arg99, %arg100, %arg101, %arg102, %arg103, %arg104, %arg105, %arg106, %arg107, %arg108, %arg109, %arg110, %arg111, %arg112, %arg113, %arg114, %arg115, %arg116, %arg117, %arg118, %arg119, %arg120, %arg121, %arg122, %arg123, %arg124, %arg125, %arg126, %arg127, %arg128, %arg129, %arg130, %arg131, %arg132, %arg133, %arg134, %arg135, %arg136, %arg137, %arg138, %arg139, %arg140, %arg141, %arg142, %arg143, %arg144, %arg145, %arg146, %arg147, %arg148, %arg149, %arg150, %arg151, %arg152, %arg153, %arg154, %arg155, %arg156, %arg157, %arg158, %arg159, %arg160, %arg161, %arg162, %arg163, %arg164, %arg165, %arg166) {adf.pl} : (memref<2816x512xi512>, memref<8192x192xi512>, memref<2816x192xi512>, memref<1xi128, "plio">, memref<1xi128, "plio">, memref<1xi128, "plio">, memref<1xi128, "plio">, memref<1xi128, "plio">, memref<1xi128, "plio">, memref<1xi128, "plio">, memref<1xi128, "plio">, memref<1xi128, "plio">, memref<1xi128, "plio">, memref<1xi128, "plio">, memref<1xi128, "plio">, memref<1xi128, "plio">, memref<1xi128, "plio">, memref<1xi128, "plio">, memref<1xi128, "plio">, memref<1xi128, "plio">, memref<1xi128, "plio">, memref<1xi128, "plio">, memref<1xi128, "plio">, memref<1xi128, "plio">, memref<1xi128, "plio">, memref<1xi128, "plio">, memref<1xi128, "plio">, memref<1xi128, "plio">, memref<1xi128, "plio">, memref<1xi128, "plio">, memref<1xi128, "plio">, memref<1xi128, "plio">, memref<1xi128, "plio">, memref<1xi128, "plio">, memref<1xi128, "plio">, memref<1xi128, "plio">, memref<1xi128, "plio">, memref<1xi128, "plio">, memref<1xi128, "plio">, memref<1xi128, "plio">, memref<1xi128, "plio">, memref<1xi128, "plio">, memref<1xi128, "plio">, memref<1xi128, "plio">, memref<1xi128, "plio">, memref<1xi128, "plio">, memref<1xi128, "plio">, memref<1xi128, "plio">, memref<1xi128, "plio">, memref<1xi128, "plio">, memref<1xi128, "plio">, memref<1xi128, "plio">, memref<1xi128, "plio">, memref<1xi128, "plio">, memref<1xi128, "plio">, memref<1xi128, "plio">, memref<1xi128, "plio">, memref<1xi128, "plio">, memref<1xi128, "plio">, memref<1xi128, "plio">, memref<1xi128, "plio">, memref<1xi128, "plio">, memref<1xi128, "plio">, memref<1xi128, "plio">, memref<1xi128, "plio">, memref<1xi128, "plio">, memref<1xi128, "plio">, memref<1xi128, "plio">, memref<1xi128, "plio">, memref<1xi128, "plio">, memref<1xi128, "plio">, memref<1xi128, "plio">, memref<1xi128, "plio">, memref<1xi128, "plio">, memref<1xi128, "plio">, memref<1xi128, "plio">, memref<1xi128, "plio">, memref<1xi128, "plio">, memref<1xi128, "plio">, memref<1xi128, "plio">, memref<1xi128, "plio">, memref<1xi128, "plio">, memref<1xi128, "plio">, memref<1xi128, "plio">, memref<1xi128, "plio">, memref<1xi128, "plio">, memref<1xi128, "plio">, memref<1xi128, "plio">, memref<1xi128, "plio">, memref<1xi128, "plio">, memref<1xi128, "plio">, memref<1xi128, "plio">, memref<1xi128, "plio">, memref<1xi128, "plio">, memref<1xi128, "plio">, memref<1xi128, "plio">, memref<1xi128, "plio">, memref<1xi128, "plio">, memref<1xi128, "plio">, memref<1xi128, "plio">, memref<1xi128, "plio">, memref<1xi128, "plio">, memref<1xi128, "plio">, memref<1xi128, "plio">, memref<1xi128, "plio">, memref<1xi128, "plio">, memref<1xi128, "plio">, memref<1xi128, "plio">, memref<1xi128, "plio">, memref<1xi128, "plio">, memref<1xi128, "plio">, memref<1xi128, "plio">, memref<1xi128, "plio">, memref<1xi128, "plio">, memref<1xi128, "plio">, memref<1xi128, "plio">, memref<1xi128, "plio">, memref<1xi128, "plio">, memref<1xi128, "plio">, memref<1xi128, "plio">, memref<1xi128, "plio">, memref<1xi128, "plio">, memref<1xi128, "plio">, memref<1xi128, "plio">, memref<1xi128, "plio">, memref<1xi128, "plio">, memref<1xi128, "plio">, memref<1xi128, "plio">, memref<1xi128, "plio">, memref<1xi128, "plio">, memref<1xi128, "plio">, memref<1xi128, "plio">, memref<1xi128, "plio">, memref<1xi128, "plio">, memref<1xi128, "plio">, memref<1xi128, "plio">, memref<1xi128, "plio">, memref<1xi128, "plio">, memref<1xi128, "plio">, memref<1xi128, "plio">, memref<1xi128, "plio">, memref<1xi128, "plio">, memref<1xi128, "plio">, memref<1xi128, "plio">, memref<1xi128, "plio">, memref<1xi128, "plio">, memref<1xi128, "plio">, memref<1xi128, "plio">, memref<1xi128, "plio">, memref<1xi128, "plio">, memref<1xi128, "plio">, memref<1xi128, "plio">, memref<1xi128, "plio">, memref<1xi128, "plio">, memref<1xi128, "plio">, memref<1xi128, "plio">, memref<1xi128, "plio">, memref<1xi128, "plio">, memref<1xi128, "plio">, memref<1xi128, "plio">, memref<1xi128, "plio">, memref<1xi128, "plio">, memref<1xi128, "plio">, memref<1xi128, "plio">, memref<1xi128, "plio">, memref<1xi128, "plio">, memref<1xi128, "plio">) -> ()
      adf.pl.launch.wait
    }
    return
  }
  func.func @top(%arg0: memref<2816x512xi512>, %arg1: memref<8192x192xi512>, %arg2: memref<2816x192xi512>, %arg3: memref<1xi128, "plio">, %arg4: memref<1xi128, "plio">, %arg5: memref<1xi128, "plio">, %arg6: memref<1xi128, "plio">, %arg7: memref<1xi128, "plio">, %arg8: memref<1xi128, "plio">, %arg9: memref<1xi128, "plio">, %arg10: memref<1xi128, "plio">, %arg11: memref<1xi128, "plio">, %arg12: memref<1xi128, "plio">, %arg13: memref<1xi128, "plio">, %arg14: memref<1xi128, "plio">, %arg15: memref<1xi128, "plio">, %arg16: memref<1xi128, "plio">, %arg17: memref<1xi128, "plio">, %arg18: memref<1xi128, "plio">, %arg19: memref<1xi128, "plio">, %arg20: memref<1xi128, "plio">, %arg21: memref<1xi128, "plio">, %arg22: memref<1xi128, "plio">, %arg23: memref<1xi128, "plio">, %arg24: memref<1xi128, "plio">, %arg25: memref<1xi128, "plio">, %arg26: memref<1xi128, "plio">, %arg27: memref<1xi128, "plio">, %arg28: memref<1xi128, "plio">, %arg29: memref<1xi128, "plio">, %arg30: memref<1xi128, "plio">, %arg31: memref<1xi128, "plio">, %arg32: memref<1xi128, "plio">, %arg33: memref<1xi128, "plio">, %arg34: memref<1xi128, "plio">, %arg35: memref<1xi128, "plio">, %arg36: memref<1xi128, "plio">, %arg37: memref<1xi128, "plio">, %arg38: memref<1xi128, "plio">, %arg39: memref<1xi128, "plio">, %arg40: memref<1xi128, "plio">, %arg41: memref<1xi128, "plio">, %arg42: memref<1xi128, "plio">, %arg43: memref<1xi128, "plio">, %arg44: memref<1xi128, "plio">, %arg45: memref<1xi128, "plio">, %arg46: memref<1xi128, "plio">, %arg47: memref<1xi128, "plio">, %arg48: memref<1xi128, "plio">, %arg49: memref<1xi128, "plio">, %arg50: memref<1xi128, "plio">, %arg51: memref<1xi128, "plio">, %arg52: memref<1xi128, "plio">, %arg53: memref<1xi128, "plio">, %arg54: memref<1xi128, "plio">, %arg55: memref<1xi128, "plio">, %arg56: memref<1xi128, "plio">, %arg57: memref<1xi128, "plio">, %arg58: memref<1xi128, "plio">, %arg59: memref<1xi128, "plio">, %arg60: memref<1xi128, "plio">, %arg61: memref<1xi128, "plio">, %arg62: memref<1xi128, "plio">, %arg63: memref<1xi128, "plio">, %arg64: memref<1xi128, "plio">, %arg65: memref<1xi128, "plio">, %arg66: memref<1xi128, "plio">, %arg67: memref<1xi128, "plio">, %arg68: memref<1xi128, "plio">, %arg69: memref<1xi128, "plio">, %arg70: memref<1xi128, "plio">, %arg71: memref<1xi128, "plio">, %arg72: memref<1xi128, "plio">, %arg73: memref<1xi128, "plio">, %arg74: memref<1xi128, "plio">, %arg75: memref<1xi128, "plio">, %arg76: memref<1xi128, "plio">, %arg77: memref<1xi128, "plio">, %arg78: memref<1xi128, "plio">, %arg79: memref<1xi128, "plio">, %arg80: memref<1xi128, "plio">, %arg81: memref<1xi128, "plio">, %arg82: memref<1xi128, "plio">, %arg83: memref<1xi128, "plio">, %arg84: memref<1xi128, "plio">, %arg85: memref<1xi128, "plio">, %arg86: memref<1xi128, "plio">, %arg87: memref<1xi128, "plio">, %arg88: memref<1xi128, "plio">, %arg89: memref<1xi128, "plio">, %arg90: memref<1xi128, "plio">, %arg91: memref<1xi128, "plio">, %arg92: memref<1xi128, "plio">, %arg93: memref<1xi128, "plio">, %arg94: memref<1xi128, "plio">, %arg95: memref<1xi128, "plio">, %arg96: memref<1xi128, "plio">, %arg97: memref<1xi128, "plio">, %arg98: memref<1xi128, "plio">, %arg99: memref<1xi128, "plio">, %arg100: memref<1xi128, "plio">, %arg101: memref<1xi128, "plio">, %arg102: memref<1xi128, "plio">, %arg103: memref<1xi128, "plio">, %arg104: memref<1xi128, "plio">, %arg105: memref<1xi128, "plio">, %arg106: memref<1xi128, "plio">, %arg107: memref<1xi128, "plio">, %arg108: memref<1xi128, "plio">, %arg109: memref<1xi128, "plio">, %arg110: memref<1xi128, "plio">, %arg111: memref<1xi128, "plio">, %arg112: memref<1xi128, "plio">, %arg113: memref<1xi128, "plio">, %arg114: memref<1xi128, "plio">, %arg115: memref<1xi128, "plio">, %arg116: memref<1xi128, "plio">, %arg117: memref<1xi128, "plio">, %arg118: memref<1xi128, "plio">, %arg119: memref<1xi128, "plio">, %arg120: memref<1xi128, "plio">, %arg121: memref<1xi128, "plio">, %arg122: memref<1xi128, "plio">, %arg123: memref<1xi128, "plio">, %arg124: memref<1xi128, "plio">, %arg125: memref<1xi128, "plio">, %arg126: memref<1xi128, "plio">, %arg127: memref<1xi128, "plio">, %arg128: memref<1xi128, "plio">, %arg129: memref<1xi128, "plio">, %arg130: memref<1xi128, "plio">, %arg131: memref<1xi128, "plio">, %arg132: memref<1xi128, "plio">, %arg133: memref<1xi128, "plio">, %arg134: memref<1xi128, "plio">, %arg135: memref<1xi128, "plio">, %arg136: memref<1xi128, "plio">, %arg137: memref<1xi128, "plio">, %arg138: memref<1xi128, "plio">, %arg139: memref<1xi128, "plio">, %arg140: memref<1xi128, "plio">, %arg141: memref<1xi128, "plio">, %arg142: memref<1xi128, "plio">, %arg143: memref<1xi128, "plio">, %arg144: memref<1xi128, "plio">, %arg145: memref<1xi128, "plio">, %arg146: memref<1xi128, "plio">, %arg147: memref<1xi128, "plio">, %arg148: memref<1xi128, "plio">, %arg149: memref<1xi128, "plio">, %arg150: memref<1xi128, "plio">, %arg151: memref<1xi128, "plio">, %arg152: memref<1xi128, "plio">, %arg153: memref<1xi128, "plio">, %arg154: memref<1xi128, "plio">, %arg155: memref<1xi128, "plio">, %arg156: memref<1xi128, "plio">, %arg157: memref<1xi128, "plio">, %arg158: memref<1xi128, "plio">, %arg159: memref<1xi128, "plio">, %arg160: memref<1xi128, "plio">, %arg161: memref<1xi128, "plio">, %arg162: memref<1xi128, "plio">, %arg163: memref<1xi128, "plio">, %arg164: memref<1xi128, "plio">, %arg165: memref<1xi128, "plio">, %arg166: memref<1xi128, "plio">) attributes {outArgs = [2 : i32], top_func = "plio"} {
    call @gemm_pl(%arg0, %arg1, %arg2, %arg3, %arg4, %arg5, %arg6, %arg7, %arg8, %arg9, %arg10, %arg11, %arg12, %arg13, %arg14, %arg15, %arg16, %arg17, %arg18, %arg19, %arg20, %arg21, %arg22, %arg23, %arg24, %arg25, %arg26, %arg27, %arg28, %arg29, %arg30, %arg31, %arg32, %arg33, %arg34, %arg35, %arg36, %arg37, %arg38, %arg39, %arg40, %arg41, %arg42, %arg43, %arg44, %arg45, %arg46, %arg47, %arg48, %arg49, %arg50, %arg51, %arg52, %arg53, %arg54, %arg55, %arg56, %arg57, %arg58, %arg59, %arg60, %arg61, %arg62, %arg63, %arg64, %arg65, %arg66, %arg67, %arg68, %arg69, %arg70, %arg71, %arg72, %arg73, %arg74, %arg75, %arg76, %arg77, %arg78, %arg79, %arg80, %arg81, %arg82, %arg83, %arg84, %arg85, %arg86, %arg87, %arg88, %arg89, %arg90, %arg91, %arg92, %arg93, %arg94, %arg95, %arg96, %arg97, %arg98, %arg99, %arg100, %arg101, %arg102, %arg103, %arg104, %arg105, %arg106, %arg107, %arg108, %arg109, %arg110, %arg111, %arg112, %arg113, %arg114, %arg115, %arg116, %arg117, %arg118, %arg119, %arg120, %arg121, %arg122, %arg123, %arg124, %arg125, %arg126, %arg127, %arg128, %arg129, %arg130, %arg131, %arg132, %arg133, %arg134, %arg135, %arg136, %arg137, %arg138, %arg139, %arg140, %arg141, %arg142, %arg143, %arg144, %arg145, %arg146, %arg147, %arg148, %arg149, %arg150, %arg151, %arg152, %arg153, %arg154, %arg155, %arg156, %arg157, %arg158, %arg159, %arg160, %arg161, %arg162, %arg163, %arg164, %arg165, %arg166) : (memref<2816x512xi512>, memref<8192x192xi512>, memref<2816x192xi512>, memref<1xi128, "plio">, memref<1xi128, "plio">, memref<1xi128, "plio">, memref<1xi128, "plio">, memref<1xi128, "plio">, memref<1xi128, "plio">, memref<1xi128, "plio">, memref<1xi128, "plio">, memref<1xi128, "plio">, memref<1xi128, "plio">, memref<1xi128, "plio">, memref<1xi128, "plio">, memref<1xi128, "plio">, memref<1xi128, "plio">, memref<1xi128, "plio">, memref<1xi128, "plio">, memref<1xi128, "plio">, memref<1xi128, "plio">, memref<1xi128, "plio">, memref<1xi128, "plio">, memref<1xi128, "plio">, memref<1xi128, "plio">, memref<1xi128, "plio">, memref<1xi128, "plio">, memref<1xi128, "plio">, memref<1xi128, "plio">, memref<1xi128, "plio">, memref<1xi128, "plio">, memref<1xi128, "plio">, memref<1xi128, "plio">, memref<1xi128, "plio">, memref<1xi128, "plio">, memref<1xi128, "plio">, memref<1xi128, "plio">, memref<1xi128, "plio">, memref<1xi128, "plio">, memref<1xi128, "plio">, memref<1xi128, "plio">, memref<1xi128, "plio">, memref<1xi128, "plio">, memref<1xi128, "plio">, memref<1xi128, "plio">, memref<1xi128, "plio">, memref<1xi128, "plio">, memref<1xi128, "plio">, memref<1xi128, "plio">, memref<1xi128, "plio">, memref<1xi128, "plio">, memref<1xi128, "plio">, memref<1xi128, "plio">, memref<1xi128, "plio">, memref<1xi128, "plio">, memref<1xi128, "plio">, memref<1xi128, "plio">, memref<1xi128, "plio">, memref<1xi128, "plio">, memref<1xi128, "plio">, memref<1xi128, "plio">, memref<1xi128, "plio">, memref<1xi128, "plio">, memref<1xi128, "plio">, memref<1xi128, "plio">, memref<1xi128, "plio">, memref<1xi128, "plio">, memref<1xi128, "plio">, memref<1xi128, "plio">, memref<1xi128, "plio">, memref<1xi128, "plio">, memref<1xi128, "plio">, memref<1xi128, "plio">, memref<1xi128, "plio">, memref<1xi128, "plio">, memref<1xi128, "plio">, memref<1xi128, "plio">, memref<1xi128, "plio">, memref<1xi128, "plio">, memref<1xi128, "plio">, memref<1xi128, "plio">, memref<1xi128, "plio">, memref<1xi128, "plio">, memref<1xi128, "plio">, memref<1xi128, "plio">, memref<1xi128, "plio">, memref<1xi128, "plio">, memref<1xi128, "plio">, memref<1xi128, "plio">, memref<1xi128, "plio">, memref<1xi128, "plio">, memref<1xi128, "plio">, memref<1xi128, "plio">, memref<1xi128, "plio">, memref<1xi128, "plio">, memref<1xi128, "plio">, memref<1xi128, "plio">, memref<1xi128, "plio">, memref<1xi128, "plio">, memref<1xi128, "plio">, memref<1xi128, "plio">, memref<1xi128, "plio">, memref<1xi128, "plio">, memref<1xi128, "plio">, memref<1xi128, "plio">, memref<1xi128, "plio">, memref<1xi128, "plio">, memref<1xi128, "plio">, memref<1xi128, "plio">, memref<1xi128, "plio">, memref<1xi128, "plio">, memref<1xi128, "plio">, memref<1xi128, "plio">, memref<1xi128, "plio">, memref<1xi128, "plio">, memref<1xi128, "plio">, memref<1xi128, "plio">, memref<1xi128, "plio">, memref<1xi128, "plio">, memref<1xi128, "plio">, memref<1xi128, "plio">, memref<1xi128, "plio">, memref<1xi128, "plio">, memref<1xi128, "plio">, memref<1xi128, "plio">, memref<1xi128, "plio">, memref<1xi128, "plio">, memref<1xi128, "plio">, memref<1xi128, "plio">, memref<1xi128, "plio">, memref<1xi128, "plio">, memref<1xi128, "plio">, memref<1xi128, "plio">, memref<1xi128, "plio">, memref<1xi128, "plio">, memref<1xi128, "plio">, memref<1xi128, "plio">, memref<1xi128, "plio">, memref<1xi128, "plio">, memref<1xi128, "plio">, memref<1xi128, "plio">, memref<1xi128, "plio">, memref<1xi128, "plio">, memref<1xi128, "plio">, memref<1xi128, "plio">, memref<1xi128, "plio">, memref<1xi128, "plio">, memref<1xi128, "plio">, memref<1xi128, "plio">, memref<1xi128, "plio">, memref<1xi128, "plio">, memref<1xi128, "plio">, memref<1xi128, "plio">, memref<1xi128, "plio">, memref<1xi128, "plio">, memref<1xi128, "plio">, memref<1xi128, "plio">, memref<1xi128, "plio">, memref<1xi128, "plio">, memref<1xi128, "plio">, memref<1xi128, "plio">, memref<1xi128, "plio">, memref<1xi128, "plio">, memref<1xi128, "plio">, memref<1xi128, "plio">, memref<1xi128, "plio">, memref<1xi128, "plio">) -> ()
    return
  }
  func.func private @gemm_host(memref<2816x8192xf32>, memref<8192x3072xf32>, memref<2816x3072xf32>) attributes {origin_func = "gemm"}
  func.func @top_host(%arg0: memref<2816x8192xf32>, %arg1: memref<8192x3072xf32>, %arg2: memref<2816x3072xf32>) attributes {origin_func = "top", outArgs = [2 : i32], top_host} {
    call @gemm_host(%arg0, %arg1, %arg2) {origin_func = "gemm"} : (memref<2816x8192xf32>, memref<8192x3072xf32>, memref<2816x3072xf32>) -> ()
    return
  }
}

